model/PPO/Version3/best_actor.pth (torch, 279270 bytes, 6 tensors)

net.0.weight f4 [256, 8]
0.23641796 -0.19504592 0.2730371 -0.3437345 0.41771916 0.22167674 -0.29380456 0.100227624
-0.09611521 -0.103952825 -0.2846408 -0.098885015 0.8415671 0.3025093 0.08600423 -0.031875584
-0.18127252 -0.065454066 0.1154763 -0.18602347 -0.023148462 -0.010466341 0.35092914 0.33464012
0.037610162 -0.64876914 -0.2191811 -0.5233344 0.206691 -0.029750258 0.385482 -0.13567536
-0.23813571 -0.29069656 -0.19325703 -0.08194445 0.342128 -0.36602378 -0.13784724 0.25502047
0.09671362 -0.36272094 -0.03982483 0.15281871 -0.32302135 0.18639517 -0.2253581 -0.28106132
0.16310564 -0.17984283 0.037853938 -0.18730378 0.26597553 0.07172707 0.30683702 -0.29126835
-0.24959166 -0.034152966 -0.2396955 -0.0066071902 -0.32403824 0.36153188 -0.07965392 -0.33514807
0.118606634 -0.01371594 0.14231633 0.2913463 -0.3069046 -0.22390138 0.38377768 0.033480413
-0.040765364 0.11282326 -0.13295305 0.22277963 0.0918561 -0.18055892 0.031149302 0.09435542
-0.17680956 -0.044379916 -0.018390724 -0.16584411 0.64994997 -0.053963453 0.18896274 -0.2598144
-0.018046943 0.10731011 -0.16297661 0.27504715 0.82900643 0.3697202 -0.124377176 0.26663226
0.20688263 0.22468987 0.031985264 0.29411376 -0.21609618 0.47040617 0.12594199 0.2138347
-0.19534989 -0.14855736 0.2557313 0.10651613 0.1259758 -0.36564577 0.23731124 -0.5350732
0.15603426 0.13867024 0.25471473 0.3826621 -0.3645199 -0.32143772 -0.14484963 0.216753
-0.02658637 -0.08275891 0.036917243 -0.060884245 1.08551 0.5687146 0.0085740555 -0.1909849
-0.00029865874 -0.5784494 -0.27322367 0.03964782 -0.16401924 -0.11929613 0.25977346 0.10150641
-0.2694185 0.26598734 -0.07999487 0.2044344 -0.5401377 -0.25518104 -0.23988178 0.012952558
0.060847804 0.31698087 0.28551802 0.77405524 -0.5073387 -0.43680295 0.1411546 0.00037724932
-0.02791884 -0.44405854 0.30791205 -0.21004124 -0.3564796 0.04685227 0.28109092 0.22030069
-0.16024849 -0.428277 0.28775114 -0.21975508 -0.33087575 -0.12670071 0.3191928 0.3208221
-0.07357994 -0.22647274 -0.21890198 0.58150417 0.7275686 0.13388841 0.25056726 -0.048923105
-0.31445974 -0.29010734 0.20652528 -0.13357173 -0.13085662 -0.19825296 -0.30161244 -0.19250381
0.15152122 0.3401247 0.26794603 0.34717214 -0.30512914 -0.036773592 0.45952278 -0.23548141
-0.29294214 0.06417286 0.076253034 0.17380695 0.8279976 0.54301983 -0.1910006 -0.06687712
-0.22082423 -0.10225681 0.32152703 0.8025071 -0.10674883 -0.36544982 -0.021514352 0.32647976
0.30233318 -0.13098405 0.13454546 -0.11069159 0.2658973 -0.21702474 0.32438934 -0.13261746
-0.19378603 0.369332 0.041603625 0.18505058 -0.12594907 -0.32171887 0.13053288 -0.49399957
-0.44305137 0.13591908 -0.16048262 -0.4312116 -0.03581378 0.13221762 -0.18366219 -0.26786417
-0.2649656 -0.34777564 -0.14566746 0.2912435 0.38650388 0.16847777 -0.12369329 0.32344526
-0.0075530265 -0.2134809 0.013681024 0.38036668 0.28468505 -0.28115937 -0.09790323 -0.2949352
-0.32638833 0.14249277 0.46731907 0.14750434 -0.5618841 -0.4313014 0.20898831 -0.14032826
00000000: 8d17 723e 1eba 47be 85cb 8b3e f8fd afbe
00000010: 49df d53e 3aff 623e 8d6d 96be 2444 cd3d
00000020: 0dd8 c4bd 38e5 d4bd 70bc 91be 3a84 cabd
00000030: f170 573f 80e2 9a3e fc22 b03d f98f 02bd
00000040: 819f 39be c80c 86bd d77e ec3d f07c 3ebe
00000050: d8a1 bdbc 047b 2bbc fcac b33e f355 ab3e
00000060: 1d0d 1a3d bc15 26bf 0371 60be 3ef9 05bf
00000070: cea6 533e d0b6 f3bc e65d c53e 7bee 0abe
00000080: d9d9 73be 2ed6 94be 2ce5 45be 7ed2 a7bd
00000090: 672b af3e 7867 bbbe d427 0dbe 0b92 823e
000000a0: ca11 c63d 8fb6 b9be 5c1f 23bd 827c 1c3e
000000b0: 0e63 a5be 60de 3e3e 46c4 66be 45e7 8fbe
000000c0: 2a05 273e b828 38be bb0c 1b3d 90cc 3fbe
000000d0: f22d 883e a4e5 923d be19 9d3e 2021 95be
000000e0: f594 7fbe fbe3 0bbd bd72 75be 2181 d8bb
000000f0: 57e8 a5be b51a b93e 9821 a3bd 8798 abbe
00000100: 09e8 f23d d2b8 60bc 5fbb 113e 582b 953e
00000110: 9a22 9dbe 6746 65be 827e c43e c222 093d
00000120: 95f9 26bd e20f e73d d824 08be 5820 643e
00000130: 0d1f bc3d 70e4 38be d22c ff3c 6a3d c13d
00000140: 910d 35be b7c7 35bd 25a8 96bc 0ad3 29be
00000150: 1f63 263f c808 5dbd 737f 413e 6506 85be
00000160: 2fd7 93bc 67c5 db3d 57e3 26be fbd2 8c3e
00000170: c439 543f f74b bd3e 76b9 febd 0684 883e
00000180: 0ad9 533e 1a15 663e fb02 033d 1496 963e
00000190: 5148 5dbe 14d9 f03e f0f6 003e 7cf7 5a3e
000001a0: cd09 48be 6c1f 18be 37ef 823e 2125 da3d
000001b0: cdff 003e ec35 bbbe b801 733e 8ffa 08bf
000001c0: 72c7 1f3e 92ff 0d3e f869 823e 49ec c33e
000001d0: 5aa2 babe 7c93 a4be 7653 14be 80f4 5d3e
000001e0: a9cb d9bc 817d a9bd 8936 173d c261 79bd
000001f0: fef1 8a3f 4897 113f 327a 0c3c 8c91 43be
00000200: 4c95 9cb9 4315 14bf f9e3 8bbe c165 223d
00000210: a9f4 27be 8851 f4bd 0701 853e 98e2 cf3d
00000220: 39f1 89be 7e2f 883e 5ad4 a3bd 4057 513e
00000230: 7746 0abf 17a7 82be 92a3 75be f736 543c
00000240: 8c3b 793d 514b a23e 6b2f 923e 7c28 463f
00000250: f3e0 01bf a3a4 dfbe d58a 103e 8cc9 c539
00000260: 0db6 e4bc a45b e3be a6a6 9d3e 0d15 57be
00000270: 7e84 b6be 2ae8 3f3d 26eb 8f3e 8196 613e
00000280: 2e18 24be 1f47 dbbe 1e54 933e 7a07 61be
00000290: 8c68 a9be d5bd 01be 3d6d a33e cb42 a43e
000002a0: 14b1 96bd 78e8 67be d727 60be 75dd 143f
000002b0: f041 3a3f 0b1a 093e 5a4a 803e 9863 48bd
000002c0: de00 a1be f388 94be 5d7b 533e 07c7 08be
000002d0: 47ff 05be d302 4bbe f26c 9abe b81f 45be
000002e0: 6128 1b3e d324 ae3e 3930 893e 8cc0 b13e
000002f0: e339 9cbe e89f 16bd 9246 eb3e 0a22 71be
00000300: 83fc 95be 0f6d 833d 8d2a 9c3d 73fa 313e
00000310: a7f7 533f 5903 0b3f a995 43be dff6 88bd
00000320: bf1f 62be 056c d1bd 319f a43e 1b71 4d3f
00000330: 219f dabd 3d1c bbbe de3e b0bc 5b28 a73e
00000340: 6acb 9a3e af20 06be 49c6 093e 46b2 e2bd
00000350: b123 883e bc3b 5ebe 5c16 a63e dfcc 07be
00000360: d86f 46be 1519 bd3e 9068 2a3d e67d 3d3e
00000370: cbf8 00be 56b8 a4be 69aa 053e 83ed fcbe
00000380: a1d7 e2be 5f2e 0b3e 8e55 24be c4c7 dcbe
00000390: 78b1 12bd 0e64 073e f111 3cbe 7e25 89be
000003a0: 92a9 87be a60f b2be da29 15be de1d 953e
000003b0: d6e3 c53e 7085 2c3e e852 fdbd 9e9a a53e
000003c0: 617f f7bb bd9a 5abe 6026 603c 6cbf c23e
000003d0: 3dc2 913e 1ff4 8fbe 7d81 c8bd bf01 97be
000003e0: 5f1c a7be a0e9 113e 7244 ef3e 610b 173e
000003f0: a3d7 0fbf 89d3 dcbe 0801 563e 36b2 0fbe

net.0.bias f4 [256]
-0.043348182 0.1494349 -0.2543683 0.0528455 -0.077709 -0.0020581582 0.029856265 -0.075621
0.20281424 -0.35280794 0.06423574 0.06252172 -0.33734676 -0.024048368 0.21128784 0.14602828
0.17729753 0.14688747 0.23440038 0.06308776 0.073006116 0.3686724 -0.27181765 -0.04054955
0.27162877 0.16472813 -0.23747437 0.11320771 -0.15765794 -0.26711756 -0.3022108 0.046596147
-0.09052407 0.15526561 -0.054294635 -0.03263454 -0.28106242 0.02063124 -0.16177694 0.07674564
-0.18515368 0.09224536 0.29710814 -0.022325665 0.13426842 0.08797803 -0.07505209 -0.20195182
0.15655422 0.17823035 0.068791635 0.38393992 -0.15795776 0.09070424 -0.18719563 0.24190934
-0.27212816 0.043498054 -0.26059595 -0.104613274 0.13970391 0.3577783 0.12756766 -0.047536794
-0.3519998 0.1855528 0.038110323 -0.26477888 -0.3534911 0.063282125 -0.06611414 0.13633813
0.1712582 0.11587837 0.33583382 -0.20704146 0.17805469 0.23830365 -0.10068995 -0.292972
0.09639793 -0.31240946 0.20589031 0.3004001 -0.08319374 0.09278327 -0.09082104 0.19029371
-0.27549204 0.11751933 -0.20956767 0.18089156 0.11356608 0.19090128 0.11377683 -0.062638365
-0.46160376 0.20993395 0.21571946 -0.043742947 0.260837 0.24873328 0.25424746 -0.04931948
-0.21951398 -0.21696648 0.09186863 -0.14496082 0.22281472 -0.225443 0.1503384 0.17085695
-0.08981402 -0.027784614 -0.21681404 0.08490413 -0.17385714 0.22716253 -0.053297233 0.10980624
-0.10767895 -0.1632141 0.05648971 0.1867271 0.02024378 -0.2512953 0.34275833 -0.20107217
0.20904027 0.042708717 0.091198914 -0.055580672 -0.31395558 -0.093958735 0.121770345 0.3072937
-0.0907203 -0.27124378 0.10187302 0.1289204 0.066168144 0.09402854 0.10495996 -0.020150138
-0.1931841 0.043938734 0.2413839 -0.11432816 -0.27818322 0.20256801 0.00070608675 0.12363033
0.14890373 -0.24196193 -0.07415247 -0.20399581 -0.006392255 0.2515977 0.2927289 0.016209526
0.14846224 0.23907796 0.22663976 -0.22329836 0.20625214 0.17139377 0.113301955 -0.05778515
-0.010918987 0.0058755954 0.23613085 0.20566022 -0.10350362 -0.28251687 0.14040373 0.34204975
-0.2794781 0.2460601 0.0076192757 0.058392048 0.18507227 0.12277789 0.15000378 -0.23283012
0.020603575 0.20469174 -0.17642325 -0.07780793 0.15693894 0.06163099 0.08678443 -0.1674913
-0.0882105 0.25652432 0.07274633 0.099912606 0.20479767 -0.028587662 -0.019995721 0.02320565
0.33728546 0.122204944 -0.02643555 -0.19820306 0.12447399 0.1905722 0.08757308 0.34532455
0.18472645 0.19183263 -0.032012038 -0.043518197 -0.3185413 -0.21720278 -0.010631484 -0.24970108
-0.428283 0.10962494 -0.15163854 0.079572156 0.006407614 -0.36781672 0.06348501 0.24227874
-0.24759479 -0.084360674 0.33536816 -0.061427984 -0.0048419745 -0.06026172 0.13773118 -0.15963511
0.17606533 -0.06319203 -0.23083892 0.21356732 -0.020875284 0.13219777 0.3124736 0.17167369
0.26274836 0.089517325 0.030431423 0.08597678 -0.05142682 0.20163953 0.1022601 0.01741092
-0.25995833 -0.13524419 -0.08811408 -0.28673437 0.021899335 -0.028804243 0.0975863 0.067508325
00000000: dd8d 31bd 7605 193e 903c 82be 8674 583d
00000010: e525 9fbd 2ae2 06bb 2095 f43c 2fdf 9abd
00000020: 89ae 4f3e 3ea3 b4be 078e 833d 630b 803d
00000030: b7b8 acbe 1501 c5bc d75b 583e 7088 153e
00000040: 7c8d 353e ab69 163e a706 703e 2834 813d
00000050: 3b84 953d a1c2 bc3e af2b 8bbe 4917 26bd
00000060: ed12 8b3e 7eae 283e 7b2c 73be 72d9 e73d
00000070: 1571 21be a2c3 88be 60bb 9abe 9adb 3e3d
00000080: af64 b9bd f3fd 1e3e 0d64 5ebd ccab 05bd
00000090: 6ae7 8fbe d902 a93c dba8 25be d12c 9d3d
000000a0: ed98 3dbe 23eb bc3d 8f1e 983e 50e4 b6bc
000000b0: a97d 093e d32d b43d e9b4 99bd 75cc 4ebe
000000c0: c04f 203e 0482 363e a1e2 8c3d c693 c43e
000000d0: aebf 21be 25c3 b93d 36b0 3fbe 15b7 773e
000000e0: 6254 8bbe 042b 323d d56c 85be 7c3f d6bd
000000f0: 8b0e 0f3e b82e b73e 19a1 023e f1b5 42bd
00000100: 5139 b4be 8e01 3e3e 9219 1c3d 1991 87be
00000110: c9fc b4be 0f9a 813d da66 87bd 399c 0b3e
00000120: 4f5e 2f3e a451 ed3d 69f2 ab3e ad02 54be
00000130: f853 363e df05 743e 8836 cebd 6d00 96be
00000140: 476c c53d 22f4 9fbe e9d4 523e 0bce 993e
00000150: 7b61 aabd 2805 be3d 6200 babd 5bdc 423e
00000160: 4b0d 8dbe f9ad f03d e898 56be a33b 393e
00000170: 5595 e83d a07b 433e d403 e93d 8b48 80bd
00000180: 5457 ecbe edf8 563e 90e5 5c3e ce2b 33bd
00000190: 6d8c 853e f0b3 7e3e b92c 823e 3903 4abd
000001a0: 46c8 60be 762c 5ebe 9f25 bc3d 9c70 14be
000001b0: 8b29 643e 88da 66be 4ff2 193e 20f5 2e3e
000001c0: 6af0 b7bd 8f9c e3bc 8004 5ebe 37e2 ad3d
000001d0: 9b07 32be 4b9d 683e 334e 5abd 18e2 e03d
000001e0: c886 dcbd 9921 27be c161 673d 6435 3f3e
000001f0: 49d6 a53c c7a9 80be 057e af3e dde5 4dbe
00000200: a70e 563e 56ef 2e3d 7fc6 ba3d 8fa8 63bd
00000210: c9be a0be 706d c0bd bb62 f93d 9a55 9d3e
00000220: 91cb b9bd 77e0 8abe cda2 d03d b603 043e
00000230: 2a83 873d 0992 c03d 3ff5 d63d e711 a5bc
00000240: 0dd2 45be 1af9 333d 572d 773e e224 eabd
00000250: 086e 8ebe fd6d 4f3e ae18 393a e631 fd3d
00000260: 387a 183e dec4 77be 40dd 97bd 47e4 50be
00000270: 1f76 d1bb 6ad1 803e 90e0 953e d7c9 843c
00000280: 7c06 183e dad0 743e 4114 683e 53a8 64be
00000290: c333 533e d981 2f3e db0a e83d 1fb0 6cbd
000002a0: 8de5 32bc 1188 c03b 49cc 713e 9898 523e
000002b0: b5f9 d3bd 0da6 90be ffc5 0f3e 2521 af3e
000002c0: c117 8fbe 2ef7 7b3e 1eab f93b 802c 6f3d
000002d0: 9683 3d3e f972 fb3d 979a 193e 056b 6ebe
000002e0: d4c8 a83c b69a 513e 4ca8 34be c459 9fbd
000002f0: 9ab4 203e c770 7c3d 09bc b13d d782 2bbe
00000300: b5a7 b4bd 2857 833e 07fc 943d fb9e cc3d
00000310: 7bb6 513e ac30 eabc 11ce a3bc c619 be3c
00000320: aeb0 ac3e 9646 fa3d 5e8f d8bc bef5 4abe
00000330: 38ec fe3d 5c25 433e 8459 b33d 61ce b03e
00000340: ee28 3d3e c66f 443e 0e1f 03bd 2340 32bd
00000350: d817 a3be 686a 5ebe ad2f 2ebc a4b1 7fbe
00000360: e947 dbbe 0a83 e03d 2247 1bbe baf6 a23d
00000370: f6f6 d13b 7952 bcbe 6e04 823d eb17 783e
00000380: 7d89 7dbe 4ac5 acbd 60b5 ab3e e99b 7bbd
00000390: 6da9 9ebb fed4 76bd 6709 0d3e 6377 23be
000003a0: 784a 343e d36a 81bd 0a61 6cbe 64b1 5a3e
000003b0: a502 abbc da5e 073e 8afc 9f3e 3acb 2f3e
000003c0: f486 863e dc54 b73d 524b f93c 9814 b03d
000003d0: eea4 52bd 987a 4e3e be6d d13d 58a1 8e3c
000003e0: 4219 85be 747d 0abe 2875 b4bd d9ce 92be
000003f0: 3c66 b33c e0f6 ebbc 53db c73d ce41 8a3d

net.2.weight f4 [256, 256]
-0.029353458 -0.027537538 0.052616373 0.013659505 -0.044587787 0.032111645 0.042071264 -0.03577725
-0.02936388 0.02052638 0.02909035 0.00743524 -0.054392412 0.03547145 -0.04652046 -0.024058077
0.047889847 0.038000885 -0.060786806 0.02387557 -0.06727168 -0.031557135 0.04183355 0.053099655
-0.00019065973 0.0006936801 -0.029406661 0.025411788 -0.03022471 0.054305702 -0.0028963634 0.027180798
-0.005158267 0.040658407 0.017933836 -0.012448583 0.036767215 0.04248243 -0.012674741 0.052574508
-0.024558797 -0.058653384 0.035851784 0.012929775 -0.008469089 -0.0009187843 -0.024096102 -0.059443653
-0.0070330114 -0.03181278 0.015836798 0.029280858 -0.024520768 -0.04445878 0.05506354 -0.042378053
-0.015031783 -0.023160934 -0.031052716 0.013088472 0.003112852 -0.03417427 -0.048871163 0.014526922
-0.027380385 -0.061997574 0.0033909192 -0.00683371 -0.051272623 0.039511506 -0.027768001 -0.033227127
0.04696256 -0.05959437 0.039010797 0.014779933 0.03139707 -0.06500595 -0.052270215 -0.061424308
-0.00047783504 0.03351017 -0.06369654 -0.037868712 -0.030744538 0.04034828 -0.022582568 0.025880635
-0.0022454937 0.012836948 0.053248785 -0.031592898 -0.036610328 0.02687139 0.04431442 0.01808589
0.058815673 0.006176067 -0.02903937 -0.059979886 -0.015423903 -0.010658082 -0.013219649 0.017850444
-0.07180915 0.030568777 0.03748802 -0.051359005 -0.00091841473 -0.057431225 -0.0010647601 0.023401802
0.061296076 0.03269491 0.03800998 0.023619879 0.030562952 -0.0017762221 -0.007232789 0.043179154
0.039054364 -0.052135218 -0.051635504 -0.0044110464 -0.024350354 -0.06184734 -0.06244228 0.0059182337
0.05474272 0.0363112 0.017114522 0.029518181 0.04012148 0.035397246 0.003268905 -0.006786734
-0.009259013 0.05246968 0.040588878 0.022333844 0.03772633 -0.04645387 0.0027917942 -0.06030799
-0.036561377 0.03655358 -0.0640961 -0.027166113 -0.068786375 -0.0482345 -0.0005447492 -0.042702895
0.024780972 0.01445023 0.03966561 0.003349056 0.052355826 -0.032006737 0.034432303 -0.005819291
-0.0358882 -0.06977245 0.01607603 -0.00546243 0.017538538 0.031000854 0.05080517 -0.01659378
0.05070637 -0.014486268 0.0064208554 -0.048625294 -0.021197274 0.0006535554 -0.06855895 -0.026992176
0.039660614 -0.0403014 0.023865618 -0.023135688 -0.014063589 -0.055743117 -0.040935706 -0.019224264
-0.009691261 0.020239355 -0.033701897 0.0053919177 0.015809093 -0.04535248 0.054771323 0.02495455
-0.028668705 -0.06196748 -0.020584164 -0.043939397 -0.04140493 -0.046497267 -0.04145268 -0.025469678
0.019632583 -0.067490034 0.023730492 0.03190247 -0.036746096 -0.015937863 -0.034494422 -0.021525899
-0.029742107 -0.043748878 -0.06391753 -0.044796742 -0.06365294 -0.035646938 -0.039042834 0.0056667603
-0.0061922073 0.03754245 0.042202666 -0.026559176 -0.004845269 -0.054803 -0.05735622 -0.047789
0.05061122 0.0055152997 -0.028618343 0.047794625 0.041800167 -0.0066125668 0.031610094 0.011551247
-0.040261723 -0.062360927 0.005219742 -0.04470581 -0.048430745 0.054148093 -0.06166507 -0.035718083
0.030668544 -0.027917556 -0.011035744 0.026907206 0.031208044 -0.04312092 0.002235973 0.04092566
-0.028124362 -0.021201834 -0.0004643782 -0.02754628 -0.056382447 -0.041676037 -0.05967208 0.027718093
00000000: aa76 f0bc 6796 e1bc 4484 573d 1ecc 5f3c
00000010: afa1 36bd 8087 033d eb52 2c3d 2a8b 12bd
00000020: 858c f0bc f026 a83c e34e ee3c 50a3 f33b
00000030: 94ca 5ebd 834a 113d 3d8c 3ebd 7215 c5bc
00000040: 2528 443d d1a6 1b3d 96fb 78bd b396 c33c
00000050: bcc5 89bd 0e42 01bd a859 2b3d 067f 593d
00000060: d5eb 47b9 15d8 353a 3de6 f0bc 622c d03c
00000070: d099 f7bc a86f 5e3d ead0 3dbb 44aa de3c
00000080: ae06 a9bb 6e89 263d fbe9 923c 24f5 4bbc
00000090: 3899 163d 0e02 2e3d b8a9 4fbc 5e58 573d
000000a0: 882f c9bc 883e 70bd 52d9 123d 68d7 533c
000000b0: efc1 0abc 92da 70ba 3065 c5bc 307b 73bd
000000c0: 2d75 e6bb 1e4e 02bd 2cbc 813c 69de ef3c
000000d0: c7df c8bc 691a 36bd 4e8a 613d 9c94 2dbd
000000e0: de47 76bc 00bc bdbc 4462 febc 0871 563c
000000f0: fe00 4c3b 52fa 0bbd 212d 48bd 5402 6e3c
00000100: d44c e0bc 2bf1 7dbd 2f3a 5e3b 50ed dfbb
00000110: 3e03 52bd d1d6 213d b879 e3bc 2b19 08bd
00000120: d05b 403d 3a19 74bd c9c9 1f3d 8827 723c
00000130: 379a 003d d721 85bd 4b19 56bd 0e98 7bbd
00000140: ef85 fab9 f641 093d 5573 82bd 391c 1bbd
00000150: f8db fbbc 3d44 253d 14ff b8bc a003 d43c
00000160: 2229 13bb 1052 523c 661b 5a3d 8e67 01bd
00000170: b6f4 15bd 6421 dc3c 0a83 353d dc28 943c
00000180: b4e8 703d 9b60 ca3b f9e3 edbc 78ad 75bd
00000190: 8ab4 7cbc 3c9f 2ebc 3a97 58bc 183b 923c
000001a0: ad10 93bd 5f6b fa3c 0a8d 193d d25d 52bd
000001b0: c5c1 70ba 013d 6bbd 6c8f 8bba 23b5 bf3c
000001c0: 9811 7b3d 19eb 053d 5ab0 1b3d 7a7e c13c
000001d0: 285f fa3c 20d0 e8ba 0801 edbb a0dc 303d
000001e0: 78f7 1f3d bd8b 55bd c07f 53bd 8a8a 90bb
000001f0: 657a c7bc a353 7dbd 7ac3 7fbd beed c13b
00000200: e739 603d 0ebb 143d c133 8c3c 1dd0 f13c
00000210: 6c56 243d b4fc 103d 203b 563b 4063 debb
00000220: 1eb3 17bc 72ea 563d 8640 263d 77f5 b63c
00000230: ed86 1a3d 6a46 3ebd 89f6 363b 8305 77bd
00000240: 62c1 15bd 35b9 153d d144 83bd 788b debc
00000250: dfdf 8cbd 8a91 45bd 80cd 0eba 3be9 2ebd
00000260: 7701 cb3c a8c0 6c3c 6878 223d d67b 5b3b
00000270: 1073 563d 7f19 03bd e308 0d3d c0af bebb
00000280: 81ff 12bd dce4 8ebd e1b1 833c 2ffe b2bb
00000290: fbac 8f3c 81f5 fd3c 1519 503d aeef 87bc
000002a0: 7cb1 4f3d d057 6dbc 0a66 d23b 512b 47bd
000002b0: e8a5 adbc 5c53 2b3a a368 8cbd b21e ddbc
000002c0: 2b73 223d 1513 25bd d481 c33c 0e87 bdbc
000002d0: f86a 66bc e552 64bd 33ac 27bd 347c 9dbc
000002e0: 18c8 1ebc 01cd a53c 000b 0abd afae b03b
000002f0: 1282 813c 86c3 39bd e557 603d 7c6d cc3c
00000300: a2da eabc 9dd1 7dbd 1fa0 a8bc ccf9 33bd
00000310: 3798 29bd eb73 3ebd 49ca 29bd c9a5 d0bc
00000320: 83d4 a03c 3738 8abd 7366 c23c 2aac 023d
00000330: 1383 16bd 1f90 82bc 064a 0dbd 1557 b0bc
00000340: b8a5 f3bc 0632 33bd 32e7 82bd ca7c 37bd
00000350: 795c 82bd 8602 12bd 61eb 1fbd 3bb0 b93b
00000360: 00e8 cabb 1dc6 193d b4dc 2c3d a192 d9bc
00000370: 10c5 9ebb 1c79 60bd 5bee 6abd 66be 43bd
00000380: b64d 4f3d b0b9 b43b 0471 eabc 4cc4 433d
00000390: a736 2b3d 3bae d8bb 9679 013d 7141 3d3c
000003a0: 7ae9 24bd 2c6e 7fbd 5f0a ab3b 701d 37bd
000003b0: 515f 46bd 64ca 5d3d 8394 7cbd 204d 12bd
000003c0: 993c fb3c 5cb3 e4bc 44cf 34bc 806c dc3c
000003d0: 03a8 ff3c 909f 30bd 6789 123b aaa1 273d
000003e0: 1065 e6bc 78af adbc c977 f3b9 bca8 e1bc
000003f0: 48f1 66bd 7eb4 2abd b66a 74bd 0e11 e33c

net.2.bias f4 [256]
0.002263444 -0.043517742 -0.036147278 0.06177418 0.06441497 -0.089698404 -0.08513851 0.015091432
0.004681497 -0.00165184 0.12472579 0.022949444 0.018801378 -0.021067733 0.012404638 -0.044461418
-0.07569206 0.04288266 -0.019291416 -0.046948068 -0.010898603 0.032433067 0.009063173 -0.053514343
-0.062243547 0.017468816 0.028588925 -0.05159267 -0.018785255 -0.0856358 0.08493992 0.04626711
-0.06013043 0.012186691 -0.028689908 -0.004150643 -0.044916935 -0.026378565 0.07552451 -0.023608353
-0.023897672 0.028802194 -0.04825127 0.006673725 -0.03260328 0.08646118 -0.02224768 -0.033289343
0.04324231 0.0140681295 0.0030449545 0.0026491124 -0.029661607 -0.017022498 -0.06588577 -0.0845569
-0.06501237 0.067694895 -0.07265036 -0.0028123271 -0.001053517 -0.06463841 0.040514853 -0.00026973768
-0.0500448 -0.032436762 -0.01668866 0.09857236 0.048022643 0.015263555 -0.022280177 0.07158182
-0.052112605 0.0028211686 -0.048181437 8.5550775e-05 0.029036997 0.03139874 -0.07101336 -0.0528805
0.0020230343 -0.0044117635 0.029763872 0.0062487647 -0.004494069 0.0404759 -0.044963077 0.07660681
0.028922258 -0.043163255 -0.078024104 -0.068258576 -0.07346399 0.052153885 -0.033120926 -0.01770644
-0.034068666 -0.028387018 0.075114414 -0.012427604 0.1123276 -0.032434795 0.047019444 -0.03306079
-0.009772813 -0.060642805 0.04593231 0.034982845 0.028705006 0.019294119 -0.016796323 0.061117433
0.057039913 0.025833396 -0.044809986 0.107856505 0.11626353 -0.00633729 0.07311603 -0.035058055
0.04140951 0.069069244 -0.03434401 -0.06333797 -0.032292273 0.04728971 0.025871912 -0.025670126
-0.0049935044 -0.070681915 0.025718236 0.032389227 -0.022555506 0.07235448 -0.01956007 -0.010917614
0.0016221119 0.03369136 0.005550768 -0.10339459 0.043347128 0.027647141 -0.06091851 -0.002755296
-0.01346229 -0.0052957237 -0.0071834307 -0.011095339 -0.018053882 -0.038998637 -0.038409896 -0.0025290784
-0.0968389 0.056892328 0.012243159 -0.08246977 -0.003814878 -0.050323784 -0.010030858 0.023380548
-0.06654947 -0.013191909 0.11466495 0.0029225722 -0.017069517 -0.0098842 -0.023302361 0.03339758
0.0031498224 0.09609869 0.00039269248 -0.027466962 0.070031136 0.062020395 0.03694664 -0.043824345
0.056182053 -0.024290692 0.028816264 0.010624609 -0.0301566 -0.026032807 0.0047596996 0.035218585
-0.0005129829 0.012584972 -0.023450222 -0.008718129 -0.049737573 -0.034058876 0.029817304 -0.052646644
-0.012320919 -0.022954352 -0.070448145 0.04313397 -0.014678999 -0.044277444 0.0038202782 -0.048298392
-0.05897204 -0.06747753 0.049828816 -0.003378748 0.041384216 0.050815664 -0.025500504 0.017138286
0.020848889 -0.027178941 0.014112401 0.061165713 -0.048058838 0.04256306 -0.030418018 -0.037271723
0.008717744 0.021296334 0.10148611 -0.048348635 0.029895267 0.10155251 -0.0076282094 -0.011180256
-0.011053781 -0.09471599 0.03286667 0.053277723 -0.073955014 -0.039118335 0.0141535625 0.12834589
0.014072548 0.0006507811 -0.059101198 -0.06466401 -0.055955406 0.03501819 0.013735298 0.031225083
0.020234592 0.0059482716 0.057775706 -0.006437234 0.048461642 -0.06298368 -0.01891848 -0.057439867
-0.013677545 -0.045962237 0.050005075 0.10189909 -0.051600955 0.041701533 0.064407304 0.047229882
00000000: 4a56 143b a93f 32bd 2b0f 14bd ec06 7d3d
00000010: ffeb 833d ccb3 b7bd 195d aebd 0e42 773c
00000020: 3e67 993b 8e82 d8ba 3c70 ff3d 7900 bc3c
00000030: 5905 9a3c 3d96 acbc d33c 4b3c 2d1d 36bd
00000040: 7004 9bbd baa5 2f3d 0809 9ebc 9e4c 40bd
00000050: 0e90 32bc 89d8 043d b47d 143c db31 5bbd
00000060: 17f3 7ebd c31a 8f3c 5233 ea3c d652 53bd
00000070: 89e3 99bc d361 afbd fbf4 ad3d 9582 3d3d
00000080: 534b 76bd b0aa 473c 1907 ebbc 1e02 88bb
00000090: d2fa 37bd dc17 d8bc 98ac 9a3d 4e66 c1bc
000000a0: 0dc5 c3bc 94f2 eb3c 20a3 45bd 43af da3b
000000b0: 048b 05bd 8f12 b13d c440 b6bc 685a 08bd
000000c0: d91e 313d 037e 663c dc8d 473b bb9c 2d3b
000000d0: e6fc f2bc c472 8bbc 1eef 86bd 2b2c adbd
000000e0: 3525 85bd 9fa3 8a3d b6c9 94bd 054f 38bb
000000f0: 2a16 8aba 2561 84bd e7f2 253d 946b 8db9
00000100: c7fb 4cbd 69dc 04bd a8b6 88bc 4ee0 c93d
00000110: 64b3 443d fd13 7a3c eb84 b6bc 7d99 923d
00000120: 0774 55bd 5be3 383b e659 45bd b969 b338
00000130: ffde ed3c f79b 003d 746f 91bd 3999 58bd
00000140: e294 043b 8e90 90bb 5dd3 f33c 70c2 cc3b
00000150: fc42 93bb 0fca 253d 342b 38bd 08e4 9c3d
00000160: 5fee ec3c f4cb 30bd 1acb 9fbd 27cb 8bbd
00000170: 4a74 96bd 509f 553d cfa9 07bd 190d 91bc
00000180: 968b 0bbd e48b e8bc 96d5 993d 269d 4bbc
00000190: 030c e63d 59da 04bd 7697 403d c06a 07bd
000001a0: 261e 20bc 9764 78bd 8523 3c3d 2c4a 0f3d
000001b0: c326 eb3c b30e 9e3c 7198 89bc 4656 7a3d
000001c0: afa2 693d 8fa0 d33c ad8a 37bd dfe3 dc3d
000001d0: 931b ee3d 0ba9 cfbb dbbd 953d 0999 0fbd
000001e0: 059d 293d 2d74 8d3d 4eac 0cbd 56b7 81bd
000001f0: e744 04bd dbb2 413d 55f1 d33c 284a d2bc
00000200: 8da0 a3bb aec1 90bd 0daf d23c 91aa 043d
00000210: 53c6 b8bc 962e 943d 713c a0bc cbdf 32bc
00000220: 0b9d d43a f4ff 093d 38e3 b53b 8bc0 d3bd
00000230: c28c 313d 427c e23c b085 79bd 3292 34bb
00000240: f090 5cbc c087 adbb fc62 ebbb 3ac9 35bc
00000250: bce5 93bc 09bd 1fbd b253 1dbd e5be 25bb
00000260: 7953 c6bd ee07 693d 8897 483c e9e5 a8bd
00000270: 0803 7abb 5020 4ebd 7858 24bc 9088 bf3c
00000280: 174b 88bd e022 58bc 75d5 ea3d a088 3f3b
00000290: 5fd5 8bbc 57f1 21bc 98e4 bebc e7cb 083d
000002a0: 406d 4e3b 64cf c43d 4be2 cd39 6502 e1bc
000002b0: 7c6c 8f3d 1909 7e3d 5c55 173d 2881 33bd
000002c0: 271f 663d 46fd c6bc 1610 ec3c d712 2e3c
000002d0: f90a f7bc c142 d5bc 41f7 9b3b 5d41 103d
000002e0: b379 06ba 3331 4e3c ae1a c0bc 7cd6 0ebc
000002f0: a0b9 4bbd 5281 0bbd 6b43 f43c 02a4 57bd
00000300: aedd 49bc c40a bcbc 1e47 90bd 3fad 303d
00000310: 2f80 70bc 445c 35bd a25d 7a3b 89d4 45bd
00000320: aa8c 71bd a931 8abd 4d19 4c3d fc6d 5dbb
00000330: 7f82 293d 1624 503d 6fe6 d0bc 9765 8c3c
00000340: 4acb aa3c 5fa6 debc b337 673c e688 7a3d
00000350: 58d9 44bd 9a56 2e3d 352f f9bc 3caa 18bd
00000360: ded4 0e3c a675 ae3c f3d7 cf3d 3809 46bd
00000370: ebe6 f43c c3fa cf3d 0ff6 f9bb 642d 37bc
00000380: eb1a 35bc 75fa c1bd 349f 063d be39 5a3d
00000390: ba75 97bd 8c3a 20bd 58e4 673c 1b6d 033e
000003a0: 8b90 663c 2e99 2a3a 1914 72bd 916e 84bd
000003b0: 7f31 65bd 3c6f 0f3d 040a 613c bfcb ff3c
000003c0: 04c3 a53c b8e9 c23b 38a6 6c3d 6fef d2bb
000003d0: b77f 463d 96fd 80bd eefa 9abc 1146 6bbd
000003e0: c817 60bc e642 3cbd 1fd2 4c3d 78b0 d03d
000003f0: 865b 53bd 3acf 2a3d fae7 833d 1f74 413d

net.4.weight f4 [4, 256]
0.0334661 -0.10634471 0.14580254 0.021184111 0.13487956 -0.007151798 -0.044063065 -0.06733388
0.08471828 -0.0038803888 0.1639626 -0.08574357 -0.2631851 -0.045220405 -0.06766816 0.031924084
0.034517534 0.030564362 -0.06006222 0.1420034 0.05486856 -0.019437205 -0.22014822 0.021463579
-0.026613567 -0.004057508 0.09464681 -0.007683195 0.28292105 -0.09081214 0.063710466 -0.07798012
0.032128837 0.03147858 -0.013315844 -0.16001187 0.04553839 0.009068514 0.15357207 0.040284734
0.0019139755 0.039623614 -0.0803354 0.19175729 -0.08416311 0.111485966 0.13264239 0.19077945
0.094119206 0.1389269 0.017556982 -0.043807928 -0.03727816 -0.075908646 0.031365763 0.006115662
-0.018876778 0.120691426 -0.023016809 0.20253676 0.2624345 0.002919942 0.13846813 0.03034873
-0.12168136 0.1164692 0.051248938 -0.036672805 0.023286367 -0.053042553 0.024684902 -0.11712932
0.0023406185 -0.0103400275 -0.075046636 -0.008683017 0.033449832 0.18026963 -0.04244709 0.034559682
0.16182047 0.011484083 0.03066846 -0.1267627 -0.12465187 -0.06840688 -0.13299476 -0.09078687
-0.17486839 -0.079216234 0.051309157 0.012984754 -0.005653043 0.13545462 -0.12454302 0.13490047
0.038500533 -0.2219793 0.15436979 0.25337118 -0.026265979 0.038194 0.022087887 -0.19651084
-0.025220681 -0.022498254 0.16537014 0.1385068 -0.112950794 -0.13108052 0.010229826 0.085490875
0.11574537 0.20961297 -0.06725368 0.14120075 0.121232755 -0.034657776 0.019156173 -0.101022854
0.041520383 0.13241757 -0.032693308 0.010162233 -0.030360179 0.033581033 -0.1926337 -0.00092405075
0.039054196 0.024006445 0.10703664 0.16883022 0.057377048 0.00022754433 -0.073641025 -0.0204772
-0.14457463 -0.05865391 0.20455374 0.090853475 -0.10374035 0.19577385 -0.0563907 -0.00078736513
0.0110106915 -0.0044111013 -0.017192805 0.11229794 -0.012071776 0.093908355 0.16360655 0.009449718
-0.06582944 -0.15885867 0.1360265 0.071472965 -0.0070094457 -0.03620102 0.26322064 0.13516358
-0.036617644 -0.1527821 0.03352399 0.02529222 0.0016193509 -0.116976224 0.025679111 -0.06298446
0.039255258 0.18160632 -0.14230683 0.05329168 0.14814784 0.037118617 -0.07826824 0.046137188
0.056735847 0.058578055 -0.108955584 -0.120785154 -0.032406922 -0.019642925 -0.021305408 0.04743375
0.04169131 0.10046623 -0.006859335 0.020582493 0.05658565 -0.048568074 0.11166139 -0.05050193
-0.052329052 0.05636879 -0.034634314 0.1457007 0.11611642 -0.24274942 0.010794311 0.0018302236
-0.025579631 0.031182056 -0.016001388 0.027310144 -0.16726516 0.10166938 -0.05344672 0.06327733
-0.035434134 -0.021385616 -0.07729421 0.25040784 -0.16371088 -0.018348819 -0.06383606 0.048977334
-0.08500687 0.07822751 -0.007905397 -0.036244344 -0.1572374 0.17440908 0.12233024 -0.0854258
0.050696805 -0.12279947 -0.025649806 0.04994729 -0.031414676 0.14424469 0.0033799014 0.11272221
-0.062128544 0.11516326 -0.023885736 0.048972614 0.072256975 -0.035304505 -0.032594383 -0.20630617
0.006794694 0.11403191 -0.07533145 0.09355837 0.02285364 -0.10260815 0.15114404 -0.05801583
0.049734294 0.005035558 0.19556846 -0.035038806 0.05970691 -0.029054943 0.07334626 -0.005068401
00000000: c013 093d 41cb d9bd 434d 153e 4d8a ad3c
00000010: de1d 0a3e a159 eabb 797b 34bd 58e6 89bd
00000020: c780 ad3d 1f4e 7ebb d0e5 273e 539a afbd
00000030: 33c0 86be 0839 39bd 9b95 8abd d4c2 023d
00000040: 4262 0d3d 1d62 fa3c cd03 76bd 5769 113e
00000050: dbbd 603d c63a 9fbc 896e 61be 63d4 af3c
00000060: b204 dabc d8f4 84bb 30d6 c13d 50c3 fbbb
00000070: 07db 903e b7fb b9bd a27a 823d 0bb4 9fbd
00000080: 8799 033d afef 003d b32a 5abc 27da 23be
00000090: 7686 3a3d 1b94 143c ff41 1d3e 9b01 253d
000000a0: 5cde fa3a 5f4c 223d e386 a4bd 065c 443e
000000b0: b55d acbd c152 e43d 68d3 073e b05b 433e
000000c0: 92c1 c03d da42 0e3e a9d3 8f3c f16f 33bd
000000d0: fcb0 18bd fe75 9bbd 6379 003d e465 c83b
000000e0: 79a3 9abc 112d f73d bf8d bcbc cc65 4f3e
000000f0: d15d 863e 7f5c 3f3b 97ca 0d3e e69d f83c
00000100: 1434 f9bd 6787 ee3d 68ea 513d 3936 16bd
00000110: 0dc3 be3c 2643 59bd fe37 ca3c 7fe1 efbd
00000120: 1065 193b 3869 29bc 0db2 99bd 3743 0ebc
00000130: b102 093d 9a98 383e 00dd 2dbd 748e 0d3d
00000140: 44b4 253e bc27 3c3c 6c3c fb3c 15ce 01be
00000150: 7b49 ffbd e818 8cbd c72f 08be 77ee b9bd
00000160: b310 33be 1f3c a2bd 8d29 523d 01be 543c
00000170: 293d b9bb 9eb4 0a3e 6910 ffbd 5923 0a3e
00000180: bcb2 1d3d 8b4e 63be 1d13 1e3e deb9 813e
00000190: c02b d7bc 5071 1c3d a8f1 b43c 233a 49be
000001a0: 9a9b cebc 424e b8bc ca56 293e bad4 0d3e
000001b0: bf52 e7bd f939 06be 009b 273c d715 af3d
000001c0: e90b ed3d c8a4 563e 4cbc 89bd ee96 103e
000001d0: e148 f83d 50f5 0dbd 68ed 9c3c 12e5 cebd
000001e0: 4711 2a3d 7998 073e 6be9 05bd 7f7f 263c
000001f0: e9b5 f8bc 448c 093d c541 45be ff3b 72ba
00000200: 4bf7 1f3d 2aa9 c43c 0736 db3d d4e1 2c3e
00000210: 3204 6b3d f798 6e39 1bd1 96bd cdbf a7bc
00000220: 5f0b 14be 153f 70bd 8976 513e 6311 ba3d
00000230: d275 d4bd f178 483e eff9 66bd 2e67 4eba
00000240: 3066 343c 008b 90bb edd7 8cbc 76fc e53d
00000250: b3c8 45bc 0653 c03d 7a88 273e fdd2 1a3c
00000260: 96d1 86bd d9ab 22be 884a 0b3e 6b60 923d
00000270: 7eaf e5bb 8547 14bd dbc4 863e 5268 0a3e
00000280: 62fc 15bd e972 1cbe 7450 093d a131 cf3c
00000290: 6640 d43a 3b91 efbd 005d d23c fffd 80bd
000002a0: 1fca 203d 02f7 393e e2b8 11be 6048 5a3d
000002b0: 11b4 173e b109 183d 194b a0bd 59fa 3c3d
000002c0: d963 683d 8bef 6f3d 1b24 dfbd 355e f7bd
000002d0: 1fbd 04bd 33ea a0bc ae88 aebc e449 423d
000002e0: 82c4 2a3d 3dc1 cd3d 46c4 e0bb 9e9c a83c
000002f0: 5bc6 673d 51ef 46bd baae e43d 1ddb 4ebd
00000300: fd56 56bd f6e2 663d b6dc 0dbd 9032 153e
00000310: 72ce ed3d 4e93 78be 9fda 303c 1de4 ef3a
00000320: 608c d1bc 8371 ff3c 5815 83bc 86b9 df3c
00000330: 8f47 2bbe 0938 d03d f3ea 5abd 8b97 813d
00000340: 6223 11bd e330 afbc 6d4c 9ebd 7535 803e
00000350: d3a3 27be 4350 96bc 7bbc 82bd 759c 483d
00000360: 1518 aebd bf35 a03d a385 01bc f374 14bd
00000370: d702 21be 4b98 323e 4788 fa3d b9f3 aebd
00000380: 74a7 4f3d 4a7e fbbd 8b1f d2bc 8895 4c3d
00000390: adac 00bd e1b4 133e 5681 5d3b e7da e63d
000003a0: 807a 7ebd b7da eb3d 05ac c3bc 8297 483d
000003b0: 77fb 933d 759b 10bd b081 05bd ed41 53be
000003c0: 06a6 de3b 9089 e93d 6047 9abd 889b bf3d
000003d0: 8f37 bb3c 3924 d2bd 81c5 1a3e 02a2 6dbd
000003e0: 30b6 4b3d 5201 a53b 1943 483e da84 0fbd
000003f0: 3c8f 743d a204 eebc 9036 963d d414 a6bb

net.4.bias f4 [4]
0.06976842 0.07188478 -0.02482997 0.007068229
00000000: bfe2 8e3d 5438 933d 3968 cbbc 9a9c e73b
