model/DQN/checkpoint_best_version_1.pth (torch, 22680 bytes, 6 tensors)

fc1.weight f4 [64, 8]
000000 14 94 b6 3e 53 79 5c 3f b7 59 94 be 5b 04 d9 3d
       0.3565985 0.86122626 -0.28974697 0.10596534
000010 66 d9 39 3e a9 59 18 be c6 85 32 bf cc 40 92 3e
       0.18149337 -0.14877953 -0.6973537 0.2856506
000020 fd bb c8 3f 48 56 bd 3d fc 81 50 3f 95 ea 38 bf
       1.568237 0.092449725 0.8144834 -0.72232944
000030 71 6c 4d be 42 d1 04 3c 47 08 32 bd 34 7d 07 bd
       -0.20060898 0.008106532 -0.043464925 -0.033078387
000040 81 27 7c 3e 4e 09 6a bf 57 13 0b 3f ce ac 2f be
       0.24624445 -0.9142045 0.54326385 -0.17155764
000050 6d 3a ba bf d8 eb 91 be ad 90 a9 be 50 72 e4 3e
       -1.454908 -0.28500247 -0.3311819 0.44618464
000060 46 2b 63 be ab 5a d2 bf bf ce ba 3d b3 f4 36 3f
       -0.22184476 -1.643392 0.09121465 0.7146713
000070 64 3e 9c be 54 05 23 bf 31 13 f7 3e 71 c9 86 be
       -0.3051635 -0.63680005 0.4825683 -0.26325563
000080 42 61 78 bd 06 4d c9 3d 08 91 c9 be fc a6 51 be
       -0.060639627 0.09829144 -0.39368463 -0.20473856
000090 f9 c2 10 be 93 08 00 3f ec d5 e0 3e 2f 27 a8 be
       -0.14136876 0.50013083 0.4391321 -0.32842395
0000a0 31 9c e6 3e bc 42 e7 bf bc 7c 50 bd 30 7a 44 bf
       0.4504104 -1.8067241 -0.050900206 -0.76748943
0000b0 19 ce 4f 3f 1c 61 1c be 92 80 09 3e 56 5e 0c bf
       0.81173855 -0.1527142 0.13427952 -0.54831445
0000c0 09 79 73 3e 2c 66 3d bf 24 94 ad bf 43 b4 0a bf
       0.2377664 -0.73984027 -1.3560834 -0.5418131
0000d0 86 24 e8 3e f1 a2 ca 3e 38 22 2a 3f 0d ac 6a 3d
       0.45340365 0.3957744 0.66458464 0.057292987
0000e0 bb d0 71 3f 15 a7 29 bf f9 da d0 bc cc 95 7a bf
       0.9445912 -0.6627057 -0.02549504 -0.9788482
0000f0 2c 69 7a bf e9 66 8b bd fe 5b 9f 3d a2 a8 a6 3d
       -0.9781673 -0.06806738 0.07781218 0.08137633
000100 b3 48 b6 3e 53 77 3e bf b0 ce ca 3e bf 1b 40 3f
       0.3560234 -0.74400824 0.39610815 0.7504234
000110 2e 3c 9a bf 40 70 ab be c1 c8 8e 3e a4 87 38 3e
       -1.2049615 -0.33484077 0.27887538 0.18020493
000120 e3 5a 0e 3f 66 10 86 bf 53 d8 da 3e e8 af 1f bf
       0.5560743 -1.0473754 0.42743167 -0.62377787
000130 6d 16 34 bf 3c 4a 3c 3f 71 b3 19 3f 7d 44 54 3e
       -0.7034672 0.7355077 0.6003943 0.20729251
000140 7f 19 15 3f 8c c7 33 3e 7a 30 b2 3e aa ef 41 bf
       0.5824203 0.1755659 0.3480261 -0.75756323
000150 5d c3 4c 3e d0 15 2b 3c f8 18 e8 3d 8e 55 31 bf
       0.199964 0.010442212 0.113328874 -0.6927117
000160 30 93 f7 3e 65 62 4b 3f 02 4e 32 bf ca cc 34 c0
       0.48354483 0.79447013 -0.6965028 -2.8249993
000170 10 c2 9e 3d a5 b7 d7 3e 7b a9 16 bf 65 66 86 be
       0.07751858 0.42132297 -0.58852357 -0.26249996
000180 e8 f2 a5 3e 21 37 e7 bd 14 86 b1 be 1d 16 e8 bf
       0.32411885 -0.11289812 -0.34672606 -1.8131748
000190 49 86 52 3d b1 b7 d4 3e 33 53 51 3c 17 ea a7 be
       0.051397596 0.41546395 0.012776184 -0.32795784
0001a0 b9 7e 85 bf 4b 79 33 c0 28 42 ce be 78 5b 4d bf
       -1.0429298 -2.8042781 -0.40284848 -0.80217695
0001b0 6a 7f be be 61 53 f7 3d 0c 4c 87 3e e8 17 28 3e
       -0.37206584 0.1207645 0.26425207 0.1641537
0001c0 31 87 5e bf d4 25 39 bd a5 88 45 bf e1 8d 3b 3f
       -0.86925036 -0.04520209 -0.7716163 0.73263365
0001d0 a9 c5 2f bf ea b1 fd be 34 bd 4a 3e 34 be 0f be
       -0.6866098 -0.495498 0.19798738 -0.140374
0001e0 69 68 ed 3e 97 00 69 bf e8 07 00 bf 1d f9 73 bf
       0.4636872 -0.91016525 -0.50012064 -0.9530199
0001f0 11 d6 20 bf 83 ee 82 be 0a 49 f8 bd cf 72 34 bf
       -0.6282664 -0.25572595 -0.12123306 -0.70487684
000200 28 51 80 3e 2c df 89 3c a4 be 7f bf 06 fb 9e 3f
       0.25061917 0.01683005 -0.9990027 1.2420356
000210 40 bc ca bf d5 b4 b4 be 27 9d 09 3c 5a f3 a7 bd
       -1.5838699 -0.35294214 0.008399284 -0.082007125
000220 9b fa f8 be 23 9e fb bf 92 04 31 be 4e 99 4c be
       -0.48628697 -1.9657634 -0.172869 -0.19980356
000230 7d cd 30 bf d3 28 b5 bf 1c 82 d6 3c d2 49 d2 be
       -0.6906355 -1.4153084 0.026185088 -0.41071945
000240 68 ab 0d 3d 7b be 5e 3e 5a 2c 73 bf bc 41 59 40
       0.034587294 0.2175235 -0.9498955 3.394637
000250 f9 80 85 bd a3 64 23 be 23 c9 a3 bd 90 24 35 be
       -0.0651874 -0.15956359 -0.07997348 -0.17689729
000260 1a cf 18 be db ac 8d bf 9f a7 13 3e 81 8f 93 bf
       -0.14922753 -1.1068376 0.14419411 -1.1528169
000270 b6 5d 5a 3e 85 67 f0 3e 67 85 2a 3e 53 dc 13 bf
       0.2132481 0.4695398 0.16652451 -0.57758063
000280 d6 42 98 3e 6a 25 79 3f 5a 60 c4 3e c5 37 34 bf
       0.29738492 0.97322714 0.3835476 -0.703976
000290 5c 46 70 3e 06 3f 28 bf f7 39 ee be f5 04 e8 bd
       0.2346434 -0.65721166 -0.465286 -0.113290705
0002a0 bc 12 f2 be d9 dd 01 bf d3 b5 86 be 2d 78 1b bf
       -0.47279918 -0.5072914 -0.26310596 -0.6073025
0002b0 79 b1 44 3f 40 e3 d9 bd 69 df c1 be 0c a2 a2 be
       0.768333 -0.106390476 -0.3786576 -0.31764257
0002c0 80 a9 f9 be 87 5d a6 bc 39 1e 70 3e 85 bf 01 c0
       -0.4876213 -0.02030827 0.23449029 -2.0273144
0002d0 6c 99 b7 3e 45 7f 39 3f c2 28 e0 3d 56 ed 11 be
       0.3585924 0.7245982 0.10945274 -0.14250693
0002e0 1e d4 b1 bd 53 f8 ad be 5f 1f 0e 40 58 06 f5 bf
       -0.08683036 -0.3397852 2.2206647 -1.9142561
0002f0 c3 45 1e bf 83 3d 31 3d 93 bf 03 3e 1a 70 bd bd
       -0.618252 0.043271553 0.12866049 -0.09249897
000300 e2 9e ed 3d d9 de cc 3d 6c 15 00 3f 13 50 0d 3f
       0.1160257 0.10003442 0.5003269 0.5520031
000310 81 48 ac bf ca 47 c1 3d af d9 b6 bd 3e ba e7 3e
       -1.3459626 0.09437521 -0.089282386 0.4525928
000320 c0 bf c4 bf cf 7a 37 be f4 6f 15 bf 8b 02 a8 be
       -1.5371017 -0.17917942 -0.5837395 -0.3281444
000330 4f 3d 85 be 7d f3 c7 bc 76 64 b1 bd e2 d7 69 bf
       -0.26023337 -0.024408096 -0.086617395 -0.91345036
000340 b3 42 db bc 55 6d 8b 3e 17 47 02 3e a5 ed 96 3e
       -0.026765203 0.2723185 0.12722431 0.29478183
000350 95 69 52 bf ed c2 b2 be 79 3f e2 be 7c f6 19 3f
       -0.82192355 -0.34914342 -0.4418905 0.6014173
000360 24 97 9a 3e af 17 4a be d2 a5 44 3f b4 f1 50 bf
       0.30193436 -0.19735597 0.7681552 -0.8161881
000370 b5 60 8b bd 87 72 ab 3e 1b 4a ec be 0b c6 f4 be
       -0.06805555 0.33485815 -0.46150288 -0.47807345
000380 e0 33 d6 3e f3 d5 7e 3d 91 16 7f be 30 8e 54 3f
       0.41836452 0.062215757 -0.24910952 0.8302946
000390 b4 56 28 bd db ab 30 bf 2d 21 6a bf b4 6a 38 3f
       -0.04109831 -0.6901223 -0.9145687 0.72037816
0003a0 24 da bb 3d 49 12 4b 3f 6f 5c c9 3e eb 17 aa 3f
       0.091724664 0.79324776 0.39328334 1.3288549
0003b0 22 b3 81 bf 0a 67 f9 be bc c2 4f be 72 4e 6d bf
       -1.0132792 -0.48711425 -0.20289129 -0.92697823
0003c0 99 d3 fc 3e a4 d6 2c be 61 20 60 3e 51 31 11 bf
       0.49380186 -0.16878754 0.21887352 -0.56715876
0003d0 1f d0 2c bf a4 70 45 bf 41 6e 93 bf 34 07 55 3e
       -0.6750507 -0.77125 -1.1518022 0.20803529
0003e0 78 ba 20 bf 45 dd 8e be 08 67 86 3d 6e 9a bc bf
       -0.6278453 -0.2790319 0.065626204 -1.4734628
0003f0 59 65 0a be b8 f4 01 be d6 61 c9 3d 28 18 79 3d
       -0.13515224 -0.12691009 0.09833114 0.060814053

fc1.bias f4 [64]
000000 d0 8b 06 3f 80 67 d0 3c 34 23 f4 bd ff 22 b4 be
       0.52557087 0.025439978 -0.11920777 -0.3518295
000010 ad da b4 3e 3c c3 9d 3e 4e 62 cf bd a8 5e 45 be
       0.35323086 0.30813015 -0.10126172 -0.1927439
000020 14 ff 43 be a5 9a ce 3d 55 1c c3 3b c9 2d 89 3e
       -0.19140273 0.1008809 0.005954305 0.26792744
000030 30 09 64 3f e4 85 d3 be 3e 7d 6d bd 9b 95 00 be
       0.8907652 -0.41313088 -0.05798077 -0.1255707
000040 96 63 04 be 4b dd 1a 3e f3 8a 85 3e 6b 66 bc be
       -0.12928614 0.15123479 0.26082572 -0.3679689
000050 a4 42 4e be 24 d2 8f be c7 83 3e 3f ef 73 15 3f
       -0.20142609 -0.28090012 0.74419826 0.58380026
000060 05 76 bc be e1 b1 c2 bd 7b 37 96 3d 79 7c a6 3e
       -0.36808792 -0.09506584 0.07334801 0.3251684
000070 7d d4 7a be d6 84 b1 3e 6d 5b 8f be b5 fa c1 3e
       -0.2449512 0.34671658 -0.2799944 0.37886587
000080 3d df 67 3e e6 d9 82 3e ac 64 f0 3e 9b d7 c7 3e
       0.22643752 0.25556868 0.46951807 0.3903168
000090 55 ff 0b 3e 42 79 a6 be 3e 8b d3 be 98 0c b3 3c
       0.1367162 -0.32514387 -0.4131717 0.021856591
0000a0 c1 5c 9f 3e 48 95 7e 3e f1 49 c4 3e 18 92 7a be
       0.31125453 0.24861634 0.38337663 -0.24469793
0000b0 c7 fb f2 3e 6b 37 29 be 98 3d 2d 3d 66 d8 e2 3e
       0.47457716 -0.16525047 0.04229507 0.44305724
0000c0 c2 34 31 3f ce b9 d2 bc 10 9f 68 3e 46 07 38 bf
       0.6922113 -0.025723364 0.22716928 -0.718861
0000d0 16 bc 0e bf f6 c1 9f be 88 82 40 bd f2 a0 32 3e
       -0.55755746 -0.31202668 -0.046999484 0.17444208
0000e0 a2 58 a4 be fe 2c 59 be a5 c9 b7 bd f8 82 6a be
       -0.3209887 -0.2120857 -0.089740075 -0.22901523
0000f0 cf 5e e6 bd fc db 8b 3e 26 65 bd 3e 21 c5 9f be
       -0.11248552 0.27316272 0.36991233 -0.31205085

fc2.weight f4 [64, 64]
000000 de 33 fd 3e 0a a6 8e be 73 51 92 bf ef 9b 56 bf
       0.49453634 -0.27861053 -1.1431106 -0.83831686
000010 ad c9 ac be f5 39 44 3f ea 6b 47 3e 0c 74 37 bf
       -0.33747616 0.76650935 0.1947476 -0.7166145
000020 4c 26 35 be 62 0a e2 3e f9 f4 04 bf 0a 41 a3 3e
       -0.1769039 0.44148546 -0.519363 0.31885558
000030 ef 2b 54 3f 59 b1 8b bf 9d 2f 12 bf de 3c d7 bf
       0.8287954 -1.0913497 -0.571039 -1.681545
000040 80 c3 28 3f 8a 8a 0c bf e7 70 f0 bf 55 e9 09 3f
       0.6592331 -0.54898894 -1.8784455 0.5387166
000050 d8 05 79 3f 58 21 c7 be 3c 53 4c 3f 43 7c 0f 3f
       0.9727454 -0.38892627 0.79814506 0.56048983
000060 77 fc 9a bf 9c 0c ab bf 12 83 ae bf 65 33 9b be
       -1.2108296 -1.3363223 -1.363375 -0.30312648
000070 db 54 8f bf af ff 08 c0 6e b7 27 c0 6c fc 46 3f
       -1.1197771 -2.1406057 -2.6205707 0.77728915
000080 ae 1f b5 3c f5 86 85 3f af fb 1f ba 4d ed 2b 3f
       0.022109833 1.0431811 -0.00061028724 0.6715897
000090 05 da 94 be c3 f1 52 bf 11 0f 34 3e 20 60 9f be
       -0.29072586 -0.8240015 0.17583872 -0.31128025
0000a0 70 c4 ca bf c1 3b 77 3f 75 57 24 3f 56 78 01 bf
       -1.5841198 0.9657555 0.6419595 -0.50574243
0000b0 df ad 34 3f 71 4f c0 bc 55 00 69 bf 59 64 11 3f
       0.70577806 -0.02347538 -0.9101613 0.56793743
0000c0 db 59 30 3f 46 e1 a5 3f d8 33 14 c0 5c 90 4a bf
       0.6888711 1.2959373 -2.3156643 -0.79126525
0000d0 ab 36 85 bf d6 1e 4e bf a5 95 ff be be 7e cc 3e
       -1.0407308 -0.805158 -0.49918857 0.39940447
0000e0 bd 14 84 bf 86 de 47 3f 64 35 21 bd d5 35 57 bf
       -1.0318829 0.7807392 -0.039357558 -0.84066516
0000f0 e5 46 0b bd 6d 3b d6 be fa 3b d6 3e bf 36 cc bf
       -0.034003157 -0.41842213 0.41842633 -1.5954207
000100 14 79 45 bf e4 ad d1 3e 9a f6 6e 3f c8 a3 61 3f
       -0.77137876 0.4095298 0.93345034 0.88140535
000110 2e dc 45 3e 88 bf af bf e2 74 52 3e d0 a8 8c 3e
       0.19322273 -1.3730326 0.205524 0.27472544
000120 60 a9 52 3e 46 f3 3d bd 24 3a d1 3d 0b c0 be 3e
       0.20572424 -0.04637458 0.102161676 0.37255892
000130 46 a7 4b 3e 00 65 9d 3f 36 dc 83 3e fd e1 19 3f
       0.19888029 1.2296448 0.25753945 0.60110456
000140 27 60 e1 bf e4 fc 7c 3e 86 91 10 3f 70 8a 35 bf
       -1.7607468 0.24705845 0.5647205 -0.70914364
000150 18 ea b4 bf 00 b1 c2 3e de 55 6b bd 24 18 b6 3c
       -1.413394 0.38025665 -0.057454936 0.022228308
000160 35 1a 35 3f 1d 36 6f 3f ec f6 b0 3e 72 1f 43 3c
       0.70743114 0.93441945 0.34563386 0.011909353
000170 91 19 26 3f 84 74 10 3f 79 03 eb 3e 99 e1 32 bd
       0.6488276 0.5642779 0.45901087 -0.043672178
000180 84 aa 3a 3d 7e 07 fe bc 1f 34 08 3d ab c4 04 bf
       0.045572773 -0.031009432 0.03325283 -0.5186259
000190 19 d0 84 3e ae 54 83 3f 82 b9 1b be e7 71 75 3e
       0.25940016 1.0260217 -0.15207484 0.23969232
0001a0 7a 88 9e bb ee d2 4f bf 0a dd f4 bd 84 b4 13 3f
       -0.0048380466 -0.8118123 -0.11956222 0.5769732
0001b0 12 78 0c be 41 d9 db 3e 7c 4b f4 be c5 43 ce bd
       -0.13717678 0.4293919 -0.4771384 -0.1007152
0001c0 b4 0d ba bd 92 ee 94 bf e9 27 85 3c 1a ff 5e 3f
       -0.09084645 -1.1635306 0.016254382 0.87108004
0001d0 09 a3 ae 3f df c1 96 3f f6 c7 3c 3f 45 49 de bd
       1.3643504 1.1777915 0.73742616 -0.10853819
0001e0 d6 99 39 3f 23 9a 8b bf 04 a2 b9 3e ca 4d 83 3f
       0.7250036 -1.0906414 0.3625642 1.0258114
0001f0 89 df af 3d 8a 98 cc 3e 44 be 32 3d 0a f6 b5 3f
       0.08587558 0.39960128 0.043638483 1.421571
000200 bc 2d 34 3f 59 cd 05 be ec 6c 54 bf 95 35 fc be
       0.70382285 -0.13066615 -0.829787 -0.4925963
000210 1d 00 13 bf 46 de 8e 3f b4 8b 44 be 43 37 8c bf
       -0.5742205 1.1161582 -0.19193918 -1.0954365
000220 12 cd c9 bf 46 0f 9e be eb 68 6d be 39 36 88 3e
       -1.5765707 -0.30871028 -0.23184554 0.2660387
000230 be 83 f7 3e c2 f2 93 bf 48 9f 6e bf 0d 53 b3 bf
       0.483427 -1.1558459 -0.93211794 -1.400972
000240 b6 e2 e4 3e 50 70 15 3f 45 a0 4d 3f a7 a6 8c 3f
       0.44704217 0.583745 0.80322677 1.0988358
000250 12 b9 30 3f 80 5a 37 bf b3 46 07 3f 84 f6 86 3d
       0.69032395 -0.7162247 0.52842253 0.06589988
000260 1e 6d 42 3e 67 b9 8c bf 5e 44 23 c0 7f e8 88 3e
       0.18986937 -1.099408 -2.5510478 0.2673988
000270 db d1 36 c0 8b 18 0b bd 76 b1 26 c0 90 66 19 3f
       -2.8565586 -0.033958953 -2.6045814 0.5992212
000280 68 03 2e bf 30 f0 0f 3f 41 4f 7c 3e 0b 10 52 3e
       -0.6797395 0.5622587 0.24639608 0.20513932
000290 0a ad 2f bf 6c 17 2c bf e1 0f d0 3e 4b 88 9f 3e
       -0.6862341 -0.6722324 0.40637115 0.3115867
0002a0 5e f3 ac bf b9 04 96 3f 5e e2 99 3e a8 43 77 bf
       -1.351177 1.1720191 0.30055517 -0.9658761
0002b0 df ce d0 3d 54 57 1d be 52 ab a6 3f 4b 3a 90 39
       0.101957075 -0.15365344 1.3021033 0.00027509252
0002c0 55 e9 6b 3e 78 36 b4 3f 44 07 de bf cc 83 2a bf
       0.23038228 1.4079123 -1.7345967 -0.66607356
0002d0 96 ff 62 bf 66 c5 99 be 73 98 1e bf a3 02 3e 3e
       -0.88671243 -0.30033416 -0.6195137 0.18555693
0002e0 d6 dd c2 bf 19 32 83 3f db 1c da be 68 5b 46 bf
       -1.5223949 1.0249664 -0.4260014 -0.77483225
0002f0 3d a2 ea bf 3d d7 93 3d 22 43 e0 be 03 b3 83 bf
       -1.8330761 0.07218788 -0.43801218 -1.0289005
000300 85 fa 74 bf 7d e0 14 3f 12 2c 8e 3f de b6 2a 3f
       -0.9569476 0.5815504 1.1107199 0.66685283
000310 88 d6 bb 3e 44 3b ad bf 12 c7 0b 3e 3a d4 bb 3e
       0.36687112 -1.3533711 0.13650158 0.36685354
000320 5a 59 51 3e af 11 a3 3c 46 46 c1 bc c0 8e f2 3e
       0.20444241 0.019905893 -0.02359308 0.47374535
000330 3b c2 e9 3b df 78 a5 3f d8 74 01 3f 28 d2 1f 3f
       0.00713375 1.2927512 0.50568914 0.6243005
000340 9c 63 a6 bf 27 02 4d 3e 14 1e 78 3f ab 8f 42 bf
       -1.2999148 0.20020352 0.96920896 -0.7600047
000350 4d 8e a6 bf 5d 6f f2 3e c5 e5 4e bd 09 58 61 3d
       -1.3012177 0.47350588 -0.050512094 0.055015597
000360 88 bd 77 3f 78 fc a3 3f 4f 3a 07 3f 35 97 b0 bd
       0.96773577 1.2811422 0.52823347 -0.086225905
000370 5b ad f4 3e 00 67 55 3f 81 ca 09 3f 3b e2 bf bd
       0.4778851 0.8336029 0.5382462 -0.09369322
000380 ae 2e f3 bd 01 f1 1e be 33 04 25 bd 5e 4f 07 bf
       -0.11874138 -0.15521623 -0.040287208 -0.5285548
000390 b1 2a 98 3e 67 f1 86 3f 49 25 4c bd fa 47 f2 3e
       0.2972007 1.054242 -0.049840245 0.4732054
0003a0 c4 ca 87 3e f5 e8 2c bf f6 36 b5 be 0b 94 2c 3f
       0.26521885 -0.67542964 -0.35393494 0.67413396
0003b0 db 9d 13 bd 8d 0a 98 3e 46 e6 47 be 15 b1 45 be
       -0.036039215 0.2969555 -0.19521436 -0.19305833
0003c0 48 66 fa bc 16 7b 43 bf 32 89 44 3f 7e 05 72 3f
       -0.03056635 -0.7635969 0.76771843 0.9453963
0003d0 5d 34 c6 3f d1 21 9c 3f c3 70 59 3f 2d 1c 0e be
       1.548473 1.219782 0.84937686 -0.13877936
0003e0 e8 5e 39 3f 79 1d 87 bf 50 be 04 3f 89 c1 41 3f
       0.7241044 -1.0555869 0.51852894 0.75685936
0003f0 ff ac 3f 3d 67 b3 dc 3e 12 9c ae 3d 24 2b cb 3f
       0.04679584 0.43105623 0.08525862 1.587254

fc2.bias f4 [64]
000000 3c ef 12 3f 2d a7 a7 bd ea 60 f9 3e 0e 59 6f be
       0.5739629 -0.08186183 0.48706752 -0.23373815
000010 fd bc e9 bc 45 92 d0 3a 72 74 14 3e 10 c9 24 3e
       -0.0285325 0.0015912732 0.14497545 0.16092324
000020 84 46 ad bd fd f9 65 3e 61 fc a9 be 0a 3b 28 be
       -0.084607154 0.22458644 -0.33200362 -0.16428772
000030 c5 42 53 be b6 12 38 be 64 9e 4e bd 9e 34 02 3f
       -0.2063094 -0.17975888 -0.05044402 0.5086154
000040 9a 7a 6d 3d a8 0b 4e be 3d 26 04 3f b2 a3 1f be
       0.05797825 -0.20121634 0.51620847 -0.15589789
000050 16 12 43 be 23 2c 44 be 23 e8 89 bd a6 ab 99 bd
       -0.19049868 -0.19157462 -0.0673373 -0.075034425
000060 45 c1 0a be 7f ab ab 3e d1 d5 57 be 24 e3 74 be
       -0.13550289 0.3352928 -0.21077658 -0.23914772
000070 6c 35 71 3e 69 88 1d be 59 3f f6 bd 09 62 43 be
       0.23555535 -0.15384068 -0.12023801 -0.19080366
000080 98 16 27 3f d3 15 2b 3f 3b 05 bd 3e a4 ca c8 bd
       0.6526885 0.66830176 0.36918053 -0.09804276
000090 1d 5b 62 bd 12 07 1d 3e 14 8e 22 be c7 a1 94 bd
       -0.055262674 0.15334728 -0.15874511 -0.07257419
0000a0 a5 e5 2f 3f 77 f0 76 be 4b cb 0d be 69 62 5c 3e
       0.68709785 -0.24115168 -0.13847081 0.21521915
0000b0 ad 2e 56 3f aa 3b 04 be b9 89 8b be 85 06 37 3f
       0.8366497 -0.12913385 -0.27253512 0.71494323
0000c0 5f fb c7 3c 68 9b 21 bd 6a 71 9d be 9b ae 08 3f
       0.024411855 -0.039454848 -0.3075059 0.53391427
0000d0 2e 44 0a be 44 84 85 3c 0a c9 84 be 72 b4 a5 bc
       -0.13502571 0.01629842 -0.2593463 -0.020227645
0000e0 8b 0f 46 be cd 3f bc be 6b 6d cb be 09 6a 34 3e
       -0.19341867 -0.36767426 -0.39731917 0.17618574
0000f0 78 f5 98 bc f5 20 1c be 3e 9a b4 bd 64 69 dd 3e
       -0.018671736 -0.15246947 -0.08818482 0.4324447

fc3.weight f4 [4, 64]
000000 df 93 09 40 51 3b 60 bf 81 fd c7 3f ca 31 6b bf
       2.1496503 -0.8759051 1.5624238 -0.9187285
000010 a8 2e 17 bf 2f b9 86 bd d5 80 7a 3f 44 f5 8b bd
       -0.59055567 -0.0657829 0.9785283 -0.0683389
000020 ad bc 86 bd 5a ff 0e c0 76 23 4d bf 7c 6c 26 bf
       -0.06578956 -2.2343354 -0.80132234 -0.65009284
000030 3d 78 5a bf 02 29 35 bf b0 7d f3 be e1 f2 a0 3f
       -0.8533972 -0.707657 -0.4755683 1.2574121
000040 f1 17 5e be af 3a 62 bf 59 9b 1b 40 f4 14 5b bf
       -0.2168882 -0.88370794 2.4313567 -0.85578847
000050 77 c1 45 bf 60 83 77 bf f9 b3 56 bf 5b fd 19 3e
       -0.7724833 -0.9668484 -0.83868366 0.15038054
000060 6d 6b 2a bf 82 f1 44 3e 5f 67 3a bf 86 e8 81 bf
       -0.6657017 0.19232753 -0.7281398 -1.0149086
000070 b9 25 0f 40 7f a6 7b bf 18 e8 45 bf 08 59 3f bf
       2.2366774 -0.9830093 -0.7730727 -0.74745226
000080 02 68 b6 3f dd 6a a9 3f e7 38 2a 3f e7 04 8a bf
       1.4250491 1.3235737 0.66493076 -1.0782746
000090 2d d3 63 bf f9 55 13 3d e5 18 0f bf 1f f4 58 bf
       -0.88994104 0.03597066 -0.5589736 -0.847475
0000a0 bf d3 a6 3f 17 ef 29 bf 91 07 52 bd e2 ac 61 3f
       1.303337 -0.6638045 -0.051276747 0.88154423
0000b0 55 22 f8 3f 2f 14 89 bf 7a ef 2e bf d5 06 23 40
       1.9385477 -1.0709285 -0.6833416 2.547292
0000c0 15 18 73 bf 53 19 6d bf 46 13 23 bf d0 b2 90 3f
       -0.9495862 -0.92616767 -0.63701284 1.1304569
0000d0 bf 6c fb be 91 30 72 bf 5e 89 11 bf 9f e2 eb 3b
       -0.49106404 -0.94605356 -0.5685023 0.007198646
0000e0 db d1 32 bf 55 ea 61 bf 87 e2 ac bf 76 fc 95 3e
       -0.69851464 -0.8824819 -1.3506631 0.29294175
0000f0 14 89 2d bd 0f 15 8d bf 88 82 9e c0 e5 18 0b 40
       -0.042367056 -1.1022052 -4.953434 2.1733944
000100 8e 39 dd 3f 9e 22 52 bf df 23 d2 3f c2 15 0c bf
       1.7283189 -0.8208407 1.6417197 -0.547207
000110 97 d1 1b bf 0c 2f 64 3c 26 55 96 3f 12 ad 33 be
       -0.60866684 0.0139272325 1.1744735 -0.1754649
000120 0b 4d e8 bc ff ca 31 3f d9 86 35 bf c6 37 17 bf
       -0.02835705 0.6945037 -0.70908886 -0.5906948
000130 80 77 37 bf 45 fb b5 bf cb 2a 32 bf f9 4f 37 3f
       -0.7166672 -1.4217306 -0.69596547 0.71606404
000140 16 d7 5d 3f ee cf 54 bf 1b 45 0b 40 26 87 27 bf
       0.8665632 -0.83129776 2.1760929 -0.65440595
000150 6b 2c 5f bf 44 00 49 bf a8 5d ca be 74 e1 ce 3e
       -0.8717715 -0.7851603 -0.3952458 0.40406382
000160 9e 75 5a bf fd 91 91 be 52 84 55 bf 7b 6a 85 bf
       -0.8533572 -0.28431693 -0.8340503 -1.042312
000170 9a d0 71 3f 76 36 81 bf c3 f0 47 bf a9 8c 0e bf
       0.94458926 -1.0094745 -0.7810175 -0.5568338
000180 7f 0a 8a 3f e1 36 09 40 b1 9a c4 3f 93 4b 53 bf
       1.0784453 2.1439745 1.5359708 -0.8253719
000190 ff e2 c9 bd fe d9 9a 3b 2c d1 7c bf ef 36 b6 bf
       -0.09857749 0.0047256937 -0.9875667 -1.4235514
0001a0 0a 9f df 3f f9 a1 37 bf 62 ce f4 3d 55 93 68 3f
       1.747041 -0.71731526 0.11953427 0.9084981
0001b0 ce 51 d3 3f db 1c 4e bf d0 03 80 bf 4d c6 2a 40
       1.650934 -0.8051278 -1.0001163 2.6683533
0001c0 c9 1c 82 bf d8 47 74 bf 0f 01 31 bf ec 38 ad 3e
       -1.0165035 -0.95422125 -0.6914224 0.3383249
0001d0 ab 6a 15 bf 58 9e 32 bf d5 35 0c bf fb 30 da 3d
       -0.5836589 -0.69772863 -0.5476964 0.106538735
0001e0 9c 23 61 bf 96 7f b3 bf 4c 3e bf bf 7f 6b f9 bd
       -0.8794496 -1.4023311 -1.4940886 -0.121787064
0001f0 ae 30 aa bc eb 3c 44 bf fd 3d c4 bf 5b c6 83 3f
       -0.020775165 -0.76655453 -1.5331417 1.0294908
000200 65 3b 0d 40 d0 ff 1c bf a6 73 e9 3f 1d a0 13 bf
       2.2067502 -0.6132784 1.8238418 -0.5766619
000210 d5 f1 48 bf 9f fe 78 3d 68 f2 fa 3f de f2 19 3f
       -0.78494006 0.0607897 1.9605227 0.6013621
000220 fe 9f b8 3b bc 18 ae 3d f9 c2 2f bf 0f 4b 35 bf
       0.005634307 0.085008115 -0.6865688 -0.70817655
000230 0e 17 12 bf 00 92 53 3e 3f 00 3f bf 43 0e 4b 3e
       -0.5706643 0.20661163 -0.7460975 0.19829659
000240 27 a2 be 3d 57 d3 2a bf 1a 10 f9 3f b9 96 37 bf
       0.09308272 -0.6672873 1.9458039 -0.7171436
000250 62 82 31 bf f7 db 6d bf db 70 4a bf cf c0 99 3f
       -0.69339573 -0.92913765 -0.79078454 1.2011966
000260 07 83 14 bf 77 c0 28 bf 63 c5 1a bf 04 5d 19 bf
       -0.5801243 -0.6591868 -0.6045744 -0.59907556
000270 11 1c e8 be 2f 4b 73 bf ac 67 fe be 3f ee 23 bf
       -0.45333913 -0.95036596 -0.4968847 -0.6403541
000280 59 28 49 3f 8e ba e8 3f af 9c d1 3f 2c 29 36 bf
       0.7857719 1.8181932 1.6375941 -0.71156573
000290 6f 30 6d bf da 5c 93 bf cd b7 19 bf 20 47 45 bf
       -0.9265203 -1.1512711 -0.6004608 -0.77061653
0002a0 fb 5c ef 3f c3 49 19 bf e4 4b ce 3d f1 53 63 bf
       1.870025 -0.59878176 0.10073069 -0.8879996
0002b0 3b ae ac 3f 40 4c b3 bf 77 56 0f bf 8c 2f 14 40
       1.3490671 -1.4007645 -0.5599131 2.315402
0002c0 a4 66 21 bf dd 64 35 bf a2 36 0c bf 2e 55 f5 be
       -0.6304724 -0.7085703 -0.54770863 -0.4791655
0002d0 7f e4 39 bf 2c be 4d bf a0 0f 24 bf 70 e7 9f 3d
       -0.7261428 -0.80368304 -0.6408634 0.07807815
0002e0 58 c6 13 bf be 8f a9 bf b6 55 a3 bf 83 a4 0f 40
       -0.57724524 -1.3246992 -1.2760532 2.244416
0002f0 38 43 bc 3c d4 ab 1d bf a5 08 b1 3e e0 db d2 3f
       0.022981271 -0.61590314 0.34576908 1.647335
000300 f4 02 1a 40 e1 91 64 bf b9 c2 e3 3f 1c 78 53 bf
       2.4064302 -0.89285094 1.77938 -0.8260515
000310 0e e4 46 bf 1f 24 84 3d cf de b6 3f 82 05 1f bd
       -0.77691734 0.06452202 1.4286746 -0.038823612
000320 0a 2c 6f 3d 7e 96 7d bf 58 45 38 bf d2 f3 3f bf
       0.05839161 -0.9905776 -0.7198081 -0.74981415
000330 19 ba 2d bf 64 5f b1 bf bc bf 34 bf b8 8c ac 3e
       -0.6786209 -1.3857236 -0.70605063 0.3370111
000340 1a 29 3c 3f 73 6d 26 bf f5 76 1c 40 a8 9d 39 bf
       0.73500216 -0.65010756 2.4447606 -0.7250619
000350 2a 81 2c bf 27 85 12 bf e5 36 2a bf 33 d5 f3 3e
       -0.6738459 -0.57234424 -0.6649001 0.47623596
000360 7c 00 2b bf 00 0f 18 3f be a3 37 bf e2 4b 2e bf
       -0.66797614 0.5939789 -0.71734226 -0.6808454
000370 77 94 9c 3f dc 7a 8f bf 18 48 29 bf 7a 46 44 bf
       1.2232808 -1.1209369 -0.6612563 -0.7667004
000380 d8 16 40 3f 42 19 90 3f 1b 21 39 3f 46 4d 0d bf
       0.75034857 1.1257708 0.7231614 -0.55196035
000390 3a 67 81 bf 6d 04 c5 bf a9 1a 38 bf 74 0e 24 bf
       -1.0109627 -1.5391976 -0.7191568 -0.64084554
0003a0 c1 47 c2 3f 67 6e 23 bf a2 05 bc bd d0 98 c0 3d
       1.5178148 -0.63840336 -0.09180762 0.09404147
0003b0 ba 82 a4 3f 18 55 ba bf 81 ff 26 bf ec f8 1e 40
       1.2852395 -1.4557219 -0.6523362 2.483943
0003c0 11 04 0e bf f4 04 37 bf 93 3c 3a bf 52 7d e6 3f
       -0.55474955 -0.7149193 -0.7274868 1.8006995
0003d0 d0 ee 62 bf 23 94 45 bf cd e8 82 bf 4c f1 d6 bd
       -0.8864565 -0.77179164 -1.0227295 -0.104952425
0003e0 9d 2f 2d bf 08 77 3f bf f3 12 9f bf e1 e8 f2 3b
       -0.6765078 -0.74791 -1.2427658 0.0074130152
0003f0 94 e5 c5 3d 3c cc 47 bf 82 9c 14 bf ed 49 25 40
       0.09662929 -0.7804601 -0.5805131 2.582637

fc3.bias f4 [4]
000000 d3 e4 e1 3e 59 29 9a 3e 56 a9 08 3f a2 51 ca 3e
       0.44119892 0.3010967 0.53383386 0.39515406
