model/DQN/checkpoint_best_version_4.pth (torch, 22680 bytes, 6 tensors)

fc1.weight f4 [64, 8]
0.31170136 0.78103375 -0.092436686 0.44972157 -0.31730556 0.0019542594 -0.1335357 0.25164652
0.70769376 -0.045311157 1.1614835 -0.87964594 0.30996028 0.14029025 0.13865326 0.07866385
0.07992076 -0.10421455 0.19624849 -0.38101187 -0.7474606 -0.13333508 -0.07363857 0.5541007
-0.43718207 -0.15810335 -0.7457473 -0.89753467 -0.3927532 -0.07611445 0.38696358 -0.19895156
-0.28016225 0.024325479 -0.21688043 0.18989365 -0.12181589 0.8236983 0.6162201 -0.48156086
-0.1550001 -0.2469388 0.046835534 1.7298725 -0.25931504 -0.22991341 0.53079516 -0.5828303
0.064562485 -0.4667721 -0.5466388 -0.31913587 0.9368076 0.50369054 0.28697747 0.38583207
0.49353772 0.10447856 0.61811095 -0.94926417 -0.26932967 -0.09897141 0.016147 -0.0545766
0.34249932 -0.110666744 0.12672536 -0.40976936 -0.6944339 -0.39763317 0.6046179 0.74232364
0.29700425 -4.0041995 0.05292994 -0.8521217 -0.3075849 0.31871176 0.24690041 0.45798975
-0.22828604 -1.0747433 -0.05295108 -1.1019433 0.3919669 0.0069603035 0.10408443 0.122550696
0.48874706 1.2327816 0.15624486 -1.1135062 1.996661 0.4107099 -0.56114537 0.061869305
0.18690029 -0.20041332 -0.48563704 -1.2879169 -1.4219131 -0.11738766 0.30630377 -0.16717196
-0.64359164 -1.0002637 -0.59193206 -0.5577708 -0.66266686 -0.088787 0.3958842 0.30029634
-0.9084702 -0.12133872 -0.40229678 -0.6233377 -0.25966933 -0.07539892 -0.06353188 0.031096904
0.048833687 0.08038848 -0.051896114 -1.0855063 -0.1831411 -0.1866229 0.029475342 -0.26850533
0.71297103 -0.31025398 0.48349157 -0.49697143 -0.69188505 0.12186211 0.24293157 0.01810799
-0.84520644 -0.119252056 -0.3441305 -0.69298005 0.006032101 -0.17141101 0.30606955 -0.0900187
0.13545863 -0.5891551 0.3093047 2.8144724 1.2807274 -0.6871599 -0.06836745 -0.3231959
0.20614162 -0.29341277 0.61060804 -1.2932252 0.3627644 0.12860164 -0.037073135 -0.06031287
-0.09578165 -0.032416597 1.4245617 -1.0898521 0.9296006 -0.51094866 -0.13166481 0.26689875
-0.5826289 -0.0033756674 -0.7694764 -0.034355946 1.1509175 0.09463799 -0.00010706625 0.14710876
-0.497894 -0.17435572 0.8404495 -1.2070314 -0.34532303 0.42674974 0.50978273 -0.069720596
0.48816162 0.3482503 0.68065876 -0.6920217 -0.34880316 0.11818606 -0.10534283 -0.21996778
0.34528816 0.40664938 -0.10824189 -0.10548795 -0.30805472 -0.21149074 0.5976922 0.23734128
-0.8565887 -0.2672092 0.057370998 0.13643496 -0.23615682 -0.41122866 -0.36434084 -0.6977756
0.05097752 0.016808989 0.16299835 -0.12928702 -0.39514136 -0.8233542 -0.3368515 0.8198065
-0.0354891 -1.7640764 -0.02603968 -0.6944409 0.5009536 0.8206547 -0.28255376 -0.31404448
0.14633024 -0.0897914 0.15371014 -0.36005586 -0.46593451 -0.9200686 -0.54553807 0.53096104
0.17111404 0.33413896 0.1815516 0.6076049 -0.53152674 -0.7882841 -0.6373977 -0.6196109
-0.625616 -0.6667571 -0.34405145 -0.5331769 -0.40281135 -0.32462162 -0.27483943 0.039531965
0.020948233 -0.08247928 -1.751833 -1.0259836 -0.22294196 0.2500064 0.057845287 0.15742865
00000000: 5297 9f3e d4f1 473f 724f bdbd e841 e63e
00000010: e075 a2be 0813 003b 95bd 08be d0d7 803e
00000020: 6b2b 353f 3198 39bd 7eab 943f 7a30 61bf
00000030: 1db3 9e3e 3fa8 0f3e 1ffb 0d3e 831a a13d
00000040: 7fad a33d 706e d5bd 5df5 483e fd13 c3be
00000050: 9459 3fbf fe88 08be d2cf 96bd 8bd9 0d3f
00000060: 54d6 dfbe d8e5 21be 4ce9 3ebf d5c4 65bf
00000070: f316 c9be e5e1 9bbd 1720 c63e f5b9 4bbe
00000080: 6d71 8fbe 3a46 c73c e715 5ebe 7b73 423e
00000090: 9c7a f9bd e4dd 523f 9ac0 1d3f 258f f6be
000000a0: 59b8 1ebe 86dd 7cbe 9ed6 3f3d 766c dd3f
000000b0: f1c4 84be 6c6e 6bbe 31e2 073f 5e34 15bf
000000c0: 5639 843d c1fc eebe 85f0 0bbf c765 a3be
000000d0: 9fd2 6f3f ddf1 003f b6ee 923e c88b c53e
000000e0: fab0 fc3e dbf8 d53d 853c 1e3f fa02 73bf
000000f0: 94e5 89be 86b1 cabd b746 843c b78b 5fbd
00000100: 125c af3e 3fa5 e2bd 4bc4 013e 4acd d1be
00000110: 6cc6 31bf 9396 cbbe 3dc8 1a3f ec08 3e3f
00000120: f110 983e 6722 80c0 11cd 583d a624 5abf
00000130: c57b 9dbe 302e a33e 76d3 7c3e a27d ea3e
00000140: d1c3 69be 3091 89bf 3be3 58bd 7a0c 8dbf
00000150: e3af c83e 4213 e43b 382a d53d dcfb fa3d
00000160: 0e3d fa3e cacb 9d3f a7fe 1f3e 5f87 8ebf
00000170: 9692 ff3f 9148 d23e 39a7 0fbf ab6a 7d3d
00000180: ca62 3f3e 2639 4dbe 6ba5 f8be 76da a4bf
00000190: 4001 b6bf f168 f0bd d9d3 9c3e 202f 2bbe
000001a0: 6cc2 24bf a408 80bf dc88 17bf 11ca 0ebf
000001b0: 89a4 29bf f5d5 b5bd 55b1 ca3e 71c0 993e
000001c0: 8191 68bf 6f80 f8bd d8f9 cdbe 0f93 1fbf
000001d0: 61f3 84be c06a 9abd 011d 82bd efbe fe3c
000001e0: d505 483d b7a2 a43d 0591 54bd dff1 8abf
000001f0: 5789 3bbe 131a 3fbe 4676 f13c 8879 89be
00000200: 4585 363f 9cd9 9ebe 358c f73e 0a73 febe
00000210: 611f 31bf d892 f93d 0ec3 783e 3557 943c
00000220: 735f 58bf 6c3a f4bd df31 b0be 2467 31bf
00000230: eea8 c53b 5e86 2fbe 26b5 9c3e b95b b8bd
00000240: abb5 0a3e ded2 16bf 305d 9e3e 5120 3440
00000250: e0ee a33f b6e9 2fbf 3c04 8cbd ef79 a5be
00000260: ca16 533e 333a 96be cf50 1c3f 6788 a5bf
00000270: 41bc b93e 26b0 033e 00da 17bd a10a 77bd
00000280: 2b29 c4bd 44c7 04bd 0a58 b63f 4680 8bbf
00000290: 4efa 6d3f 88cd 02bf 24d3 06be f4a6 883e
000002a0: 2b27 15bf 4d3a 5dbb 68fc 44bf d2b8 0cbd
000002b0: 4451 933f 90d1 c13d c188 e0b8 aea3 163e
000002c0: f6eb febe 4e8a 32be b327 573f 0180 9abf
000002d0: 2ece b0be f17e da3e 1f81 023f acc9 8ebd
000002e0: 52f0 f93e dd4d b23e a73f 2e3f 5628 31bf
000002f0: 5496 b2be 880b f23d fbbd d7bd 3c3f 61be
00000300: 9cc9 b03e 5934 d03e edad ddbd 110a d8bd
00000310: 59b9 9dbe 0791 58be 5b02 193f 9809 733e
00000320: 6649 5bbf a5cf 88be dafd 6a3d 9bb5 0b3e
00000330: 18d3 71be 908c d2be e28a babe 6ca1 32bf
00000340: cecd 503d 01b3 893c 0ae9 263e d163 04be
00000350: f84f cabe 57c7 52bf cd77 acbe d7de 513f
00000360: 055d 11bd 41cd e1bf 2b51 d5bc e1c6 31bf
00000370: 7f3e 003f 6d16 523f e3aa 90be 70ca a0be
00000380: 98d7 153e 8ee4 b7bd 3166 1d3e 3e59 b8be
00000390: f88e eebe 9e89 6bbf 62a8 0bbf 10ed 073f
000003a0: 8538 2f3e 4314 ab3e aae8 393e ff8b 1b3f
000003b0: 2312 08bf fdcc 49bf 7f2c 23bf d29e 1ebf
000003c0: 5f28 20bf 98b0 2abf 8327 b0be 487e 08bf
000003d0: 4a3d cebe ce34 a6be c1b7 8cbe 45ec 213d
000003e0: a19b ab3c e6ea a8bd 103c e0bf 6e53 83bf
000003f0: e64a 64be d700 803e 2eef 6c3d fa34 213e

fc1.bias f4 [64]
0.84243286 -0.38431188 -0.26412585 -0.42247626 0.27449343 -0.43434802 0.28911862 -0.019703226
-0.22227015 0.5250328 -0.25475317 0.44228384 0.27563497 -0.39170897 0.052141268 0.1695105
-0.3283553 -0.0057332953 0.78113765 -0.10199116 0.00072556664 -0.097120054 0.31608433 0.067717955
-0.35129637 -0.08744535 -0.32852176 0.772232 -0.304984 0.16174857 -0.08543076 0.020135751
0.38935894 0.2967267 0.5167779 0.3567956 -0.10668428 -0.030060217 -0.13917199 -0.64541227
0.19561248 0.5068406 0.08030848 -0.34665695 0.53496003 -0.26300752 0.58541423 0.78156966
0.6594875 0.19430108 0.0060773985 -0.7622764 -0.6337041 -0.4156051 0.14427008 0.07835491
-0.25775287 -0.48995996 -0.35935697 -0.58254117 0.0310288 -0.036068976 0.43292475 0.15382552
00000000: aea9 573f 87c4 c4be 813b 87be cf4e d8be
00000010: 678a 8c3e dd62 debe 5b07 943e a968 a1bc
00000020: c99a 63be 8d68 063f 026f 82be 0773 e23e
00000030: 0720 8d3e 148e c8be 1592 553d 2994 2d3e
00000040: 301e a8be 5ede bbbb a3f8 473f bee0 d0bd
00000050: f433 3e3a e1e6 c6bd ced5 a13e b6af 8a3d
00000060: 1edd b3be 8c16 b3bd 0134 a8be ffb0 453f
00000070: dd26 9cbe 6ba1 253e 53f6 aebd bbf3 a43c
00000080: 0e5a c73e 90ec 973e 8e4b 043f eaad b63e
00000090: 4a7d dabd d840 f6bc 1a83 0ebe bd39 25bf
000000a0: a34e 483e 4ec0 013f c678 a43d 057d b1be
000000b0: 24f3 083f eca8 86be b5dd 153f f314 483f
000000c0: 2cd4 283f ddf6 463e ea24 c73b 8c24 43bf
000000d0: 6f3a 22bf 31ca d4be 89bb 133e 8a78 a03d
000000e0: 2ff8 83be 08dc fabe a3fd b7be 6b21 15bf
000000f0: 1c30 fe3c 10bd 13bd 50a8 dd3e 7084 1d3e

fc2.weight f4 [64, 64]
0.31589508 -0.0030682923 -0.6790838 -0.1806073 0.08334509 -1.8818412 0.001721511 -0.092682764
-0.28184173 0.2906248 -0.7233706 0.3598488 0.6479757 -0.19184983 0.12230166 0.2797569
-0.39988863 0.24992931 -1.2731527 -0.6430627 0.46233308 -0.3109704 0.38035333 -0.6045174
-0.31401503 0.48574746 -2.3304136 0.29976627 -2.7143419 -2.885141 -0.4111398 0.6977666
0.037639365 0.5402006 0.029126147 -0.1678697 -0.023841625 -0.14625025 0.19631766 -0.89015967
-0.95346636 0.14398037 1.0406904 -0.39356932 0.21857895 -0.67303866 -2.3256936 0.07377106
0.67570215 0.42472252 -1.6797003 -1.2136 -0.7638637 -0.2655628 -0.25013894 -0.24388264
0.054010756 0.27961597 -0.55029285 -0.8484832 0.3649557 -0.14167267 0.012405047 0.45775887
-0.21333571 0.7200201 0.44357044 0.50808793 0.07273308 1.632862 0.10415199 0.15626694
0.18254384 -0.48688012 0.6265516 0.551263 0.14833276 0.3873996 0.070331864 0.4754957
0.28228128 -0.021152345 -0.57306 0.7609459 -0.76317924 0.3384388 -0.09028768 0.47744545
0.34890497 0.14539877 0.27274096 -0.18644369 0.37676704 0.14310281 0.056621376 -0.03096074
-0.010034944 0.8289395 0.110246286 0.03970308 0.12184809 0.8051869 -0.09912862 0.5051026
0.32083774 0.25264874 -0.53071344 0.42888802 -0.23115166 0.6352236 0.11025054 0.07899007
-0.0017796782 -0.09029331 0.18006401 0.75456923 0.71711135 0.8709899 0.5802869 0.16541761
0.41935906 -1.033814 0.34053177 0.58055663 0.15728813 0.59634346 0.115845636 0.18982536
1.1943841 -0.5112259 -0.73514616 -0.54683495 0.25781488 -1.3942939 0.13428538 -0.13871098
-0.2913221 0.5521647 -0.5614441 -0.2124662 0.7797478 -0.56339085 -0.029622935 -0.50927234
-0.55964863 0.1918888 1.4411848 -0.6315622 1.0176859 -0.3576551 0.825061 -0.4491386
-0.41834208 -0.9336133 -1.1338816 0.714488 -1.4985507 -0.22202201 -0.5961647 0.8466292
0.36376143 0.17139114 0.73656404 0.35855708 0.20581116 -0.79290545 0.47820273 -0.617574
-1.6236141 -0.0028767693 1.0781919 -1.1122593 0.019569306 -0.80211306 0.07069356 0.5236423
0.5353138 0.9132136 -1.2692999 -1.3284683 -0.8845346 -0.77344435 -0.7947847 -0.4441613
-0.5538759 0.92956245 -0.64257485 -2.3274353 0.1127767 0.040172517 0.33621117 -0.7078675
-0.41869137 1.0604126 0.41236314 0.51066834 0.117930636 1.8249508 0.10219188 0.1919029
0.17040406 -0.351266 0.65537274 0.6528247 -0.09671377 0.34164718 0.11566881 0.4305062
0.33327225 -0.033732094 -0.40475017 0.78484756 -0.8374925 0.48905107 -0.10467263 0.5338495
0.36012217 0.106763355 0.3800568 -0.2767283 0.3245675 0.23613502 0.022797564 -0.25231707
-0.0849343 0.7031673 0.08094792 0.09796434 0.14263676 0.7785228 0.08474308 0.71476346
0.39546987 0.18441491 -0.7094589 0.49743667 -0.05738443 0.6402275 0.25589275 0.094918944
0.09201477 0.013627237 0.18883666 0.8117523 0.79660034 0.904287 0.47728848 0.24104297
0.30104265 -1.2236685 0.57490474 0.38742453 0.12819837 0.64793676 0.20028937 0.28166938
00000000: 00bd a13e 6715 49bb 70d8 2dbf 1ff1 38be
00000010: d5b0 aa3d 2ce0 f0bf 53a4 e13a 76d0 bdbd
00000020: 8f4d 90be c6cc 943e d12e 39bf 1a3e b83e
00000030: bce1 253f 4874 44be 4b79 fa3d 4c3c 8f3e
00000040: 34be ccbe 78ed 7f3e abf6 a2bf c29f 24bf
00000050: ecb6 ec3e 8337 9fbe acbd c23e a7c1 1abf
00000060: 94c6 a0be e4b3 f83e 7f25 15c0 f77a 993e
00000070: c7b7 2dc0 26a6 38c0 ea80 d2be d5a0 323f
00000080: bc2b 1a3d 964a 0a3f f599 ee3c 09e6 2bbe
00000090: 834f c3bc a0c2 15be 7f07 493e 81e1 63bf
000000a0: 5f16 74bf 976f 133e 5835 853f eb81 c9be
000000b0: 29d3 5f3e 434c 2cbf 2ad8 14c0 4815 973d
000000c0: d1fa 2c3f 3b75 d93e 6b00 d7bf 3f57 9bbf
000000d0: 928c 43bf d9f7 87be 3612 80be 5fbc 79be
000000e0: 623a 5d3d d329 8f3e fedf 0cbf 3236 59bf
000000f0: 79db ba3e a412 11be 8a3e 4b3c 5f5f ea3e
00000100: ad74 5abe 3d53 383f aa1b e33e 0d12 023f
00000110: 15f5 943d 9f01 d13f a34d d53d 7104 203e
00000120: c6ec 3a3e 5a48 f9be b065 203f 921f 0d3f
00000130: 8be4 173e 3e59 c63e 270a 903d 2c74 f33e
00000140: 2c87 903e af47 adbc 0fb4 12bf 5acd 423f
00000150: b75f 43bf da47 ad3e bfe8 b8bd bb73 f43e
00000160: aca3 b23e 6ae3 143e b4a4 8b3e 18eb 3ebe
00000170: 9ce7 c03e 8b89 123e d1eb 673d 61a1 fdbc
00000180: 9b69 24bc 6135 543f cec8 e13d b29f 223d
00000190: 7e8b f93d bb20 4e3f f203 cbbd 674e 013f
000001a0: d844 a43e 2d5b 813e d6dc 07bf 3697 db3e
000001b0: 05b3 6cbe 049e 223f 09cb e13d 8cc5 a13d
000001c0: 1744 e9ba b3eb b8bd b362 383e 732b 413f
000001d0: 9c94 373f 32f9 5e3f af8d 143f 3c63 293e
000001e0: 3bb6 d63e 0454 84bf 2e5a ae3e 5c9f 143f
000001f0: 2410 213e f7a9 183f 7a40 ed3d 9461 423e
00000200: 94e1 983f b3df 02bf 8a32 3cbf 60fd 0bbf
00000210: 5000 843e 3978 b2bf 1b82 093e 400a 0ebe
00000220: 2c28 95be aa5a 0d3f cdba 0fbf bd90 59be
00000230: 8d9d 473f 623a 10bf ccab f2bc ac5f 02bf
00000240: 2245 0fbf 7f7e 443e be78 b83f 0fae 21bf
00000250: 8843 823f 921e b7be 3337 533f 7ff5 e5be
00000260: ef30 d6be 4801 6fbf 0823 91bf b0e8 363f
00000270: 82d0 bfbf bd59 63be 409e 18bf b1bc 583f
00000280: f03e ba3e 2981 2f3e 768f 3c3f cb94 b73e
00000290: 29c0 523e dafb 4abf fdd6 f43e 5419 1ebf
000002a0: 96d2 cfbf 2e88 3cbb 3102 8a3f 835e 8ebf
000002b0: cf4f a03c 4857 4dbf c9c7 903d 6c0d 063f
000002c0: 530a 093f 5ec8 693f 6b78 a2bf 400b aabf
000002d0: dc70 62bf 7300 46bf 0377 4bbf 1c69 e3be
000002e0: d0ca 0dbf cef7 6d3f c97f 24bf b3f4 14c0
000002f0: 78f7 e63d f08b 243d df23 ac3e ce36 35bf
00000300: b75e d6be 9abb 873f 4321 d33e 29bb 023f
00000310: 9e85 f13d fd97 e93f fa49 d13d 3282 443e
00000320: 677e 2e3e 23d9 b3be 82c6 273f 851f 273f
00000330: de11 c6bd 61ec ae3e c5e3 ec3d 4f6b dc3e
00000340: a9a2 aa3e aa2a 0abd 6a3b cfbe c5eb 483f
00000350: e965 56bf e764 fa3e 9b5e d6bd 5caa 083f
00000360: ef61 b83e bfa6 da3d ce96 c23e 55af 8dbe
00000370: b62d a63e 61cd 713e f5c1 ba3c b42f 81be
00000380: 09f2 adbd c602 343f 06c8 a53d 87a1 c83d
00000390: 5f0f 123e 454d 473f c88d ad3d bdfa 363f
000003a0: 077b ca3e 43d7 3c3e 199f 35bf 05b0 fe3e
000003b0: f00b 6bbd f3e5 233f 6004 833e dd64 c23d
000003c0: 3d72 bc3d c644 5f3c 665e 413e 00cf 4f3f
000003d0: 00ee 4b3f 5a7f 673f 285f f43e f8d3 763e
000003e0: 4322 9a3e 2ba1 9cbf f52c 133f 825c c63e
000003f0: 6f46 033e 2fdf 253f a818 4d3e f836 903e

fc2.bias f4 [64]
0.59952915 0.021151556 1.3829 -0.12566134 -0.052557748 0.0016998473 -0.09918314 0.1896293
-0.0792355 0.1139092 -0.26905358 -0.16144784 -0.14978921 -0.102827534 -0.057008535 -0.33747834
-0.12999853 -0.1996163 -0.05842078 -0.16667615 -0.18644942 -0.41430125 -0.09833466 0.47252518
-0.052253578 0.2607211 -0.16134867 -0.16065918 0.4006036 -0.09362309 -0.018921278 -0.12473928
0.21531229 0.41218963 0.38863605 -0.053359233 -0.060701907 -0.14436097 -0.14767992 0.013015453
0.597462 -0.17828766 -0.12259428 0.106580555 -0.62754816 0.005349293 -0.17908294 0.83043057
0.079683855 -0.04139499 -0.28441355 0.13752513 -0.12470455 -0.038464244 -0.12612145 0.011245703
-0.14275436 -0.1552945 -0.7158216 0.09139155 -0.018120877 -0.08005357 -0.08789113 0.37188277
00000000: be7a 193f 0746 ad3c de02 b13f 5ead 00be
00000010: cb46 57bd 69cd de3a 8820 cbbd 2f2e 423e
00000020: 3946 a2bd 3a49 e93d 64c1 89be 9552 25be
00000030: 5862 19be 3e97 d2bd c881 69bd f6c9 acbe
00000040: 561e 05be 3768 4cbe a14a 6fbd 27ad 2abe
00000050: 99ec 3ebe 4b1f d4be af63 c9bd d2ee f13e
00000060: d907 56bd 3c7d 853e 9638 25be d783 24be
00000070: ea1b cd3e 76bd bfbd cc00 9bbc 4f77 ffbd
00000080: d37a 5c3e 850a d33e 4efb c63e 368f 5abd
00000090: 90a2 78bd 5dd3 13be 6839 17be c43e 553c
000000a0: 45f3 183f 0a91 36be b612 fbbd e846 da3d
000000b0: ffa6 20bf 1f49 af3b 8561 37be 1997 543f
000000c0: 4a31 a33d cb8d 29bd a79e 91be 63d3 0c3e
000000d0: 1965 ffbd af8c 1dbd fb25 01be e63f 383c
000000e0: 332e 12be 8505 1fbe 1640 37bf 7e2b bb3d
000000f0: 3c72 94bc 20f3 a3bd 4400 b4bd 6b67 be3e

fc3.weight f4 [4, 64]
1.7288667 -0.42034793 1.5718937 -0.50201786 -0.3113348 -0.06563225 0.009516103 -0.30180442
-0.049953446 2.7857635 -0.53803384 -0.41641936 -0.41956535 0.08134047 -0.4640245 -0.13450018
-0.020936191 -0.4062791 3.2372837 -0.5269243 -0.43565843 -0.23021378 -0.4564616 2.6102152
-0.37230632 0.30729505 -0.40559146 -0.45952952 2.418238 -0.46213847 -0.4316695 -0.4350421
0.6130392 2.3349655 2.343351 -0.5151082 -0.5574255 -0.26340845 -0.31043062 -0.57755536
2.5735433 -0.36228946 -0.06707907 0.50614244 0.39401034 -0.27117288 -0.37416318 3.2576506
-0.47008222 -0.4543507 -0.35438636 1.560244 -0.2963051 -0.5671262 -0.38300648 -0.03975609
-0.3737491 -0.3680598 -0.43135697 -0.020373752 -0.027036604 -0.5323208 0.3144779 1.3270679
1.3774067 -0.32744208 1.2229472 -0.37509707 -0.3163194 0.012619901 0.042919874 0.097609736
-0.03774369 2.656345 -0.5456316 -0.26215327 -0.5426751 -0.017705526 -0.402322 -0.9660971
0.099723734 -0.5063634 2.8274195 -0.29882568 -0.5009405 -0.12108525 -0.3268808 2.4787328
-0.48391455 0.16665599 -0.5642336 -0.5795979 2.6734 -0.6133334 -0.23889527 -0.34656516
-0.14507703 2.4869409 1.8596822 -0.514012 -0.010758412 -0.15458716 -0.5251445 -0.6621169
2.9289327 -0.49054515 0.11953427 1.2603272 -0.9114562 -0.33204275 -0.50155556 3.2852376
-0.58498 -0.54732716 -0.40699267 1.4375615 -0.30705866 -0.42605326 -0.34383342 0.11242859
-0.46592385 -0.6947262 -0.7132803 0.039741695 -0.036656335 -0.3699154 0.3442212 1.5660725
2.014203 -0.32431436 1.7693093 -0.39394417 -0.5552639 0.059954587 0.043954473 0.26243645
0.016155265 2.9351575 -0.47612277 -0.48466876 -0.32603756 0.091220565 -0.44351384 -0.46018496
0.06253505 -0.4500582 2.6326342 -0.53929436 -0.4680347 -0.8402528 -0.46869436 2.600946
-0.30796966 -1.232802 -0.42477348 -0.33842874 2.8390858 -0.3624081 -0.16843215 -0.42840278
2.000716 2.4995608 2.126406 -0.40274602 -0.40793854 -0.49483147 -0.45166838 -0.22935855
2.360388 -0.3985996 0.10073069 -1.0069939 -0.18615855 -0.44283694 -0.29903516 2.707543
-0.16002552 -0.3934191 -0.44859397 0.84148395 -0.5005578 -0.5356886 -0.2626601 -0.05214697
-0.41995806 -0.58932745 -0.6787444 0.09666245 0.022981271 -0.40835723 1.5524051 1.7890174
2.3158522 -0.54915166 1.4646636 -0.4800454 -0.55092156 0.06469676 -0.084172554 -0.4037009
0.047775917 2.7079637 -0.52313334 -0.4808818 -0.41673717 0.06898144 -0.30291992 0.037458945
0.06488709 -0.36821643 3.2793193 -0.42231107 -0.34241953 -0.36628738 -0.37071553 3.1552773
-0.36186337 0.40371138 -0.4252448 -0.31029326 2.4058652 -0.28873816 -0.46266896 -0.45204455
1.0284625 1.7650948 2.3322344 -0.30567905 -0.2975221 -0.48990014 -0.45698985 -0.17677927
1.9831246 -0.42055282 -0.09180762 -0.033548154 0.124865904 -0.48311108 -0.49439207 3.3945394
-0.31582162 -0.42939284 -0.52829456 1.806568 -0.4743816 -0.33144495 -0.5586833 -0.09661568
-0.51544684 -0.24874343 -0.18348299 -0.09862325 0.09662929 -0.47855482 0.61439174 1.0567511
00000000: 814b dd3f d837 d7be d033 c93f 3e84 00bf
00000010: 4667 9fbe 336a 86bd 6ee9 1b3c 1c86 9abe
00000020: fc9b 4cbd f349 3240 96bc 09bf eb34 d5be
00000030: 45d1 d6be d595 a63d 9f94 edbe 6aba 09be
00000040: 6082 abbc d003 d0be a82f 4f40 83e4 06bf
00000050: 9f0e dfbe 29bd 6bbe 56b5 e9be c40d 2740
00000060: ef9e bebe c755 9d3e afa9 cfbe 7447 ebbe
00000070: 69c4 1a40 6a9d ecbe c903 ddbe d7bd debe
00000080: 23f0 1c3f 1370 1540 76f9 1540 22de 03bf
00000090: 70b3 0ebf 79dd 86be c3f0 9ebe abda 13bf
000000a0: efb4 2440 017e b9be c060 89bd 8d92 013f
000000b0: b9bb c93e 2cd7 8abe 5192 bfbe 597d 5040
000000c0: 9eae f0be a8a0 e8be 2172 b5be 13b6 c73f
000000d0: 4db5 97be 2f2f 11bf 6d19 c4be 48d7 22bd
000000e0: 0b5c bfbe 5672 bcbe d2da dcbe dbe6 a6bc
000000f0: de7b ddbc 2d46 08bf 3f03 a13e 5cdd a93f
00000100: dd4e b03f 7da6 a7be 8989 9c3f b90c c0be
00000110: 9ef4 a1be b4c3 4e3c c0cc 2f3d 9de7 c73d
00000120: 2199 1abd 8e01 2a40 83ae 0bbf f438 86be
00000130: c1ec 0abf 2e0b 91bc 26fd cdbe 2452 77bf
00000140: f53b cc3d 08a1 01bf 71f4 3440 aeff 98be
00000150: a33d 00bf 8bfb f7bd ec5c a7be 8fa3 1e40
00000160: a6c3 f7be dea7 2a3e 9d71 10bf 8760 14bf
00000170: fc18 2b40 6b03 1dbf f6a0 74be fd70 b1be
00000180: 138f 14be 0a2a 1f40 110a ee3f 4a96 03bf
00000190: 0d44 30bc 194c 1ebe df6f 06bf 7e80 29bf
000001a0: a273 3b40 bc28 fbbe 62ce f43d 6752 a13f
000001b0: 3255 69bf 8201 aabe f265 00bf 5541 5240
000001c0: 40c1 15bf a21d 0cbf 5861 d0be 0402 b83f
000001d0: cb36 9dbe a723 dabe ef0a b0be f640 e63d
000001e0: 928d eebe 94d9 31bf 8a99 36bf 30c8 223d
000001f0: f424 16bd 8d65 bdbe c33d b03e 1075 c83f
00000200: b4e8 0040 880c a6be ba78 e23f 0db3 c9be
00000210: c625 0ebf f192 753d 9b09 343d 125e 863e
00000220: 0c58 843c 9fd9 3b40 5dc6 f3be 8126 f8be
00000230: 65ee a6be d9d1 ba3d 3f14 e3be 5d9d ebbe
00000240: 6012 803d 076e e6be 147d 2840 320f 0abf
00000250: 3fa2 efbe cf1a 57bf b5f8 efbe e675 2640
00000260: 33ae 9dbe 75cc 9dbf e97b d9be 8846 adbe
00000270: 95b3 3540 8e8d b9be 7a79 2cbe 9c57 dbbe
00000280: bb0b 0040 cef8 1f40 0917 0840 ba34 cebe
00000290: 52dd d0be 8d5a fdbe 1441 e7be f8dc 6abe
000002a0: 9910 1740 3f15 ccbe e44b ce3d 2de5 80bf
000002b0: 59a0 3ebe 86bb e2be 231b 99be 6248 2d40
000002c0: bbdd 23be 3a6e c9be 1cae e5be 7e6b 573f
000002d0: 8e24 00bf e322 09bf 627b 86be 1098 55bd
000002e0: be04 d7be 2ade 16bf 31c2 2dbf f6f6 c53d
000002f0: 3843 bc3c 3314 d1be 36b5 c63f 86fe e43f
00000300: ec36 1440 3495 0cbf 197a bb3f 83c8 f5be
00000310: 3209 0dbf bc7f 843d a962 acbd e2b1 cebe
00000320: aeb0 433d 474f 2d40 11ec 05bf 2436 f6be
00000330: 935e d5be 2446 8d3d 5218 9bbe 8d6e 193d
00000340: 86e3 843d dd86 bcbe 5ee0 5140 2839 d8be
00000350: 9d51 afbe 058a bbbe 6dce bdbe 10f0 4940
00000360: 2846 b9be 42b3 ce3e b0b9 d9be c2de 9ebe
00000370: b2f9 1940 7dd5 93be f2e2 ecbe 6272 e7be
00000380: a9a4 833f a0ee e13f 5443 1540 f781 9cbe
00000390: d154 98be 31d4 fabe 93fa e9be a005 35be
000003a0: 07d7 fd3f b352 d7be a205 bcbd ca69 09bd
000003b0: b2b9 ff3d 565a f7be f520 fdbe 2240 5940
000003c0: 5fb3 a1be 61d9 dbbe 503e 07bf 9f3d e73f
000003d0: 25e2 f2be 27b3 a9be de05 0fbf 71de c5bd
000003e0: 53f4 03bf 99b6 7ebe f7e2 3bbe fdfa c9bd
000003f0: 94e5 c53d 2305 f5be c748 1d3f 9f43 873f

fc3.bias f4 [4]
-0.0027890173 0.5101346 0.33887586 0.25022757
00000000: f2c7 36bb 2e98 023f 2381 ad3e d41d 803e
