model/DQN/checkpoint_best_version_3.pth (torch, 22680 bytes, 6 tensors)

fc1.weight f4 [64, 8]
0	0x3ed3bc73	0.41354713
1	0x3f2fd44e	0.68683326
2	0x3d6a742b	0.057239693
3	0x3ebccc70	0.36874723
4	0xbeeb6498	-0.45975184
5	0xbee8a4cb	-0.45438227
6	0xbe631dee	-0.22179386
7	0x3e777061	0.24163963
8	0x3fbf7c1b	1.4959749
9	0x3cc1a6dd	0.023639137
10	0x3f85824e	1.0430391
11	0xbd7c5c9d	-0.06161176
12	0x3eb29a41	0.3488331
13	0x3e8f2815	0.27960268
14	0x3ccc1022	0.024910036
15	0x3d2b62eb	0.041842382
16	0x3dba5faa	0.09100278
17	0xbebfd167	-0.3746445
18	0x3e08ac40	0.13346958
19	0xbe67ba46	-0.22629651
20	0xbf38806a	-0.72070944
21	0xbf2356be	-0.63804233
22	0xbf25cd4b	-0.6476638
23	0x3f194f1d	0.5988634
24	0xbf8c5311	-1.096285
25	0xbf82a1a7	-1.0205582
26	0xbf5e261e	-0.8677691
27	0xbf4b037e	-0.79302204
28	0xbec5411b	-0.38526234
29	0xbe0d4b61	-0.13798286
30	0x3ea33767	0.31878206
31	0x3d43bd42	0.047787912
32	0xbeeba79b	-0.4602631
33	0x3cf680d0	0.03009072
34	0x3e46889c	0.1938805
35	0xbe7f4963	-0.24930339
36	0xbe568cc7	-0.2095214
37	0x3f75e28e	0.9604882
38	0x3ed31b80	0.41231918
39	0xbe4f0436	-0.2021645
40	0xbe3e2ace	-0.18571016
41	0xbebfa109	-0.37427548
42	0x3e348e13	0.17632322
43	0x40028b91	2.0397685
44	0xbe97c948	-0.29645753
45	0xbee57dd7	-0.4482257
46	0x3eacb8de	0.33734792
47	0xbf08bad2	-0.53410065
48	0xbd6a2f07	-0.057173755
49	0xbecd363b	-0.40080437
50	0xbf49668d	-0.78672105
51	0x3e4c992b	0.19980304
52	0x3f19268d	0.5982445
53	0x3f0f3d5b	0.55952996
54	0x3e90e827	0.28302118
55	0x3eb67375	0.35634962
56	0x3c6ddfb2	0.014518665
57	0xbf07681d	-0.5289324
58	0x3e7891b9	0.24274339
59	0xbfaa6cc1	-1.3314439
60	0xbea9375e	-0.33050054
61	0xbdad7a5c	-0.08470604
62	0x3dbac3d3	0.09119382
63	0x3e647962	0.22311929
64	0x3d498837	0.04920217
65	0xbe3eb8c3	-0.18625169
66	0x3f04d8ba	0.518932
67	0xbf12bec8	-0.5732236
68	0xbf8df6bd	-1.1090924
69	0xbe22acf6	-0.15886292
70	0x3eb6a2fc	0.35671222
71	0x3f38ba3d	0.7215918
72	0x3fb0d66c	1.3815436
73	0xc00f4af5	-2.23895
74	0x3e9d32da	0.3070286
75	0xbf0306b4	-0.51182103
76	0xbe2ed844	-0.17074686
77	0x3e427341	0.18989278
78	0x3f9c6426	1.2218063
79	0x3db2b579	0.087260194
80	0xbea63d82	-0.32468802
81	0xbfb4ae35	-1.4115664
82	0x3db85f6d	0.09002576
83	0xbfb2e725	-1.397679
84	0x3f295e4a	0.661595
85	0xbcde8360	-0.027162254
86	0x3df90239	0.12158627
87	0x3dbcce6c	0.09219059
88	0xbe16ad3d	-0.14714523
89	0x3eee8a1e	0.4658975
90	0x3e0a76d2	0.13521889
91	0xbf8ff9ae	-1.1248071
92	0x3f530ff9	0.8244625
93	0x3efa20c1	0.48853114
94	0xbf7a5a30	-0.97793865
95	0xbe73c00c	-0.23803729
96	0x3f07f539	0.53108555
97	0x3ebbe036	0.36694497
98	0xbe8ceb6a	-0.27523357
99	0xbfbc2391	-1.4698354
100	0xbf33086a	-0.69934714
101	0x3e168732	0.1470001
102	0xbe69559a	-0.2278656
103	0x3d95df3b	0.073179685
104	0xbf28cbd1	-0.65936
105	0xbf0ab4fc	-0.5418241
106	0xbe65d660	-0.22445059
107	0xbf423675	-0.75864345
108	0xbf29471f	-0.6612415
109	0xbe857b5d	-0.2607068
110	0x3f2af506	0.66780126
111	0x3ef1ffbe	0.47265428
112	0xbe1ed14e	-0.15509531
113	0xbee8ddcb	-0.45481715
114	0x3db81dcf	0.089900605
115	0xbde5bf64	-0.112181455
116	0xbf06f9e4	-0.5272505
117	0xbf0d3998	-0.55166006
118	0xbd3fc037	-0.04681417
119	0x3f09080f	0.5352792
120	0x3f2a0b56	0.6642355
121	0xbf62dd65	-0.8861907
122	0x3c527bca	0.012846896
123	0xbf990469	-1.1954471
124	0xbf1400ef	-0.57813925
125	0xbd349015	-0.04408272
126	0x3d97a520	0.07404542
127	0xbd888f28	-0.0666793
128	0x3e2396ce	0.15975496
129	0xbf9bdf6c	-1.2177558
130	0x3f75b2ef	0.95976156
131	0xbe0f5519	-0.13997306
132	0xbf074d7b	-0.528526
133	0x3eb85c1a	0.36007768
134	0xbd44763f	-0.04796433
135	0xbf8e1caa	-1.1102498
136	0xbc914090	-0.017730981
137	0x3e7469d4	0.23868495
138	0x3eaea49d	0.34109965
139	0xbfae52e2	-1.3619044
140	0x3c87b974	0.016567923
141	0xbee3bebf	-0.44481465
142	0xbdbb76a3	-0.091534875
143	0xbf94f532	-1.1637328
144	0x3e5e0164	0.21680218
145	0x3ce03813	0.027370488
146	0x3f1a546c	0.6028507
147	0x40ab5551	5.3541646
148	0x3cc88f88	0.024482504
149	0x3b03a270	0.0020085834
150	0x3e4f4473	0.20240955
151	0x3edd8824	0.4326793
152	0x3efed475	0.49771467
153	0x3e606e6c	0.21917123
154	0x3f4e0af8	0.80485487
155	0xbf747926	-0.9549736
156	0x3f0e2a58	0.5553336
157	0x3e14b211	0.14521052
158	0xbe52c877	-0.20584284
159	0xbe7e5e0c	-0.24840564
160	0x3f3277f0	0.6971426
161	0x3efb07c7	0.4902937
162	0xbd9946d6	-0.07484214
163	0xbf60b0ab	-0.87769574
164	0x3e035965	0.1282707
165	0x3c68ee51	0.014216975
166	0xbed6433b	-0.41848168
167	0x3f212624	0.6294882
168	0x3f6dd2f0	0.9289999
169	0xbfd01329	-1.6255847
170	0x3efc49f0	0.4927516
171	0xbef968da	-0.48712808
172	0x3ece49ba	0.40290624
173	0x3ee623f4	0.44949305
174	0xbf8b352c	-1.0875602
175	0xbf13b164	-0.5769255
176	0xbe5d5dff	-0.21617888
177	0x3edee1f1	0.43531755
178	0x3e30a52c	0.17250508
179	0xbfc9d96f	-1.576948
180	0xbe0a1ad2	-0.13486794
181	0x3f7fdcb4	0.9994614
182	0xbe18b419	-0.14912452
183	0x3da9e410	0.082954526
184	0x3e03a7b8	0.12856948
185	0x4009d0f3	2.1533782
186	0x3f8cb958	1.0994062
187	0x3f331ef2	0.69969094
188	0xbd0580b2	-0.032593437
189	0x3e97f653	0.29680118
190	0x3d9eac23	0.07747676
191	0xbd801c7e	-0.062554345
192	0x3fc70aa8	1.5550127
193	0xbdc0c546	-0.09412627
194	0x3f407cb8	0.75190306
195	0xbc649cec	-0.013953429
196	0x3e20033d	0.15626235
197	0x3e3f7961	0.18698646
198	0x3d979840	0.07402086
199	0x3d2451fd	0.040117253
200	0xbfaf4b57	-1.3694867
201	0xbb9b002d	-0.0047302456
202	0xbf42eb40	-0.76140213
203	0xbdd88fbe	-0.10574292
204	0x3e0c695a	0.13712063
205	0xbf19fe3b	-0.6015355
206	0xbecee0db	-0.40405926
207	0xbed4148d	-0.4142193
208	0x3e9ea44e	0.3098473
209	0xbc75df77	-0.015006891
210	0x3ea72d06	0.32651538
211	0xbe2c1318	-0.16804159
212	0xbf200b20	-0.62516975
213	0xbf107755	-0.56432086
214	0xbe8c5c64	-0.27414238
215	0x3f844359	1.0333053
216	0xbe616c4c	-0.22013968
217	0xbf0b0bb9	-0.5431476
218	0xbed93773	-0.42425117
219	0xbe15329e	-0.1457009
220	0x3e9bd399	0.30434874
221	0x3f8016f3	1.0007004
222	0xbee96355	-0.45583597
223	0xbf4639fb	-0.7743222
224	0x3db0444e	0.08606778
225	0x3d978c08	0.07399756
226	0x3c62965c	0.013829794
227	0xbf032761	-0.5123196
228	0xbe467ed7	-0.19384323
229	0xbf8ceee0	-1.1010399
230	0xbeb4a8fa	-0.3528517
231	0x3ef3413c	0.47510707
232	0x3e9c3f91	0.30517247
233	0x3f0b3b42	0.54387295
234	0x3ed66298	0.41872096
235	0x3f874ab8	1.0569677
236	0xbf78adae	-0.97140014
237	0xbebd3360	-0.3695326
238	0xbe303bdd	-0.17210336
239	0xbf4adfe2	-0.7924787
240	0x3e9c5640	0.30534554
241	0xbf152ede	-0.5827464
242	0x3e3406f5	0.17580779
243	0xbf2f47aa	-0.68468726
244	0xbf0533f7	-0.5203242
245	0xbf575170	-0.8410864
246	0xbf4f41d9	-0.8095985
247	0x3f17eb46	0.59343374
248	0x3de1d7ae	0.11027466
249	0xbda1c6d8	-0.078992546
250	0xbfa695c2	-1.3014452
251	0xbfb031f0	-1.376524
252	0x3d090611	0.03345305
253	0xbf6f966a	-0.9358889
254	0x3e53d7c6	0.2068778
255	0x3e85889a	0.2608078

fc1.bias f4 [64]
0	0x3f884f9d	1.0649296
1	0xbc9a4ce5	-0.018835494
2	0x3d2e05dc	0.042486057
3	0xbed377a3	-0.41302213
4	0xbe60b1a1	-0.2194276
5	0xbf06e75c	-0.52696776
6	0x3edad4f0	0.42740583
7	0xbed8ff6c	-0.4238237
8	0xbe9d0767	-0.3066971
9	0xbcde6e14	-0.027152099
10	0xbe84f1db	-0.2596577
11	0x3eec1b19	0.46114424
12	0x3f1d9201	0.6155091
13	0xbf1cc27b	-0.61234254
14	0x3dbf84f8	0.09351534
15	0xbdd9e323	-0.10639026
16	0xbe1bb1f7	-0.15204607
17	0xbee7fd4e	-0.45310444
18	0x3df9a91c	0.12190458
19	0xbe11788e	-0.14206144
20	0x3ea11974	0.31464732
21	0x3f8c4c86	1.0960853
22	0x3e95882d	0.29205456
23	0x3edbf2df	0.42958733
24	0xbd8581cc	-0.065188974
25	0x3e4faeb0	0.20281482
26	0xbed611cc	-0.41810453
27	0x3ed3978d	0.41326562
28	0xbf2b3824	-0.6688254
29	0x3e566a6b	0.20939033
30	0xbd0faab3	-0.0350749
31	0x3d7f894e	0.062386803
32	0x3f5d78b6	0.86512315
33	0x3de9ea5b	0.11421653
34	0xbbb2e7b5	-0.0054597505
35	0xbe8fe8bd	-0.28107253
36	0x3ed70bb6	0.42001122
37	0xbea29bff	-0.3175964
38	0x3e11dea4	0.14245087
39	0xbe752140	-0.23938465
40	0x3ef364b6	0.47537774
41	0x3f55f878	0.8358226
42	0x3d369700	0.0445776
43	0xbee48d65	-0.44639125
44	0x3d09536f	0.033526834
45	0xbed922a9	-0.42409256
46	0x3f5d74f1	0.86506563
47	0x3f634fe1	0.8879376
48	0x3f3747fd	0.7159422
49	0x3d8ecaee	0.069722995
50	0x3e9c6166	0.3054306
51	0xbf4ac6fb	-0.7920987
52	0xbf15b853	-0.5848438
53	0xbed38162	-0.4130965
54	0x3ecbd5e2	0.39811617
55	0xbed18b64	-0.4092666
56	0xbe987921	-0.29779914
57	0xbf48174e	-0.7816056
58	0xbe8e9385	-0.27846923
59	0xbf2773d6	-0.65411127
60	0x3e9de762	0.30840594
61	0x3c142952	0.009043055
62	0x3e0c9ff7	0.13732897
63	0xbf45860e	-0.77157676

fc2.weight f4 [64, 64]
0	0x3f485257	0.7825064
1	0x3d9f0b4b	0.07765826
2	0xbf52f484	-0.8240435
3	0xbf209d2b	-0.6273982
4	0x3cc61f1a	0.024184752
5	0xbffb468d	-1.9630905
6	0xbcd7f037	-0.02635966
7	0xbf18f808	-0.59753466
8	0xbf3869dd	-0.72036535
9	0x3d2dc54d	0.04242449
10	0xbfdb3be3	-1.7127651
11	0x3d33d164	0.043900862
12	0x3e78f7a6	0.2431322
13	0x3e4863da	0.1956934
14	0xbe8d6659	-0.27617148
15	0xbf2cf142	-0.6755563
16	0xbe72adc2	-0.23699096
17	0xbe4ff942	-0.20309928
18	0xc00e851b	-2.226874
19	0xbf82ec98	-1.0228453
20	0x3ed03903	0.40668496
21	0x3ebd2f02	0.36949927
22	0x3ee798df	0.4523382
23	0x3f3e2282	0.74271405
24	0xbedcc027	-0.4311535
25	0xc0506865	-3.2563717
26	0xbfbcc234	-1.4746766
27	0xbfbf6415	-1.4952418
28	0xbf0d86c3	-0.55283755
29	0xbf4caa40	-0.7994728
30	0x3d7c0d2a	0.06153599
31	0x3f422753	0.75841254
32	0x3e5722e0	0.21009398
33	0xbe85a291	-0.2610059
34	0x3fa80275	1.312575
35	0xbf94b856	-1.1618755
36	0xbf837500	-1.027008
37	0xbfa8ab19	-1.3177215
38	0xbcdd8b57	-0.027043981
39	0x3d638778	0.055549115
40	0x3fb9e585	1.4523169
41	0xbf6efebe	-0.93357456
42	0x3f88fefb	1.0702814
43	0xbf218a17	-0.63101333
44	0x3f1586e8	0.58408976
45	0xbfa89f76	-1.3173664
46	0xc008782f	-2.1323354
47	0x3ed5cea1	0.41759208
48	0x3e1c6ec1	0.15276624
49	0x3f64d401	0.8938599
50	0xc0a658d2	-5.1983423
51	0xbf7c796d	-0.9862278
52	0xbf0fc721	-0.5616322
53	0xbef7c680	-0.4839363
54	0x3d7d8e94	0.06190355
55	0xbe5734e1	-0.21016265
56	0xbf3a1a77	-0.7269663
57	0x3fe20b60	1.7659721
58	0xbecb3918	-0.39691997
59	0x401f1a90	2.4859962
60	0xbf0cdf62	-0.55028355
61	0x3f9bad6c	1.2162299
62	0x3ecca0b9	0.39966372
63	0xbe4db494	-0.20088416
64	0xbf1687e8	-0.58801126
65	0x3ef04811	0.46929982
66	0x3ee291fb	0.44252
67	0x3f5ea236	0.86966264
68	0x3d3a0821	0.04541791
69	0x3fc79298	1.5591612
70	0xbbdd8350	-0.0067600384
71	0x3ec1bcf6	0.37839478
72	0x3ed5d2b6	0.41762322
73	0x3e81e3e2	0.25369173
74	0x3f244dde	0.64181316
75	0x3db43954	0.08799997
76	0x3daa5da9	0.083186455
77	0x3f0592d5	0.5217717
78	0x3d94be15	0.07262818
79	0x3f2555fe	0.6458434
80	0x3ea4f34d	0.32216874
81	0xbef8494e	-0.48493427
82	0xbb960658	-0.004578393
83	0x3d044e14	0.032301024
84	0xbe7c3a18	-0.24631536
85	0xbd0ac67c	-0.033880696
86	0xbe6cdf15	-0.23131974
87	0x3f38d21e	0.72195613
88	0x3f746f11	0.95481974
89	0x3d9dd2eb	0.07706245
90	0x3e6933b8	0.22773635
91	0x3e0ac0c6	0.135501
92	0x3f00a80c	0.5025642
93	0x3f0c0260	0.54691124
94	0xbe130b04	-0.14359671
95	0x3c8cdc16	0.017194789
96	0xbf14ba3d	-0.5809668
97	0x3f6bbb93	0.9208309
98	0xbe98f2c2	-0.2987271
99	0x3e92cf2d	0.28673688
100	0x3e9f2a08	0.31086755
101	0x3ef02307	0.46901724
102	0x3d9c35f8	0.07627481
103	0x3f11cf1a	0.56956637
104	0x3de77c64	0.113030225
105	0x3e3c2a51	0.18375517
106	0xbf35e884	-0.71057916
107	0x3ec77835	0.38958898
108	0xbeb455d7	-0.3522174
109	0x3ede23e9	0.43386772
110	0x3f021392	0.5081111
111	0x3dfd785f	0.123764746
112	0xbe0f8088	-0.14013875
113	0xbdf93bd0	-0.121696115
114	0x3c0e2b83	0.008677366
115	0x3f3b2578	0.7310405
116	0x3f1fd987	0.62441295
117	0x3f5311e1	0.82449156
118	0x3e808e1a	0.25108415
119	0x3f0d060b	0.55087346
120	0x3f3a9fc2	0.7290002
121	0xbfac453d	-1.345863
122	0x3eaa6220	0.33277988
123	0x3f0bd3c2	0.5461999
124	0x3e5902ec	0.21192521
125	0xbf1b08ef	-0.60560507
126	0xbda3f797	-0.080062084
127	0xbe86d71d	-0.26335993
128	0x3f0bee0c	0.54660106
129	0x3daf53d3	0.0856091
130	0xc005db56	-2.0915122
131	0x3dc90805	0.09815983
132	0xbf3a6da5	-0.72823554
133	0xbf2ec2b0	-0.6826582
134	0xbf5295b2	-0.82259667
135	0xbddecead	-0.10879264
136	0xbe9ea6f2	-0.30986744
137	0xbeaee1e6	-0.34156722
138	0xbf918729	-1.1369373
139	0x3e408fbe	0.18804833
140	0x3e0c2b73	0.1368845
141	0x3ee4cc27	0.44687006
142	0xbf800aa9	-1.0003253
143	0xbde6d615	-0.11271302
144	0xbe751ce6	-0.23936805
145	0xbeef1e74	-0.4670292
146	0xbe1ff799	-0.15621795
147	0x3c4baba7	0.012431062
148	0x3e2435a3	0.16036086
149	0x3e74a82f	0.23892282
150	0x3deff3a1	0.117163904
151	0x3ea8b689	0.32951763
152	0x3f42dfe6	0.7612289
153	0xbf000f26	-0.50023115
154	0xc0454945	-3.082597
155	0xc024dc35	-2.5759404
156	0xc009e93d	-2.1548607
157	0xbea4dd5e	-0.3220014
158	0xbfda040b	-1.7032484
159	0x3f8ef3af	1.1168116
160	0xbf710ec5	-0.9416316
161	0x3fb8abf0	1.4427471
162	0x3fcaadb6	1.5834262
163	0xbf7f096c	-0.9962375
164	0xbf0ae673	-0.5425789
165	0x3e2be74a	0.16787449
166	0x3efa91e8	0.48939443
167	0x3e23ccab	0.15996043
168	0x3faa343a	1.3297188
169	0xbf9750c3	-1.1821522
170	0x3fb79834	1.4343324
171	0xbe9d09ac	-0.30671442
172	0x3f297d15	0.66206485
173	0xbf46c673	-0.7764656
174	0xbf54148e	-0.82843864
175	0x3c90cf7a	0.017677058
176	0x3e0c3a35	0.13694079
177	0x3fa41fec	1.2822242
178	0xc0074a35	-2.1139042
179	0xbf88353b	-1.0641245
180	0x3db0c627	0.086315446
181	0x3dff071d	0.124525286
182	0x3d3dc718	0.04633245
183	0x3f4bc8f9	0.79603535
184	0xbe226c3a	-0.15861598
185	0x3f949bd4	1.1610055
186	0xbf382c75	-0.71942836
187	0x3f5d2a3b	0.86392564
188	0xbf498971	-0.78725344
189	0x3fb46695	1.4093806
190	0x3f2c3a81	0.6727677
191	0xbf968d6b	-1.1761907
192	0xbf6e7648	-0.9314923
193	0x3f51aa71	0.819007
194	0x3edf41b7	0.43604824
195	0x3f68957e	0.90853107
196	0x3dfa4478	0.12220091
197	0x3fc44199	1.5332519
198	0xbd437de9	-0.0477275
199	0x3ed4c205	0.41554275
200	0x3ec16b79	0.37777308
201	0x3e9179a0	0.28413105
202	0x3f1762c8	0.59135103
203	0x3d11f8af	0.035637554
204	0xbdffb87a	-0.12486358
205	0x3f05f9d1	0.52334315
206	0x3e3651f7	0.17804705
207	0x3f214ad8	0.6300483
208	0x3e923799	0.28558043
209	0xbf0179dd	-0.50576574
210	0xbde03f47	-0.10949569
211	0x3dee1371	0.11624802
212	0xbe2e3075	-0.17010672
213	0xbcb9f2e7	-0.022698833
214	0xbead66ab	-0.33867392
215	0x3edf54d1	0.43619397
216	0x3f4cf6ca	0.8006407
217	0xbce882fd	-0.028382773
218	0x3ed8dc7c	0.42355716
219	0x3c7023b6	0.014656952
220	0x3f0d6f71	0.5524817
221	0x3f235292	0.6379787
222	0xbe3503a8	-0.17677176
223	0x3d3d0c5f	0.046154376
224	0xbf19fd72	-0.6015235
225	0x3f77c66b	0.96787137
226	0xbedce108	-0.43140435
227	0x3ea613b3	0.32436904
228	0x3e9b8bbd	0.3038005
229	0x3edee516	0.43534154
230	0x3e329dd1	0.17443015
231	0x3f47d07c	0.78052497
232	0x3eb3f2d2	0.35146195
233	0x3dbf465e	0.09339593
234	0xbf352198	-0.70754385
235	0x3ee22d4a	0.44175178
236	0xbe44925c	-0.19196457
237	0x3ef15294	0.47133315
238	0x3f095858	0.53650427
239	0x3d299fd4	0.04141219
240	0x3cb32391	0.021867545
241	0xbe1e3210	-0.15448785
242	0x3e53aa1b	0.20670359
243	0x3f49f852	0.7889453
244	0x3f4def52	0.804433
245	0x3f4e069a	0.80478823
246	0x3e127310	0.14301705
247	0x3f1803eb	0.5938098
248	0x3f241a09	0.64102226
249	0xbfd18229	-1.6367847
250	0x3f0fd4f2	0.56184304
251	0x3ee97cc1	0.45602992
252	0x3e152115	0.14563401
253	0xbf2bd263	-0.671179
254	0x3cc15c37	0.023603542
255	0xbe270bdc	-0.16313118

fc2.bias f4 [64]
0	0x3f301df8	0.6879573
1	0x3df047b7	0.117324285
2	0xbe7337cc	-0.23751754
3	0xbe036ec5	-0.12835224
4	0x3e4868a8	0.19571173
5	0x3ade5727	0.0016963229
6	0xbda7a0ca	-0.08184965
7	0x3eaec1c1	0.34132197
8	0x3f55b1b6	0.8347429
9	0x3f382c95	0.71943027
10	0xbde80f40	-0.11331034
11	0x3ca5420b	0.020173093
12	0x3bcb0016	0.0061950786
13	0xbdfc435d	-0.12317536
14	0x3e026744	0.12734705
15	0xbf2528ea	-0.64515555
16	0x3ee9191c	0.4552697
17	0xbc24a7e1	-0.010049791
18	0xbe0da35f	-0.13831852
19	0xbf072446	-0.52789724
20	0x3be2f22a	0.006925841
21	0x3e780053	0.24218874
22	0x3d5226d1	0.05130655
23	0xbebaf42f	-0.36514422
24	0x3e05a509	0.13051237
25	0x3d6f3aee	0.05840581
26	0x3cee4824	0.029087134
27	0x3d24d50e	0.040242247
28	0x3d7ceffb	0.0617523
29	0xbcb9b2f4	-0.02266834
30	0xbbcc8948	-0.006241951
31	0xba2405d5	-0.00062569726
32	0x3e5063a9	0.20350517
33	0xbebc2d3b	-0.36753258
34	0x3f2ceaf9	0.6754604
35	0x3de481e5	0.11157588
36	0xbcbcf57f	-0.02306628
37	0x3ddb6975	0.10713474
38	0x3de7cdfa	0.11318584
39	0x3df11061	0.11770702
40	0x3f462c2a	0.7741114
41	0x3d2470f9	0.0401468
42	0x3ed5a145	0.417246
43	0x3e86f896	0.2636153
44	0xbf2631c2	-0.64919674
45	0x3e854d30	0.26035452
46	0x3d06cc10	0.032909453
47	0x3fa2d677	1.27217
48	0x3e89a0be	0.2688045
49	0x3e07e418	0.13270605
50	0xbd82c680	-0.06385517
51	0x3b3efd1d	0.0029142566
52	0x3df2a849	0.11848504
53	0x3d8b612c	0.068056434
54	0x3d63db4a	0.055629052
55	0xbbb1a092	-0.005420753
56	0x3d765a30	0.060144603
57	0xbf435fd2	-0.76318085
58	0xbf4e5ea5	-0.80613166
59	0x3db69e09	0.089168616
60	0x3f6f85ee	0.93563735
61	0x3d871417	0.06595629
62	0x3e877f77	0.26464435
63	0xbacb86c8	-0.0015527839

fc3.weight f4 [4, 64]
0	0x404ec403	3.2307136
1	0xbee24279	-0.4419134
2	0x402b32d8	2.6749783
3	0xbf18f37b	-0.5974652
4	0xbe86bae0	-0.2631445
5	0xbd86733e	-0.065649495
6	0x3b883b52	0.004157462
7	0xbca83ddc	-0.02053731
8	0x4015fada	2.3434358
9	0x402c76e8	2.6947575
10	0xbf1a3e4c	-0.6025131
11	0xbee7fdd4	-0.45310843
12	0xbeff0699	-0.4980972
13	0x3da69540	0.08133936
14	0xbf0167e2	-0.5054914
15	0xbecd38eb	-0.40082487
16	0x4097140e	4.721198
17	0xbee491c9	-0.44642475
18	0x3e05f842	0.13082984
19	0xbf47a962	-0.7799283
20	0xbef9af95	-0.4876677
21	0xbf1e01d6	-0.6172155
22	0xbf0abfb8	-0.5419879
23	0xbf58fe29	-0.8476282
24	0xbeee6413	-0.46560726
25	0x3e461127	0.1934248
26	0xbeedb21d	-0.46424952
27	0xbf1a5124	-0.6028006
28	0x3d226d38	0.03965494
29	0xbf1f7828	-0.6229272
30	0xbf456d27	-0.7711968
31	0xbf10fe7a	-0.566383
32	0x3f8fd8d3	1.1238045
33	0x403d2a54	2.9557085
34	0x4037b780	2.870575
35	0xbf35aca8	-0.7096658
36	0xbf294180	-0.6611557
37	0xbe509644	-0.20369822
38	0xbebe0c99	-0.37118986
39	0xbf36ab19	-0.71354824
40	0x405ccfff	3.450195
41	0xbed05b76	-0.4069478
42	0x4047fa79	3.1246626
43	0xbd05a597	-0.032628622
44	0x3f479585	0.77962524
45	0xbe6db3db	-0.2321314
46	0xbed2ebef	-0.41195628
47	0x4040a1d7	3.009878
48	0xbf6cc5a0	-0.9248905
49	0xbf0b2e02	-0.5436708
50	0xbeded5b1	-0.4352241
51	0xbf36f036	-0.7146028
52	0xbe60a53d	-0.21938033
53	0xbf3892b8	-0.72098875
54	0xbee86a0f	-0.45393416
55	0xbd22d748	-0.03975609
56	0xbed61fa6	-0.4182102
57	0xbef3d904	-0.47626507
58	0xbf15344d	-0.5828293
59	0xbcf8ef3c	-0.030387513
60	0x3f41882f	0.75598425
61	0xbf2520f0	-0.64503384
62	0xbeeb17c8	-0.4591658
63	0x3f8c51d5	1.0962473
64	0x4061c011	3.5273478
65	0xbe9c0f06	-0.30480212
66	0x3ff90bc5	1.9456717
67	0xbead73e9	-0.33877495
68	0xbeb874a1	-0.3602648
69	0x3c51aa69	0.012796977
70	0x3d2fccc0	0.042919874
71	0x3e6b970b	0.23006837
72	0x40143f10	2.316349
73	0x40167d2f	2.3513906
74	0xbf20cc2a	-0.6281153
75	0xbea426e5	-0.32060924
76	0xbf0493d4	-0.5178807
77	0xbc910c11	-0.017705949
78	0xbe92cc0e	-0.28671306
79	0xbf570e84	-0.84006524
80	0x4091040d	4.5317445
81	0xbf0ebb86	-0.5575489
82	0xbd60454a	-0.05475358
83	0xbef3179b	-0.47478947
84	0xbf0faa1c	-0.5611894
85	0xbf6ae7fc	-0.9176023
86	0xbee2ef03	-0.44322976
87	0xbf905cfc	-1.1278377
88	0xbf091ea7	-0.53562397
89	0xbebfc07d	-0.37451544
90	0xbf174a2b	-0.59097546
91	0xbf12c0e7	-0.57325596
92	0xbc9167b7	-0.01774965
93	0xbf2a03a8	-0.6641183
94	0xbebf1513	-0.37320766
95	0xbec35933	-0.3815399
96	0xbe05eef8	-0.1307944
97	0x4074ed66	3.8269897
98	0x40374ddf	2.8641279
99	0xbf1f0485	-0.6211627
100	0x3c94ad1e	0.018148955
101	0xbe55222f	-0.20813821
102	0xbf0bd0c2	-0.54615414
103	0xbf593265	-0.8484252
104	0x4059a8a3	3.4009178
105	0xbeecc5cc	-0.46244657
106	0x4045a75f	3.0883405
107	0x3e97e9e0	0.2967062
108	0x3dd9cf29	0.10635216
109	0xbeddf8eb	-0.43353972
110	0xbf2358d6	-0.6380743
111	0x4033b521	2.8079302
112	0xbf82b577	-1.0211629
113	0xbf30e718	-0.6910262
114	0xbef0a8a3	-0.4700366
115	0xbf838bfb	-1.0277094
116	0xbe6e3440	-0.2326212
117	0xbedbcb7e	-0.4292869
118	0xbea7c91d	-0.32770625
119	0x3de640f6	0.11242859
120	0xbf0d1ce1	-0.5512219
121	0xbf58de95	-0.84714633
122	0xbf62282d	-0.88342553
123	0x3d22d89a	0.03975735
124	0x3f6bd3fc	0.9212034
125	0xbee138e5	-0.4398872
126	0x3f3f7bd6	0.74798334
127	0x3f93c9fe	1.1546018
128	0x40598256	3.39858
129	0xbec5ed1c	-0.38657463
130	0x402b9a97	2.6813104
131	0xbee33b36	-0.44381112
132	0xbf250b68	-0.6447053
133	0x3d75d24c	0.060015008
134	0x3d340383	0.04394866
135	0x3f4c3aba	0.7977711
136	0x4000a7c2	2.0102391
137	0x4009f2d2	2.1554456
138	0xbf06550b	-0.52473515
139	0xbf135e35	-0.57565624
140	0xbe8b1043	-0.27160844
141	0x3dbad24b	0.091221415
142	0xbf0bc567	-0.5459809
143	0xbf79c0eb	-0.97559994
144	0x409e95f1	4.9558034
145	0xbeef5e1e	-0.46751493
146	0x3d2369d0	0.039895833
147	0xbf4a179d	-0.7894228
148	0xbf00c99d	-0.5030764
149	0xbf6fb7c1	-0.9363976
150	0xbf08ded2	-0.53464997
151	0xbff2aebd	-1.8959576
152	0xbe92b5c9	-0.28654316
153	0xbf4058ea	-0.7513567
154	0xbed80d79	-0.4219778
155	0xbebcb310	-0.36855364
156	0xbce1d308	-0.027566448
157	0xbecf2ecc	-0.4046539
158	0x3c1ad86b	0.009451012
159	0xbeebbbf1	-0.46041825
160	0x3f22b01a	0.6354996
161	0x4047190d	3.110904
162	0x3fd936f4	1.6969895
163	0xbefbf05a	-0.4920681
164	0xbf0f6bdf	-0.56023973
165	0xbf349bca	-0.70550215
166	0xbeeef4ae	-0.4667105
167	0xbeecfa31	-0.4628463
168	0x40426586	3.0374465
169	0xbed5b0e5	-0.41736522
170	0x406e3349	3.7218802
171	0xbf74d578	-0.9563823
172	0xbe7d0d4a	-0.247121
173	0xbf0a182b	-0.5394313
174	0xbe933a13	-0.28755245
175	0x40475063	3.1142814
176	0x3d4bfb00	0.04979992
177	0xbecc41e9	-0.39894035
178	0xbeccfa9a	-0.40034944
179	0xbff6dd7d	-1.9286343
180	0xbf2de004	-0.67919946
181	0xbf191ddf	-0.59811205
182	0xbe8840ad	-0.26611844
183	0xbd25ef39	-0.040511344
184	0xbecd8055	-0.40136972
185	0xbf89c0bb	-1.0761942
186	0xbf877c20	-1.0584755
187	0x3dc6041a	0.09668751
188	0x3fe42e9a	1.7826722
189	0xbee63828	-0.4496472
190	0x3f18d46a	0.5969912
191	0x4006ce02	2.1063237
192	0x404b9b04	3.1813364
193	0xbf1b9d29	-0.6078668
194	0x40433780	3.0502625
195	0xbf237a24	-0.63858247
196	0xbf15210c	-0.5825355
197	0x3d847566	0.064677045
198	0xbdcbf5ca	-0.0995899
199	0xbd1e3c88	-0.038631946
200	0x401ca9c9	2.4478629
201	0x403dbca6	2.9646392
202	0xbf0681c6	-0.5254177
203	0xbf1051b0	-0.56374645
204	0xbee08a7c	-0.43855655
205	0x3d5554c9	0.05208281
206	0xbe94cece	-0.2906403
207	0xbea42041	-0.32055858
208	0x4099f365	4.8109612
209	0xbed946e6	-0.42436904
210	0x3d9a2fbe	0.07528637
211	0xbf4442cd	-0.7666443
212	0xbec36923	-0.3816615
213	0xbf406bca	-0.75164473
214	0xbeb4e42b	-0.35330328
215	0xbfd69bf5	-1.6766344
216	0xbec2dd42	-0.3805943
217	0x3f422992	0.7584468
218	0xbee49827	-0.44647333
219	0xbef27c85	-0.47360626
220	0x3dc96562	0.0983379
221	0xbed2d3d1	-0.41177228
222	0xbf2db255	-0.6785024
223	0xbef43e3f	-0.4770374
224	0x3f84b4e3	1.0367702
225	0x4018b939	2.386305
226	0x402c943c	2.6965475
227	0xbe8bf3b3	-0.27334365
228	0xbead0f54	-0.33800757
229	0xbf03a445	-0.5142253
230	0xbf113763	-0.5672514
231	0xbe3e71aa	-0.18598047
232	0x405ab86b	3.417506
233	0xbef9a19f	-0.4875612
234	0x404e9c64	3.2282953
235	0xbf3a11b2	-0.7268325
236	0x3f960d0c	1.1722732
237	0xbf04e0e8	-0.5190568
238	0xbf047908	-0.5174718
239	0x404db4cb	3.2141597
240	0xbebd081a	-0.36920244
241	0xbece90a4	-0.40344727
242	0xbf0eae15	-0.5573438
243	0xbf5b8091	-0.8574305
244	0xbf02a653	-0.5103504
245	0xbeab8da1	-0.33506492
246	0xbf0ffdce	-0.5624665
247	0xbdc3d702	-0.09562494
248	0xbf0357f1	-0.5130606
249	0xbeffde56	-0.49974316
250	0xbec94d05	-0.39316574
251	0xbda7a263	-0.0818527
252	0x3f2351ea	0.63796866
253	0xbf047259	-0.5173698
254	0xbf9e84c9	-1.2384273
255	0x3f8aecea	1.085355

fc3.bias f4 [4]
0	0x3ef8032f	0.4843993
1	0x3f12421c	0.57132125
2	0x3f0dc187	0.55373424
3	0x3eab4ef7	0.33458683
