model/DQN/checkpoint_best_version_2.pth (torch, 22680 bytes, 6 tensors)

fc1.weight f4 [64, 8]
0	0xbe53f4fa	-0.2069892
1	0x3f608c89	0.8771444
2	0xbe9119c5	-0.28339973
3	0x3f0cf0dd	0.5505503
4	0x3ee8f438	0.45498824
5	0xbe020c26	-0.12699947
6	0xbf24a590	-0.6431513
7	0x3e7bdf8a	0.24596992
8	0x400af545	2.17122
9	0x3ea60818	0.3242805
10	0x3f1af8d2	0.6053592
11	0xbf0f42fe	-0.55961597
12	0xbf41197e	-0.75429523
13	0x3c273e12	0.01020767
14	0x3cc28bb4	0.023748256
15	0x3b90424f	0.004402436
16	0x3eb57920	0.35443974
17	0xbe973b62	-0.29537493
18	0x3dd32620	0.10310006
19	0xbea400de	-0.32031912
20	0xbfd827d8	-1.6887159
21	0xbf37fb57	-0.7186789
22	0xbeac241b	-0.33621296
23	0x3ecd971a	0.40154344
24	0x3be99892	0.0071287835
25	0xbfd9106d	-1.6958138
26	0x3f29137b	0.6604535
27	0x3f2ad91c	0.6673753
28	0xbf3a7dfe	-0.728485
29	0xbeff158c	-0.49821126
30	0x3e023453	0.12715273
31	0xbf25c1b8	-0.64748716
32	0x3e2a886e	0.16653606
33	0xbe647d9a	-0.22313538
34	0x3c88650f	0.016649751
35	0xbe1dcacf	-0.15409397
36	0xbe9dd8cc	-0.30829465
37	0x3f1af4bb	0.6052968
38	0x3eb8c0d0	0.36084604
39	0xbf089522	-0.5335256
40	0x3f69626e	0.91165817
41	0xbf392f16	-0.7233747
42	0x3e5c2f5e	0.21502444
43	0xbfa54188	-1.2910624
44	0x3f59edbb	0.8512837
45	0xbe4401c1	-0.19141294
46	0x3c44ec26	0.012019193
47	0xbf32d57a	-0.6985699
48	0xbd784a6b	-0.060617846
49	0xbf3e0492	-0.74225724
50	0xbfb953d3	-1.4478706
51	0xbedaf34f	-0.42763755
52	0x3f60927d	0.87723523
53	0x3eb9d7eb	0.36297545
54	0x3eea4a61	0.45759872
55	0x3e84d57c	0.25944126
56	0x3f88b99b	1.0681642
57	0xbea0bf19	-0.31395796
58	0x3f750128	0.9570489
59	0xbf4a3ce4	-0.7899916
60	0xbf4a88b6	-0.79114854
61	0xbb3ea231	-0.0029088373
62	0x3e690b73	0.22758274
63	0x3ef99bd0	0.48751688
64	0x3ea89ad9	0.3293064
65	0xbe31584b	-0.17318837
66	0x3e7edb4f	0.24888347
67	0x3f48b438	0.7839999
68	0xbfd83904	-1.68924
69	0xbe8e60e9	-0.27808312
70	0x3ea98b9e	0.33114332
71	0x3da360da	0.07977457
72	0x3e840c8c	0.25790823
73	0xc02e69f2	-2.7252164
74	0xbd2b799b	-0.04186402
75	0xbf7184dd	-0.9434336
76	0xbf5f81de	-0.87307537
77	0x3f6ed15f	0.93288225
78	0x3f05a04c	0.5219772
79	0x3eb8e6d0	0.36113596
80	0x3e9d2729	0.3069394
81	0x3c5e7397	0.013577363
82	0x3f1cf7ce	0.6131562
83	0xbf2e1cbd	-0.680126
84	0x3ea8f3cb	0.329985
85	0x3ef72669	0.48271492
86	0x3e583334	0.21113282
87	0xbf80ed93	-1.0072502
88	0xbc369c90	-0.011145726
89	0x3f91411c	1.1347995
90	0xbed5974a	-0.41716987
91	0xc03177f8	-2.7729473
92	0x3e81ab25	0.25325885
93	0x3e5ac72b	0.21365039
94	0xbefe9138	-0.49720168
95	0xbd76a66c	-0.060217306
96	0x3ecdb171	0.4017444
97	0x3e8f11f6	0.2794339
98	0xbe9f8d5e	-0.31162542
99	0xbfd3af3b	-1.6537851
100	0x3cb4578f	0.022014407
101	0xbd84a9b6	-0.06477682
102	0xbb821b6f	-0.0039705555
103	0xbec26e07	-0.3797457
104	0xbfe53a6c	-1.7908454
105	0xbee277ec	-0.44232118
106	0xbf8c94dd	-1.098293
107	0xbf8a05ed	-1.0783058
108	0xbe97f01e	-0.29675382
109	0xbeac8771	-0.33697084
110	0x3d0c6855	0.034279186
111	0x3c8c7243	0.017144328
112	0xbecb8e10	-0.39756823
113	0xbd652430	-0.055942714
114	0xbee8a32b	-0.45436987
115	0x3edc3303	0.4300767
116	0xbf47abf3	-0.7799675
117	0xbf8e5bb6	-1.1121738
118	0x3c894e8f	0.016761092
119	0x3cd29bd8	0.025709078
120	0x3f4c4cd1	0.7980471
121	0x3d5e55e9	0.05428115
122	0xbe872bf1	-0.26400712
123	0xbf6359fd	-0.88809186
124	0xbd1ed1fa	-0.038774468
125	0xbeb3f02b	-0.3514417
126	0xbf47ee7d	-0.7809828
127	0xbe659490	-0.22419953
128	0x3e562fd1	0.20916678
129	0xbe57d841	-0.21078588
130	0xbf50b2ed	-0.8152302
131	0x3e6576d8	0.22408617
132	0xbfd5dca7	-1.6707963
133	0xbf29a11a	-0.66261446
134	0xbdd906c1	-0.10596991
135	0x3dd51bd9	0.10405702
136	0xbefc5496	-0.49283284
137	0xc04ce8b9	-3.2017043
138	0xbc73d6f5	-0.014882793
139	0xbf5f1a80	-0.8714981
140	0x3ebb6a74	0.36604655
141	0xbf936840	-1.151619
142	0xbf35e96c	-0.710593
143	0xbec8c9a3	-0.39216337
144	0x3f0312ac	0.51200366
145	0xbf50f6b7	-0.81626457
146	0xbfbc4b36	-1.4710453
147	0x4070718e	3.7569308
148	0x3edef70e	0.43547863
149	0x3f21402b	0.6298854
150	0xbdd2aaf3	-0.10286512
151	0x3dc436a7	0.095807366
152	0xbf1c1da2	-0.60982716
153	0x3e3085f1	0.17238595
154	0xbf185fb1	-0.59521013
155	0xbfba0654	-1.4533181
156	0xbf221c2c	-0.63324237
157	0x3ee2d2e0	0.4430151
158	0x3d963e04	0.07336047
159	0xbf1da8be	-0.61585605
160	0x3f4d7463	0.8025572
161	0x3f807daa	1.003835
162	0x3ec8e027	0.39233515
163	0xbf2a7b04	-0.66593957
164	0x3da7feae	0.08202873
165	0xbf3b4375	-0.73149806
166	0xbf2d7553	-0.6775715
167	0x3e940f0c	0.2891773
168	0xbe71567b	-0.23568146
169	0xbf4274c9	-0.7595945
170	0xbe841b9b	-0.2580231
171	0xbee765a1	-0.45194724
172	0x3f712393	0.94194907
173	0xbe821f49	-0.25414494
174	0xbf4e667c	-0.8062513
175	0xbeddffbd	-0.43359175
176	0xbf06f5ef	-0.52719015
177	0x3ead2e21	0.33824256
178	0x3e240dd2	0.16020897
179	0xbfe91ee2	-1.821255
180	0x3ea1899f	0.3155031
181	0x3eb52cca	0.35385734
182	0x3db572dc	0.08859798
183	0xbe3a8e77	-0.18218409
184	0xbeff02d3	-0.49806842
185	0xbeadba63	-0.33931264
186	0x3ff07638	1.8786077
187	0xc013eba6	-2.3112578
188	0xbf479328	-0.7795892
189	0xbe3dbaef	-0.18528341
190	0x3d16e9fe	0.036844246
191	0xbe8124db	-0.2522343
192	0x3c870489	0.016481655
193	0x3e932658	0.2874019
194	0x3e149e64	0.14513546
195	0x3f4061e3	0.75149363
196	0xbfc88045	-1.5664145
197	0xbe700353	-0.23438768
198	0xbe234896	-0.15945658
199	0x3f34b4f7	0.7058863
200	0xbf2e1541	-0.6800118
201	0x3e019e60	0.12658072
202	0xbf631797	-0.8870787
203	0x3d55ebdc	0.052226886
204	0x3e6593e6	0.224197
205	0xbf149792	-0.5804378
206	0xbf34daac	-0.70646167
207	0xbf8f5e02	-1.1200564
208	0x3eaccd5d	0.3375043
209	0x3e2646c2	0.1623793
210	0x3e3ad7e1	0.18246414
211	0x3e185e9b	0.14879839
212	0xbf66e74f	-0.901967
213	0xbf53b8cc	-0.8270385
214	0xbee78a8a	-0.45222884
215	0x3f408d92	0.7521602
216	0x3f2ea26d	0.6821659
217	0x3da597c1	0.080855854
218	0x3f987730	1.1911373
219	0xbf24710b	-0.6423499
220	0xbe7326e4	-0.23745304
221	0x3e88f9df	0.26753137
222	0xbf107ef5	-0.5644372
223	0xbf166b59	-0.5875755
224	0xbe15a95f	-0.14615391
225	0x3e59aa75	0.2125643
226	0xbebea98e	-0.37238735
227	0x3efd98de	0.4953069
228	0x3e40eebf	0.18841074
229	0xbf963d4a	-1.1737454
230	0xbf8a65c5	-1.0812308
231	0x3f88d486	1.0689857
232	0x3ec5c68d	0.38628045
233	0x3f22e255	0.63626605
234	0x3d40f529	0.047108803
235	0x3fa1d8f9	1.264434
236	0xbf7d5485	-0.9895709
237	0xbf6c0c9e	-0.9220675
238	0xbe2f92dc	-0.17145866
239	0xbf53ad19	-0.82686
240	0xbe496b35	-0.19669802
241	0xbe300aa7	-0.17191564
242	0x3e664337	0.22486578
243	0xbed441b8	-0.4145639
244	0xbf0c306e	-0.547614
245	0xbf7c52cf	-0.98563856
246	0xbfa2b4f7	-1.2711476
247	0x3db7eeeb	0.08981117
248	0xbf3bcb32	-0.73356926
249	0xbe8de3e7	-0.27712938
250	0xbe7fce93	-0.24981146
251	0xbfcb50e2	-1.5884058
252	0x3d94b539	0.07261128
253	0xbe808462	-0.25101
254	0x3dc7e9cd	0.09761391
255	0x3cb68d80	0.02228427

fc1.bias f4 [64]
0	0x3f226cae	0.6344708
1	0xbe0145f8	-0.12624347
2	0xbde0e9ce	-0.10982095
3	0xbf3d06f6	-0.73838747
4	0x3ea4317b	0.32069
5	0x3e5a3d31	0.21312405
6	0x3ecacd8a	0.3960994
7	0xbddf7216	-0.10910432
8	0xbed17a40	-0.40913582
9	0x3d2a8fe8	0.041641146
10	0x3ed104f9	0.40824106
11	0x3ebf57bd	0.37371626
12	0x3f81ca42	1.0139849
13	0xbd5d6305	-0.05404951
14	0xbed64df0	-0.41856337
15	0x3aab2e6b	0.0013060098
16	0xbe2f8a0b	-0.17142503
17	0x3eb303ca	0.34963828
18	0x3e082f92	0.13299397
19	0xbec54c2b	-0.38534674
20	0xbea4d143	-0.32190904
21	0xbef2e8dc	-0.47443283
22	0x3f54ee7e	0.8317641
23	0x3eeb2c43	0.45932207
24	0xbf1469bd	-0.57973844
25	0xbe8b36ad	-0.27190152
26	0x3e2d3b05	0.16917045
27	0x3f1f37d4	0.6219456
28	0xbefea665	-0.49736324
29	0x3efd567d	0.49480048
30	0xbea07da5	-0.3134586
31	0x3ea3824a	0.3193534
32	0x3eb99dbd	0.36253157
33	0x3edb03c4	0.4277631
34	0x3f29a533	0.662677
35	0x3eba32a9	0.36366776
36	0x3e1b625a	0.15174237
37	0xbe9a7e2a	-0.3017438
38	0xbee282b7	-0.44240353
39	0xbd912fd6	-0.07089202
40	0x3f277bb3	0.65423125
41	0x3e9d311a	0.30701524
42	0x3ef6eaf8	0.48226142
43	0xbed414ca	-0.4142211
44	0x3edd0d23	0.43174085
45	0xbe7d851e	-0.24757811
46	0x3efc53a7	0.49282572
47	0x3edf2f5d	0.43590823
48	0x3f38490f	0.7198648
49	0xbe802404	-0.25027478
50	0x3e7561cc	0.23963088
51	0xbf373562	-0.7156583
52	0xbe70cc02	-0.23515323
53	0xbe830366	-0.2558853
54	0xbd112e4e	-0.03544455
55	0x3c797cb9	0.01522749
56	0xbe5393db	-0.20661871
57	0xbe8617da	-0.26190072
58	0xbd87ff2c	-0.06640467
59	0xbefc0141	-0.49219707
60	0xbe2c2ac0	-0.16813183
61	0x3e191f51	0.14953353
62	0x3e900c9f	0.2813463
63	0xbdbab47a	-0.091164544

fc2.weight f4 [64, 64]
0	0x3f34e3c8	0.70660067
1	0xbf2afc87	-0.66791576
2	0xbfc38984	-1.5276341
3	0xbf48697a	-0.78285944
4	0xbe9d6906	-0.3074419
5	0x3f3b5737	0.73179954
6	0x3de705e3	0.1128042
7	0xbf83c018	-1.0292997
8	0xbe1493cd	-0.14509507
9	0x3eae678a	0.3406337
10	0xbf003f07	-0.5009617
11	0x3ed4e2bf	0.41579244
12	0x3f35ae2b	0.70968884
13	0xbf95f1c4	-1.1714406
14	0xbe0bc89d	-0.13650747
15	0xbfb635d3	-1.4235176
16	0x3fa6519e	1.2993658
17	0xbfd0c9af	-1.6311549
18	0xbfd756d9	-1.6823379
19	0x3f0ddaa3	0.5541174
20	0x3f9a2c03	1.2044681
21	0xbe934c44	-0.28769124
22	0x3f2657e0	0.64977837
23	0x3f158028	0.58398676
24	0xbf80f9fe	-1.0076292
25	0xbf4e87fc	-0.80676246
26	0xbf958e81	-1.1684114
27	0xbf0a8415	-0.5410779
28	0xbf0f3e26	-0.55954206
29	0xbfb03555	-1.3766276
30	0xc073b5d2	-3.8079724
31	0x3f2a48b8	0.6651721
32	0xbda36d37	-0.079798155
33	0x3f86dc20	1.0535927
34	0xbbbe7eee	-0.005813471
35	0x3f1fc64b	0.62411946
36	0xbe8cff96	-0.27538747
37	0xbf07f42a	-0.5310694
38	0x3e78dde1	0.2430339
39	0xbf05f542	-0.5232736
40	0xbfeb8998	-1.8401365
41	0x3f9540c0	1.1660385
42	0x3f252c69	0.6452089
43	0xbf21749d	-0.6306856
44	0x3f11dc4b	0.56976765
45	0xbe897c17	-0.26852486
46	0xbf8bcc29	-1.092168
47	0x3ecb95e4	0.39762795
48	0x3f2029ca	0.62563765
49	0x3fddf715	1.7341028
50	0xc0240ca7	-2.5632722
51	0xbf8efcfa	-1.1170952
52	0xbf844f69	-1.0336734
53	0xbf951ba7	-1.1649064
54	0xbf4a9929	-0.79139954
55	0x3e2e1824	0.17001396
56	0xbfad46f0	-1.3537273
57	0x3fb1b93b	1.3884653
58	0xbdfa97f2	-0.122360125
59	0xbfa6019d	-1.2969242
60	0xbdd70f85	-0.10501007
61	0xbe825e2e	-0.25462478
62	0x3ede5ff1	0.43432572
63	0xbf6d01a2	-0.92580616
64	0xbf86e56d	-1.0538765
65	0x3f89f018	1.0776396
66	0x3f925fa0	1.1435432
67	0x3f6baad4	0.9205754
68	0x3cf819de	0.030285772
69	0xbff00140	-1.8750381
70	0x3e06d953	0.1316884
71	0x3eeb72ab	0.45985922
72	0x3ef89bcd	0.48556367
73	0x3d2a0999	0.04151306
74	0x3d31e7ea	0.04343406
75	0x3e87e694	0.26543105
76	0x3e55e86d	0.20889445
77	0x3f60dd04	0.87837243
78	0x3f3167e9	0.6929918
79	0x3e5fedb0	0.21868014
80	0xbfd0debc	-1.6317973
81	0xbef979fa	-0.48725873
82	0xbda5b88e	-0.08091842
83	0xbfaceab8	-1.350913
84	0xbf5174b9	-0.8181873
85	0x3eec1bdd	0.46115008
86	0xbd71c50f	-0.05902582
87	0x3d73b8e0	0.059502482
88	0x3f977ffb	1.1835932
89	0x3dfbf6aa	0.12302907
90	0x3f1d8829	0.6153589
91	0x3cef3db8	0.029204234
92	0x3f45c8e5	0.77259666
93	0x3ee43164	0.44568932
94	0x3f03f2ce	0.51542366
95	0xbdb4deb3	-0.08831539
96	0xbd9a136b	-0.07523235
97	0xbe4df5da	-0.20113316
98	0x3e3e34c0	0.1857481
99	0xbf3a7346	-0.72832143
100	0x3f1fd475	0.6243356
101	0x3f6be9aa	0.9215342
102	0x3e69306a	0.22772375
103	0x3e20932d	0.15681143
104	0xbe9a7e16	-0.3017432
105	0xbf4c02ab	-0.7969157
106	0xbf130f7f	-0.5744552
107	0x3f3d76cd	0.740094
108	0xbd72193d	-0.0591061
109	0x3ec5e90b	0.3865436
110	0xbeaf4994	-0.34235823
111	0x3d8da1d9	0.069156356
112	0xbe45e002	-0.19323733
113	0xbf502d9f	-0.8131961
114	0xbe888cae	-0.2666983
115	0x3f5ee8d6	0.8707403
116	0x3f6d7e77	0.92771095
117	0x3f73065a	0.94931567
118	0x3f1d92d1	0.6155215
119	0xbd1aeca8	-0.03782335
120	0x3f25f7ab	0.64831036
121	0xc00a4bc5	-2.1608746
122	0x3eca1cde	0.3947515
123	0x3fb2b52b	1.3961538
124	0x3edc7e45	0.43065086
125	0x3ed928ea	0.42414027
126	0x3e023aaf	0.12717699
127	0x3f4bfac5	0.7967952
128	0x3f6ba84f	0.92053694
129	0xbeb8e192	-0.36109596
130	0xbfcbba41	-1.5916215
131	0x3c026e84	0.007960919
132	0xbee59221	-0.4483805
133	0x3f872c91	1.0560476
134	0xbe117f34	-0.1420868
135	0xbfc59355	-1.5435587
136	0xc01713db	-2.360587
137	0xbf0b0845	-0.54309493
138	0x3da3cc87	0.07997995
139	0x3eddaf6a	0.43297893
140	0x3f25ed39	0.648151
141	0xc039352e	-2.8938708
142	0x3f10d497	0.56574386
143	0xbfe6fb9e	-1.8045537
144	0xbf3e43da	-0.74322283
145	0xbf3835cd	-0.71957093
146	0x3f933d8c	1.1503158
147	0x3eb49f62	0.3527785
148	0x3f81a223	1.0127605
149	0xbfcd6536	-1.6046512
150	0x3f1eb434	0.6199372
151	0x3ef01a6e	0.46895164
152	0x3e396d21	0.18108036
153	0xbf82ba7e	-1.0213163
154	0xc028a969	-2.63534
155	0x3ec580d6	0.38574857
156	0xc03a0723	-2.9066856
157	0x3ecaa1d8	0.39576602
158	0xc042dc88	-3.0447102
159	0x3f36ddf9	0.71432453
160	0xbf5c368d	-0.8602074
161	0x3f33e992	0.70278275
162	0x3f014df4	0.5050957
163	0xbda464bb	-0.08027025
164	0xbeac2ef0	-0.3362956
165	0xbe012f52	-0.12615708
166	0x3e12196e	0.14267513
167	0x3d976a40	0.073933125
168	0xc001880a	-2.0239282
169	0x3f810140	1.0078506
170	0x3f2358c8	0.63807344
171	0xbe1025d4	-0.1407693
172	0x3e347fb9	0.17626847
173	0x3eb65271	0.35609773
174	0x3f78f5c7	0.97250026
175	0x3e2e3bdf	0.17015027
176	0x3ecbca80	0.39802933
177	0x4002792c	2.0386457
178	0xbfce6107	-1.612336
179	0xbf9bede8	-1.2181978
180	0xbf2db8b8	-0.67859983
181	0xbecdec4e	-0.4021935
182	0xbf52234f	-0.82085127
183	0x3ccc9ca8	0.024977043
184	0xc01ec7e4	-2.4809504
185	0x3fbfb427	1.4976853
186	0xbe90eae6	-0.28304213
187	0x3f26839a	0.6504456
188	0xc028c1f0	-2.636837
189	0x3f04a8ad	0.5181988
190	0xbe80075f	-0.25005624
191	0xbf54faf4	-0.83195424
192	0xbf4a5714	-0.7903912
193	0x3f3d0667	0.73837894
194	0x3f8f0206	1.1172493
195	0x3f235559	0.63802105
196	0x3eb9dce8	0.3630135
197	0xbfd45a91	-1.6590139
198	0x3df95dde	0.12176107
199	0x3ea09347	0.31362364
200	0x3ec3d9e1	0.38252166
201	0xbdacf32e	-0.0844482
202	0x3d9e25a7	0.07722025
203	0x3ed46085	0.4147989
204	0x3e39b8df	0.18136929
205	0x3f668b71	0.9005652
206	0x3f51b815	0.8192151
207	0x3ddfeb6a	0.109335735
208	0xbf995366	-1.1978576
209	0xbd32778c	-0.04357104
210	0x3f9bc749	1.2170192
211	0xbf8ccac3	-1.0999378
212	0xbfbd6f40	-1.4799576
213	0x3f7e2d78	0.9928813
214	0x3d8a7215	0.06760041
215	0xbd7311f1	-0.059343282
216	0x3fbd142f	1.4771785
217	0x3f9ddfd8	1.2333937
218	0x3f1705d6	0.5899328
219	0x3ceacf8d	0.028663421
220	0x3ea96907	0.33087942
221	0x3f69e721	0.913683
222	0x3ed9f593	0.4257017
223	0xbd2041d7	-0.03912529
224	0xbebf712a	-0.37391025
225	0xbe7413b3	-0.2383564
226	0x3de86a68	0.113484204
227	0xbf16beb8	-0.58884764
228	0x3ee377ff	0.44427487
229	0x3f61342e	0.87970245
230	0xbbb0c19e	-0.0053941747
231	0x3eb057cb	0.3444198
232	0x3e9e33f5	0.30899015
233	0xbf54f041	-0.831791
234	0xbeb4dc9a	-0.35324556
235	0x3f4fc2e1	0.81156737
236	0x3da00bc0	0.07814741
237	0x3e910c87	0.2832987
238	0xbd535931	-0.05159873
239	0xbdae23c5	-0.08502916
240	0x3dfc68c9	0.12324674
241	0xbf7dca4a	-0.99136794
242	0x3f56b72b	0.8387324
243	0x3f811d0c	1.0086989
244	0x3f864951	1.0491124
245	0x3f073b2a	0.5282465
246	0x3f80e00b	1.0068372
247	0xbd4be500	-0.04977894
248	0x3f2c1488	0.6721883
249	0xbfca77cb	-1.5817808
250	0x3f01506b	0.50513333
251	0x3f597c0d	0.8495491
252	0x3dee1fec	0.11627182
253	0x3e9f0199	0.31055906
254	0x3e33327a	0.17499724
255	0x3f4f808e	0.81055534

fc2.bias f4 [64]
0	0x3f0f1c20	0.5590229
1	0xbe1c64a2	-0.15272763
2	0x3f4a7cd1	0.79096705
3	0xbdd90d67	-0.105982594
4	0x3e102b7e	0.14079091
5	0x3ad09245	0.0015912732
6	0x3b12ab9c	0.002238012
7	0x3e8e14da	0.27750283
8	0xbdcdccae	-0.10048805
9	0x3ede421d	0.43409815
10	0xbe87e284	-0.26540005
11	0xbdb3a2ee	-0.08771311
12	0xbede3eb3	-0.4340721
13	0xbe0c5ca1	-0.1370721
14	0xbed0be35	-0.40770116
15	0x3efa5540	0.48893166
16	0x3e2f4c60	0.17118979
17	0xbea4c47e	-0.32181162
18	0x3f087468	0.5330262
19	0xbf03f968	-0.5155244
20	0xbec187e8	-0.37799
21	0x3ca2b31c	0.019860797
22	0xbe01b738	-0.12667549
23	0xbdc1f865	-0.094712056
24	0xbd6f9146	-0.058488153
25	0x3eebb279	0.460346
26	0xbdf264fd	-0.11835668
27	0xbcab828f	-0.020936279
28	0x3ee41a48	0.445513
29	0x3da5df1e	0.08099197
30	0x3d68d2f7	0.056841817
31	0xbe8e199a	-0.27753907
32	0x3f4fa865	0.81116325
33	0x3f4d22d9	0.801313
34	0x3ece6783	0.40313348
35	0xbeb9849f	-0.36233994
36	0x3d6dda65	0.058069605
37	0x3d70f9db	0.05883203
38	0xbe2c39eb	-0.16818969
39	0x3ddc1b49	0.10747392
40	0x3f263bc5	0.6493495
41	0xbf2db1e6	-0.67849576
42	0xbe0dcb4b	-0.13847081
43	0x3e90c447	0.28274748
44	0x3f95d128	1.1704454
45	0x3d64e416	0.055881582
46	0xbe84c1f0	-0.25929213
47	0x3f4657de	0.77477825
48	0x3e8560af	0.26050326
49	0xbea4d6c6	-0.3219511
50	0xbf28598c	-0.6576164
51	0x3f318b6e	0.6935338
52	0xbd6c8203	-0.057741176
53	0xbe971335	-0.2950684
54	0xbe693346	-0.22773466
55	0xbca5b472	-0.020227645
56	0xbece43c4	-0.40286076
57	0xbed67b7c	-0.41891086
58	0xbda5889e	-0.08082698
59	0x3d709d55	0.058743794
60	0xbc98f578	-0.018671736
61	0xbdbce998	-0.09224242
62	0xbe2b73ef	-0.16743444
63	0x3ec57261	0.38563827

fc3.weight f4 [4, 64]
0	0x400a5961	2.1617053
1	0xbf08a291	-0.53373057
2	0x4016ff91	2.3593485
3	0xbf41f414	-0.7576306
4	0xbea67a1c	-0.32515037
5	0xbd86b92f	-0.0657829
6	0x3f9beee5	1.218228
7	0x3dd86794	0.10566631
8	0xbd86bcad	-0.06578956
9	0xc005a646	-2.0882735
10	0xbf128ed1	-0.5724917
11	0xbef52b61	-0.47884658
12	0xbf35a95a	-0.70961535
13	0xbfb031c8	-1.3765192
14	0xbef34a74	-0.4751774
15	0x3fb7f8f7	1.4372853
16	0x3ebd9354	0.37026465
17	0xbfa7b968	-1.3103456
18	0x4014a88b	2.322787
19	0xbf5c3739	-0.86021763
20	0xbf1f69a3	-0.62270564
21	0xbf77d387	-0.9680714
22	0xbf960ca9	-1.1722614
23	0x3e111c0c	0.14170855
24	0xbf7dfcd9	-0.9921394
25	0xbef23ba4	-0.47311127
26	0xbf16eb73	-0.58953017
27	0xbf7a81f1	-0.97854525
28	0x405704b6	3.3596625
29	0xbfae06e7	-1.3595856
30	0xbf517a8a	-0.81827605
31	0xbed45fc1	-0.41479304
32	0x3fc1491d	1.5100437
33	0x3fc16def	1.5111674
34	0x3f529fab	0.82274884
35	0xbf9c3de7	-1.2206391
36	0xbf525b88	-0.82170916
37	0x3e84c2cf	0.25929877
38	0xbecaf21e	-0.39637846
39	0xbf84b23d	-1.0366894
40	0x3fa1b367	1.2632874
41	0xbdd081b1	-0.10180987
42	0xbd520791	-0.051276747
43	0x3fbb2c18	1.4622831
44	0x40052c8a	2.0808434
45	0xbf81cbc7	-1.0140313
46	0xbef56143	-0.47925767
47	0x401d1e14	2.4549608
48	0xbfa6b928	-1.3025255
49	0x3e9ed839	0.3102434
50	0xbee89fec	-0.4543451
51	0x3fa3a28d	1.2783982
52	0xbe560a75	-0.20902427
53	0xbf8a8fca	-1.0825131
54	0xbf024202	-0.5088197
55	0x3bebe29f	0.007198646
56	0xbdc510b2	-0.09622325
57	0xbf755130	-0.9582701
58	0xbfc0304b	-1.5014738
59	0x3fb6866f	1.4259776
60	0xbd2d8914	-0.042367056
61	0xbf40a751	-0.75255305
62	0xc08dbbb7	-4.4291644
63	0x400856d3	2.1302993
64	0x3fd40cbf	1.656639
65	0xbf29134a	-0.6604506
66	0x40048189	2.0704062
67	0xbef38e2c	-0.47569406
68	0xbeef4a0d	-0.46736184
69	0x3c642f0c	0.0139272325
70	0x3fb194cf	1.3873538
71	0xbe29eb2c	-0.16593617
72	0xbce84d0b	-0.02835705
73	0x3f2ba3e7	0.6704697
74	0xbf2eeb62	-0.68327916
75	0xbee6f9ef	-0.4511256
76	0xbf318a2c	-0.6935146
77	0xbfe84a99	-1.8147765
78	0xbf792a66	-0.9733032
79	0x3f8c7c95	1.097552
80	0x3fd8af1a	1.6928437
81	0xbf419875	-0.75623256
82	0x400a2257	2.158346
83	0xbf4259a2	-0.7591802
84	0xbf304370	-0.688529
85	0xbf5a7b0d	-0.8534401
86	0xbeb3b384	-0.35097897
87	0x3ebeecf2	0.3729015
88	0xbf4fe8f0	-0.8121481
89	0xbf750b5b	-0.9572045
90	0xbf342e54	-0.7038319
91	0xbfb33235	-1.3999697
92	0x403163f7	2.7717264
93	0xbf6c2635	-0.922458
94	0xbf40f028	-0.7536645
95	0xbef5cb56	-0.48006696
96	0x3f814b9c	1.0101199
97	0x400bdcf9	2.185362
98	0x3fd8983f	1.6921462
99	0xbf74175c	-0.95348144
100	0xbe8979a8	-0.2685063
101	0xbf0feb1e	-0.56218135
102	0xbf648aaf	-0.89274114
103	0xbfdbb29d	-1.7163883
104	0x3fe98ce4	1.8246121
105	0xbee80e7a	-0.45323545
106	0x3df4ce62	0.11953427
107	0x3f73c012	0.9521495
108	0x3fffdedd	1.9989887
109	0xbf13d022	-0.5773946
110	0xbf53b29c	-0.8269441
111	0x402640d7	2.5977075
112	0xbfb3fae0	-1.4060936
113	0xbf44d279	-0.76883656
114	0xbefb2467	-0.4905121
115	0x3ee37507	0.44425222
116	0xbf0e00a3	-0.5546972
117	0xbf77a10b	-0.9673011
118	0x3e8fa903	0.28058633
119	0x3dda30fb	0.106538735
120	0xbf882d6e	-1.0638864
121	0xbfb29451	-1.3951513
122	0xbfdc5b96	-1.721545
123	0x3f3fc41a	0.749086
124	0xbcaa30ae	-0.020775165
125	0xbf69ed7d	-0.91378003
126	0xbfec4533	-1.8458618
127	0x3fd9cee7	1.7016267
128	0x400f5a2b	2.2398784
129	0xbf6481aa	-0.8926035
130	0x400d642c	2.209239
131	0xbf4388ab	-0.76380414
132	0xbf8243e0	-1.0176964
133	0x3d78fe9f	0.0607897
134	0x400c3666	2.1908202
135	0x3f144290	0.57914066
136	0xbc27e695	-0.010247846
137	0x3d857fb4	0.06518498
138	0xbf5c346b	-0.86017483
139	0xbf29b61a	-0.6629349
140	0xbf596990	-0.849267
141	0x3f02e9bf	0.5113792
142	0xbf6397be	-0.88903415
143	0x3f145dc5	0.5795558
144	0x3eca03ed	0.3945612
145	0xbf22ce2a	-0.6359583
146	0x4006347b	2.0969532
147	0xbf352424	-0.7075827
148	0xbf96ade8	-1.1771822
149	0xbf785340	-0.9700203
150	0xbf654bdd	-0.89568883
151	0x3fb37582	1.4020236
152	0xbf7bc598	-0.9834838
153	0xbffe2049	-1.9853603
154	0xbf395898	-0.7240081
155	0xbf45b6ea	-0.7723223
156	0x3f976b89	1.1829692
157	0xbf84f000	-1.0385742
158	0xbf398b37	-0.7247805
159	0xbf85f0e1	-1.0464135
160	0x3f4495f7	0.7679133
161	0x3fe49245	1.7857138
162	0x3ffdec36	1.9837711
163	0xbf699ef3	-0.9125816
164	0xbf9dc2fb	-1.2325128
165	0xbfc75810	-1.557375
166	0xbf0ef241	-0.558384
167	0xbf36b476	-0.7136911
168	0x4001590c	2.02106
169	0xbfc04366	-1.5020568
170	0x3dce4be4	0.10073069
171	0xbeddfb6d	-0.43355885
172	0x40025e7a	2.0370164
173	0xbfc42020	-1.5322304
174	0xbf1cff69	-0.61327225
175	0x40199894	2.3999376
176	0xbf40c55c	-0.75301147
177	0xbf8e63b4	-1.1124177
178	0xbf43ae36	-0.764377
179	0x3dffc6a5	0.1248906
180	0xbf2be515	-0.67146426
181	0xbf477bfa	-0.7792355
182	0xbf1e4a34	-0.61831975
183	0x3d9fe770	0.07807815
184	0xbf3b2dfb	-0.73117036
185	0xbf93caa4	-1.1546216
186	0xbf969bad	-1.1766258
187	0x4041b9a9	3.0269568
188	0x3cbc4338	0.022981271
189	0xbf59fbff	-0.8515014
190	0x3e3f9174	0.1870783
191	0x3fc071a8	1.5034685
192	0x40193904	2.394105
193	0xbf60edfd	-0.8786314
194	0x4026cd2f	2.6062734
195	0xbf309189	-0.6897207
196	0xbf4f6598	-0.81014395
197	0x3d84241f	0.06452202
198	0x3fb125db	1.3839678
199	0x3e7d4046	0.2473155
200	0x3d6f2c0a	0.05839161
201	0xbf6d453e	-0.9268378
202	0xbeeea54d	-0.4661049
203	0xbf580c01	-0.84393317
204	0xbf77c6f2	-0.9678794
205	0xbfb85287	-1.4400185
206	0xbf59e526	-0.8511528
207	0x3f8b7695	1.0895563
208	0x3f4f7e27	0.8105187
209	0xbf793bd3	-0.9735691
210	0x4014832c	2.320506
211	0xbfa02438	-1.2511053
212	0xbf1a8ade	-0.60368145
213	0xbeb05e3f	-0.34446904
214	0xbf48ca6a	-0.7843386
215	0x3f04eccc	0.51923823
216	0xbf9c7d35	-1.222571
217	0xbe93bf54	-0.2885691
218	0xbf250ce2	-0.6447278
219	0xbf046e6e	-0.51731
220	0x405ed6b5	3.4818547
221	0xbfcff5ba	-1.6246865
222	0xbf3e864f	-0.7442369
223	0xbf232be6	-0.6373886
224	0x3f5ed149	0.87038094
225	0x3f88020c	1.0625625
226	0x3f65c717	0.8975691
227	0xbeff4c99	-0.49863127
228	0xbf8fbdc4	-1.1229787
229	0xc01f6b70	-2.4909325
230	0xbf4267a2	-0.7593938
231	0xbf808362	-1.0040095
232	0x3fb23e10	1.392519
233	0xbdbb2ebd	-0.09139774
234	0xbdbc05a2	-0.09180762
235	0x3fda3fae	1.7050683
236	0x3ff30e08	1.8988657
237	0xbfe67829	-1.800542
238	0xbf02d99a	-0.51113284
239	0x401abaae	2.417644
240	0xbebc5698	-0.36784816
241	0xbf484b90	-0.782403
242	0xbef6a77e	-0.4817466
243	0x3fe6caee	1.8030679
244	0xbf885592	-1.0651114
245	0xbf5f88b7	-0.87317985
246	0xbfd3f644	-1.6559529
247	0xbdd6f14c	-0.104952425
248	0xbf9acf98	-1.2094603
249	0xbfa2f589	-1.2731181
250	0xbfa3462c	-1.275579
251	0x3fe4f498	1.7887144
252	0x3dc5e594	0.09662929
253	0xbf0d14d3	-0.551099
254	0xc0145a6e	-2.3180194
255	0x400eb522	2.2298055

fc3.bias f4 [4]
0	0x3eb7fa02	0.35932928
1	0x3e7c124e	0.24616358
2	0x3f3fe363	0.7495634
3	0x3ebe6a1e	0.37190336
