model/PPO/Version2/best_actor.pth (torch, 279270 bytes, 6 tensors)

net.0.weight f4 [256, 8]
000000 f3 b8 3e be 37 25 09 bf 5b 8c ed 3e fb 7e 38 3f
       -0.1862524 -0.5357241 0.46396145 0.72068757
000010 8c 86 90 bd 48 44 7e bc b4 f3 2a 3e e3 73 af 3d
       -0.07056913 -0.015519209 0.16694528 0.085670255
000020 dc 5d 82 3e eb 3a 31 3e 01 8f fd be 73 26 88 bd
       0.25462234 0.17307632 -0.49523166 -0.066479586
000030 d7 60 d7 3e 1b 81 a0 3e 50 bb 92 3d ac d8 ee bd
       0.4206607 0.313485 0.07164633 -0.11662421
000040 05 68 90 3e 14 4b 6c 3e c6 2b 62 be 63 e1 f7 3e
       0.2820436 0.23075515 -0.2208701 0.48414144
000050 30 c7 14 3f bc 0e b6 3e 94 92 b9 3e 5b 2f 23 be
       0.58116436 0.35558116 0.36244643 -0.15936033
000060 6a c8 ce be 62 3c 5c 3e f3 d5 57 3e 46 68 12 be
       -0.4038728 0.21507409 0.21077709 -0.1429759
000070 71 e1 55 bf 52 f0 a5 3e 82 c3 55 bd ff 13 3f be
       -0.8354712 0.32409912 -0.052188404 -0.18659972
000080 63 5d c4 be 2d 75 24 be ea 21 22 3d 2d 7c a9 be
       -0.38352498 -0.16060324 0.039583124 -0.3310255
000090 85 0f 45 bf b1 82 d3 3e f1 c8 71 be 15 d3 6c be
       -0.76976806 0.41310647 -0.2361181 -0.23127396
0000a0 ab e7 f6 3d 85 73 25 3d 72 fb 09 3f 0b 0e f7 3e
       0.12055906 0.04039337 0.538993 0.482529
0000b0 25 b9 10 bf d7 f3 b8 bd a4 5a a4 3e db c2 9c be
       -0.5653251 -0.09030884 0.32100403 -0.30617413
0000c0 a8 ae 48 3e 46 a4 51 3e 98 2d da be c7 fe 65 bd
       0.19597876 0.20472822 -0.4261291 -0.056151178
0000d0 51 79 68 3e 3d 4f 76 be 8e a2 b2 bd fc 5c 84 be
       0.22702529 -0.24053665 -0.08722411 -0.2585219
0000e0 30 f0 2c be d8 0c 9b be f9 8f 80 3e 76 03 1b bf
       -0.168885 -0.30283237 0.25109842 -0.60552156
0000f0 f4 33 1c be 3c 82 43 be 61 9e 76 3d ba 85 cb 3d
       -0.15254194 -0.19092649 0.060209636 0.09937616
000100 f2 e4 49 3e f4 d6 2f bd d7 34 a8 3d 18 69 15 bf
       0.19716242 -0.042929605 0.082132034 -0.58363485
000110 42 df 31 bd 60 2a b3 3e a9 c9 ac bd 21 4d 86 3e
       -0.043425806 0.34993267 -0.08436901 0.2623072
000120 1a c0 7d 3d 0b 43 28 3e f7 a0 93 3e ba 43 8f be
       0.06195078 0.16431825 0.28833744 -0.2798136
000130 99 d9 2b 3d e6 53 a2 3e 5b 71 63 3e d6 2e d2 bd
       0.041955564 0.31704634 0.2221121 -0.102628395
000140 c9 07 a3 bd f4 a4 b9 3e 52 59 49 3e d6 ea 16 3f
       -0.07960469 0.36258662 0.19662979 0.5895208
000150 a3 3c 39 3e fd de 89 be 4b 93 8b 3e f2 84 da bd
       0.18089537 -0.2692794 0.27260813 -0.106698886
000160 c5 7b 6d be f4 fd d9 3e c4 da 51 3e 2f 95 00 3e
       -0.23191746 0.42576563 0.20493609 0.12556909
000170 9b db 24 3f c2 88 a1 3e 0d 30 33 3c ef b9 e0 be
       0.6439759 0.3154965 0.010936749 -0.43891856
000180 55 33 09 be 36 c4 4a 3e c6 e4 fe 3e 7a dc a1 bd
       -0.13398488 0.19801411 0.49783915 -0.07903381
000190 da e0 1f bf 9a 7c b0 be c0 0e 70 3d 04 5b d6 3d
       -0.6245247 -0.34470063 0.058607817 0.104665786
0001a0 27 be aa 3b 3e 9b 7f be 20 01 28 3f db 63 4d bd
       0.005210656 -0.24961564 0.65626717 -0.050144058
0001b0 dc 64 d1 3d 89 3c 97 3e 6d 0e 79 bd 50 99 b7 3e
       0.102243155 0.29538372 -0.060804773 0.35859156
0001c0 1b cd 34 be c4 9f 72 3e 0f ae 26 3e 48 ec 9f 3e
       -0.17656367 0.23693758 0.16277336 0.31234956
0001d0 55 b7 3a bf 02 67 19 bf 40 f0 66 be ac 43 7b be
       -0.7293599 -0.599228 -0.22552586 -0.24537534
0001e0 05 c3 9e 3d 09 95 c3 3d 83 52 85 be 49 0b 00 3f
       0.07752041 0.095499106 -0.26039514 0.5001722
0001f0 15 94 16 3f bb 9a a4 be 2d b1 9e be c8 c2 56 3e
       0.58819705 -0.321493 -0.3099455 0.2097274
000200 36 01 a1 3e 70 b1 7f 3d fd d7 1e bf 51 d2 11 be
       0.31446236 0.062425077 -0.6204832 -0.14240386
000210 76 c1 2e 3f 88 c9 ea 3e 12 a8 7f 3e b7 26 87 be
       0.6826395 0.4585688 0.24966457 -0.26396725
000220 37 f0 9b be 3f 7b 6a bc 09 00 25 bf 48 ff 79 be
       -0.30456707 -0.014311611 -0.6445318 -0.24413788
000230 b9 8c 8a 3e fb 1d 05 3f 30 8d 9d bd 63 e8 f1 3d
       0.27060488 0.5199887 -0.07692945 0.118119024
000240 f8 61 ac 3c d0 14 87 b9 65 58 8f bd eb 6e b4 be
       0.021042809 -0.00025764713 -0.06999282 -0.35240874
000250 43 1f 19 3e 6d a9 da be c8 a5 84 3c f0 25 76 3e
       0.14953332 -0.42707387 0.016192332 0.2403791
000260 19 b0 7f 3d 3d de e4 bd c3 e7 ef be a8 9c 80 3e
       0.0624238 -0.11175201 -0.46856508 0.2511952
000270 05 45 93 bd b3 de 40 3e 30 40 18 3e c2 f8 1b 3e
       -0.07190899 0.18834953 0.14868236 0.15231612
000280 fc 0c b4 3e e7 f0 90 3d ec 84 86 3d 19 0c a0 bd
       0.35166156 0.070771985 0.065683216 -0.078148074
000290 a7 0c 57 3f 1d 46 9a 3e e1 02 27 be a7 2d 0e be
       0.8400368 0.30131617 -0.16309692 -0.13884602
0002a0 66 6b 18 3e e2 fc f2 be fe 68 db 3e 85 54 a0 be
       0.14884719 -0.4745856 0.4285354 -0.31314483
0002b0 36 a0 a5 3a 00 74 c5 3e ff dc 0b 3c 39 85 b5 3e
       0.0012636248 0.38565063 0.008536576 0.35453203
0002c0 b5 0b 4a 3e 05 24 52 be 02 3c 04 bd 53 a9 ba be
       0.19731028 -0.20521553 -0.03228379 -0.3645731
0002d0 dc 6e d4 3d ef 29 02 3f 3c 07 d6 bd 11 d3 61 3e
       0.10372707 0.50845236 -0.104505986 0.22053172
0002e0 51 bb 1e 3e d9 01 7f bc 62 3c 74 bf ec 62 d3 be
       0.15501143 -0.015564405 -0.95404637 -0.4128641
0002f0 c9 d8 c5 3d 80 83 6d 3e a4 0d c2 3d 6c e5 8c 3e
       0.09660489 0.23194695 0.09475258 0.27518785
000300 51 af f1 bd 88 1c a1 3d 87 12 b2 3e 15 ee 41 3e
       -0.11801017 0.0786677 0.3477976 0.18938477
000310 1f bc 9a be 54 1d a0 be 06 f4 1a be 75 d9 96 be
       -0.3022165 -0.31272376 -0.1513215 -0.29462782
000320 b5 8e 88 3c 9d fb 79 be 60 57 22 be 1d 60 34 bf
       0.01666961 -0.24412389 -0.15853643 -0.7045916
000330 bb 61 03 bf 23 54 91 3d e0 9c 8d 3e 86 c5 f3 3d
       -0.51321 0.07096126 0.2765875 0.11902909
000340 c6 28 8a be ce 40 a2 bd 32 c5 d2 be 61 da e8 3e
       -0.26984233 -0.07922517 -0.41166073 0.4547911
000350 52 7b 08 3f 14 9b a4 be 33 2f 6b 3e 99 78 66 3e
       0.5331317 -0.32149565 0.22967224 0.22506942
000360 d0 55 88 3e ee c6 7e be 9a 17 43 bf 1f dc 43 3f
       0.2662797 -0.24880573 -0.7620789 0.76507753
000370 27 c1 c1 3d 40 0c 19 bd 28 27 19 3e f6 27 6d 3e
       0.09460669 -0.037365198 0.14956343 0.23159775
000380 52 0c 56 3e f3 fa e5 bd 36 50 e7 3e 38 53 8a be
       0.20903137 -0.112295054 0.45178384 -0.27016616
000390 d1 9a 1d 3f c3 28 d2 be 25 7b 8b be 97 78 85 3c
       0.61564356 -0.41046724 -0.2724239 0.016292853
0003a0 d9 02 9c bd 91 a4 fb 3d ae ff 05 be 8d d6 a4 be
       -0.07617731 0.12287248 -0.13085815 -0.3219494
0003b0 cd a1 11 bf 89 36 a0 3d 14 a8 ba 3d 7b 3c 94 3e
       -0.56887513 0.07822902 0.091140896 0.28952393
0003c0 91 99 13 bd 08 47 1f 3c 27 cf 5e 3e 90 4e 0b bf
       -0.036035124 0.009721525 0.2175871 -0.5441675
0003d0 9c 06 9c 3e 13 3e c2 3e 11 eb 87 3e f1 9a e0 3d
       0.30473793 0.37937984 0.2654653 0.10967053
0003e0 72 0c 4a be ca f0 b1 bd c2 c2 a2 3e ea 9c ca 3e
       -0.1973131 -0.08688505 0.31789213 0.3957284
0003f0 15 7b 0b be 24 73 68 3e 7c 81 f3 be 2d 97 3d be
       -0.13621171 0.22700173 -0.47559726 -0.185147

net.0.bias f4 [256]
000000 be c1 12 bd 7a 65 f6 3d a2 d4 c2 3e e7 0e 32 be
       -0.0358293 0.12031074 0.3805285 -0.17388497
000010 0d ed 71 bc 83 72 98 3e 73 14 e2 bd a4 0a 46 3e
       -0.01476599 0.29774866 -0.11039057 0.19339997
000020 53 ee d6 3d 22 33 47 bd 4e 82 af 3d 6f 1f 0a 3e
       0.104946755 -0.04863275 0.085697755 0.13488553
000030 14 34 22 be 73 11 85 be 4d 28 8c 3e bb a3 7b 3e
       -0.15840179 -0.25989875 0.27374497 0.24574177
000040 ff 1f 99 3e 41 42 83 3e f2 54 6a be 56 45 ab be
       0.29907224 0.25636485 -0.22883967 -0.33451337
000050 51 1c a1 bd 3f a5 a1 be 4e 7c f3 3d f6 a5 87 be
       -0.07866729 -0.31571385 0.118889436 -0.26493806
000060 e9 a2 92 be 0e cd 45 3e 9d fd 32 3e 95 f1 73 be
       -0.28639916 0.19316503 0.17479558 -0.23822625
000070 e8 db 16 be 02 32 70 be 3d a2 95 be ea 18 b0 3e
       -0.14732325 -0.23456576 -0.2922534 0.34394008
000080 df cc 3e 3e d7 1f 79 bc 29 87 2a bc d7 81 d1 3e
       0.1863284 -0.015205345 -0.010408201 0.40919372
000090 c7 94 38 be 3d a4 92 3e 06 59 81 bd 66 a9 bd be
       -0.18025504 0.2864093 -0.06315808 -0.37043303
0000a0 f3 1e 91 3e a6 23 12 3d d3 86 bc bc db 43 95 3d
       0.28343925 0.03567853 -0.023013508 0.07288333
0000b0 a7 15 83 be 9b 4b 06 3e f9 de c6 3e 06 27 5c be
       -0.25602457 0.13114779 0.3884199 -0.21499261
0000c0 64 e6 9d 3d 48 0a 73 be c0 0e d7 be 0c db 4a 3d
       0.07709959 -0.2373439 -0.4200344 0.049525306
0000d0 ba 71 fc bc 13 53 f7 3c c4 5e 6e be 86 51 a1 bd
       -0.030815948 0.03019098 -0.23278338 -0.078768775
0000e0 ef 47 81 bd 12 34 d9 bd 13 47 57 3e c5 11 72 3e
       -0.06312548 -0.10605635 0.21023206 0.23639591
0000f0 cc f5 db 3d 68 e3 9b 3d 66 fd 32 be 92 57 54 be
       0.107402414 0.07611734 -0.17479476 -0.2073653
000100 6e ea d5 3d 87 48 6a 3e d5 89 09 be ec 7e e8 3d
       0.104451045 0.2287923 -0.13431485 0.113523334
000110 54 3b 1a 3d a6 8f 8b be bc 56 14 3e ee 6f a6 ba
       0.037654236 -0.27258033 0.14486212 -0.0012698153
000120 44 84 51 3e c9 20 2a 3e 00 9f dc bd 0e 01 5a be
       0.20460612 0.16614069 -0.10772514 -0.21289465
000130 64 0d c1 bc 2e 23 7a bd 46 90 8b 3d a1 cd 58 3e
       -0.023565955 -0.061068706 0.06814627 0.21172191
000140 23 f9 44 be 52 c7 49 be 62 3d b4 3d fb d1 99 3d
       -0.19235663 -0.19704941 0.0880077 0.07510754
000150 e5 69 80 bc 08 22 a3 3d b7 ec 94 be 3e 9b 6f 3e
       -0.015675494 0.07965475 -0.2908685 0.23399064
000160 e8 b2 6f 3e 66 af 41 3e 37 70 d0 bd f2 4c 8c 3e
       0.23408091 0.18914565 -0.10177653 0.27402455
000170 f0 b1 c6 3d 84 4e 78 3e ad a1 b6 3d 4c 6f d4 3c
       0.09701908 0.24248701 0.08917556 0.025931977
000180 1d ff 36 bb ea d1 73 be 22 14 5e be 4b d1 07 be
       -0.0027923055 -0.23810545 -0.21687368 -0.13263433
000190 92 aa 5e 3e 52 87 aa 3e 35 4c ab be 33 45 84 3b
       0.21744755 0.33306366 -0.3345658 0.0040365695
0001a0 a7 02 3e be f2 a4 d6 3d 1c e1 2d 3d c0 9f e5 3d
       -0.185557 0.104806796 0.04245101 0.112121105
0001b0 c2 56 c5 bc ce 71 11 3e 66 af de bd 0a 2b e1 bc
       -0.02408922 0.1420357 -0.10873298 -0.027486343
0001c0 2b 5c 24 3e f2 de 0e 3e af de f4 bc 70 09 b6 3e
       0.16050784 0.13952234 -0.02989134 0.35554075
0001d0 12 7a 8d bc d3 5c 40 3d bc 4f 2a be 90 40 96 3e
       -0.017270122 0.046963524 -0.16631979 0.29346132
0001e0 c5 a2 05 3e 58 af 9e 3e 12 da 88 be 01 75 ee bd
       0.13050373 0.30993152 -0.26728874 -0.116434105
0001f0 9e 63 e9 3c 25 00 48 3d df 47 38 3e 46 05 7f be
       0.028489884 0.048828263 0.17996167 -0.24904355
000200 21 f8 0b 3d 08 d5 2a 3e 3c dd 81 3e 2f 11 99 3e
       0.03417218 0.16682827 0.253641 0.29895923
000210 4d 29 86 bc 85 48 65 3e 3c 32 70 3e 4c 12 3d bb
       -0.016377116 0.22390945 0.23456663 -0.0028850017
000220 60 ea 76 3e 2f fc 46 be e3 b8 f5 be d7 42 af 3e
       0.24112844 -0.19432138 -0.4799262 0.34230682
000230 c5 71 0b 3e 14 d8 13 be ad 8f 2e bd 98 74 a3 bc
       0.13617618 -0.14437896 -0.04261749 -0.019953057
000240 d0 4c 8f 3d e2 c7 3f 3e c6 a9 b2 3c 94 f5 2a 3d
       0.06997073 0.18728593 0.02180947 0.041738108
000250 9e 6b 92 3e e3 d5 45 3d 1c d4 1c be 27 52 9e 3d
       0.2859773 0.04829968 -0.15315288 0.07730513
000260 d0 9e 47 be c1 24 5b be 5c 4f 67 be 4d f5 b1 bd
       -0.19494176 -0.21400739 -0.22588867 -0.086893655
000270 91 7d 80 be 51 16 79 be c8 7d 93 be 3f 95 dd 3d
       -0.250958 -0.2432492 -0.288069 0.10819482
000280 9b 22 ad be 69 f2 27 be f4 91 14 be 0c 82 d0 3d
       -0.33815464 -0.16401066 -0.14508802 0.101810545
000290 f3 93 e1 3e d4 4c d1 3d 0f b7 7c 3e a2 84 c8 3d
       0.4405819 0.10219732 0.24679206 0.09790923
0002a0 65 43 a8 3e d4 c5 2a be c4 c5 bd be ec 95 bd be
       0.32863918 -0.16677028 -0.37064946 -0.37028444
0002b0 af 0c c3 be cd 96 21 3e 29 d1 b3 3d f8 a1 71 be
       -0.38095614 0.15780182 0.087801285 -0.23596942
0002c0 50 dd 01 bd 15 88 22 3d 85 45 85 3d d4 46 8d bc
       -0.0317052 0.03968056 0.065074004 -0.017245688
0002d0 6a fd 8a 3e ff 29 51 3c e6 e2 5f be 3c 89 8a 3e
       0.27146465 0.01276636 -0.21863899 0.27057827
0002e0 e6 98 8c bd cf 9d 3a be a4 f6 26 be 15 49 33 be
       -0.068651006 -0.18224262 -0.16305023 -0.17508347
0002f0 2b 73 8d bc 89 8b 6a 3a 8d 92 97 3e cf 1e 34 3d
       -0.01726683 0.0008947184 0.29603997 0.043974694
000300 ee 70 d4 3d 97 c3 a4 bd 0d 32 70 be 5a 09 41 bd
       0.10373102 -0.08045118 -0.23456593 -0.04712806
000310 8b 83 1a be 2d d9 46 be 0d 6b 20 be 77 d0 3f be
       -0.15089242 -0.19418783 -0.15665837 -0.18731867
000320 bd 70 49 be a5 ff 44 3e 9c d7 42 3e 3f 47 07 3e
       -0.19671912 0.19238146 0.19027561 0.13210772
000330 0d f5 51 3e 1f 00 50 bc cf 04 85 bd 5d ef 87 3e
       0.20503636 -0.012695341 -0.06495058 0.26549807
000340 60 2e 93 be 37 8a 9c bd 07 c2 0f 3e a2 04 2d 3d
       -0.2874632 -0.0764355 0.1403886 0.042240746
000350 46 99 4e 3d 31 64 00 3e d8 a2 52 bc b6 31 6c 3e
       0.05043914 0.1253822 -0.012856208 0.23065838
000360 55 10 82 3e f8 4b 5a 3e bd 28 84 3e e9 4d 8c bd
       0.25403085 0.21318042 0.2581233 -0.06850798
000370 0d bf e1 bd 17 3e 38 be 3a 5d ad 3d 97 f6 29 3d
       -0.11022768 -0.17992435 0.08465047 0.041494932
000380 84 8f f3 3d cd 52 5f be 66 88 a3 3e 79 66 92 3d
       0.11892608 -0.2180893 0.3194 0.07148451
000390 75 0c 42 3d c5 65 04 3c d5 40 c1 bd d7 83 a4 3d
       0.04737516 0.008080904 -0.09436194 0.08032959
0003a0 6d 00 c4 3e 7d 6d 47 be 4c cb c0 3e 7e f1 4c 3e
       0.38281575 -0.1947536 0.37655103 0.20013997
0003b0 c1 fb 1f 3e 55 c8 b9 be 20 a3 8f 3b 0b 7f fe bc
       0.1562338 -0.36285654 0.0043834597 -0.031066438
0003c0 75 86 39 3d fb e6 2a be 91 54 02 3d c5 24 9c 3d
       0.045294244 -0.16689675 0.03181893 0.07624201
0003d0 51 11 ca 3c 99 a7 9e 3e 4d 84 72 3c 18 29 25 3c
       0.02466646 0.30987242 0.014802051 0.010080598
0003e0 a8 9d 14 3e c9 80 93 3d e4 e4 8d 3d c4 71 69 3e
       0.14513266 0.07202298 0.06928423 0.22797304
0003f0 b5 01 40 be 0f be ff 3d 77 e1 2a be 30 68 fd 3d
       -0.18750651 0.12487423 -0.1668757 0.12373388

net.2.weight f4 [256, 256]
000000 14 f1 b9 bc d7 40 be 3d 68 fb fc 3d c2 b4 09 be
       -0.022697963 0.09289711 0.123526394 -0.1344786
000010 95 f4 10 bc 1a 91 8d bd 17 d4 dd 3d 90 8a 9b bb
       -0.008847375 -0.069124416 0.108314686 -0.0047467425
000020 50 5e d7 bc fe cf 89 3c 27 8e b2 3c 4b d4 69 3d
       -0.026290089 0.016822811 0.0217963 0.057087224
000030 09 7f 65 be 00 3d 43 bd ad e3 55 bd 5e 86 a0 3d
       -0.22411741 -0.047665596 -0.05221908 0.078381285
000040 3c 67 df 3d b1 f9 4e 3d 8a 3e fd ba 8c 1f fa bc
       0.10908362 0.050531093 -0.0019321006 -0.03053262
000050 c0 dc 2c 3d a0 95 f6 bd 15 a4 5c 3d a0 f4 ae 3d
       0.04220271 -0.120402575 0.05386742 0.08542752
000060 2a f5 f2 bd 57 46 3e bd 03 6c b3 3d d4 e8 1c 3e
       -0.118631676 -0.0464538 0.08760836 0.15323192
000070 a0 0a 4c be 93 c0 03 bd 7f 28 ab bd 50 0e 83 3e
       -0.19925928 -0.032166075 -0.083573334 0.25596857
000080 25 55 02 be bc 96 02 be 93 d4 41 be 7d 52 12 3e
       -0.12727793 -0.12752813 -0.18928747 0.1428928
000090 96 f2 1a bd f6 bd b5 bc 22 11 82 3e 72 92 da bc
       -0.037829004 -0.022185307 0.25403696 -0.026681159
0000a0 ea f1 1e be ad 0f 67 3d 89 a2 fd 3c f9 6a 12 3e
       -0.1552197 0.056411434 0.030961292 0.1429862
0000b0 78 68 28 be 5b d1 60 bd 0b cc 37 3d b3 ee 94 bd
       -0.16446102 -0.054887157 0.044872325 -0.07272091
0000c0 43 73 ae 3d 26 cf 8a bd 58 35 aa bd 90 4e 35 3d
       0.08518078 -0.06777792 -0.08310956 0.044264376
0000d0 4b 07 47 be c8 e3 94 3d d3 89 81 3d 51 ed dd 3c
       -0.19436376 0.07270008 0.06325116 0.0270907
0000e0 d4 9c 0a be f5 e0 5a 3d 47 60 dd 3c 09 2f e0 3c
       -0.13536388 0.053437192 0.027023448 0.027366178
0000f0 fb bd ec 3d 28 d0 fd 3c 9d 5f 29 3e 59 81 62 bd
       0.115596734 0.030983046 0.1654038 -0.055299137
000100 d7 f5 1f 3e 19 39 32 3e fa 45 4a bd 19 20 7c 3d
       0.15621124 0.17404594 -0.04938314 0.06155405
000110 49 d1 23 3e 35 81 c8 bd 1e 97 53 bd 5e 35 82 3d
       0.15997805 -0.09790269 -0.05165779 0.06357835
000120 56 cb 9a bd 26 8f 71 bd 1d 4f cc bd bc 0d 36 3d
       -0.075583145 -0.058974408 -0.09976027 0.044446692
000130 f1 c6 f6 3d 72 fd 6b bd 9c 0e 15 3e 0c 7d b1 3d
       0.12049664 -0.05761475 0.14556354 0.08666429
000140 7b 59 56 bd d7 a7 00 3e 4c 99 4b ba e6 57 43 be
       -0.05233143 0.12564026 -0.00077666785 -0.190765
000150 6f d8 e6 bc 68 98 02 3e 66 8f 44 3e 0e 90 2d 3d
       -0.028179375 0.12753451 0.19195327 0.04237371
000160 9b dc 5a bd 99 d2 26 3e c9 82 50 3e 37 d6 86 3e
       -0.053433042 0.16291274 0.2036239 0.26335308
000170 81 3b 32 3d c3 a1 c7 3d 29 1d 28 3d 95 de 26 3e
       0.04351378 0.097476505 0.041043434 0.16295846
000180 52 14 eb 3c 09 f6 eb bc 59 25 5c be 56 4c a8 3d
       0.028696213 -0.028803842 -0.21498622 0.08217685
000190 7a d8 a3 3d 1d 6d eb 3d 5d 98 47 3b a4 91 dd bd
       0.08000274 0.11495421 0.0030455806 -0.10818794
0001a0 60 fa ea 3c 5f ac 50 3d 44 31 90 bd 05 fe 17 bd
       0.028683841 0.050945636 -0.07040647 -0.037107486
0001b0 91 f8 87 bd 3f 78 ee bd d0 b1 03 3d 8d 79 46 b9
       -0.06639207 -0.11644029 0.032151997 -0.00018928033
0001c0 73 86 b1 3c 29 a7 0f 3e d4 55 d7 bd 35 e7 33 3d
       0.021670556 0.1402861 -0.10514417 0.043921668
0001d0 1c 7b 18 be 96 ad 87 bd 99 7b 6d 3e 80 0f 2c bd
       -0.14890712 -0.06624906 0.2319168 -0.04200697
0001e0 9c ca d2 3d 8e c8 8e 3c 35 81 3a 3d 21 8f 44 be
       0.10292551 0.017429616 0.045533378 -0.19195224
0001f0 1c 2d 22 3e 84 75 91 3c bb cf 1c 3e 98 ff 01 be
       0.1583752 0.017756231 0.15313618 -0.12695158
000200 46 75 be bc 6f c4 10 3e f6 b6 86 3d 89 a4 4b 3c
       -0.02324928 0.14137433 0.06577866 0.012429365
000210 c4 eb 26 3d dc a4 92 3d 94 3f d8 bd 43 58 fb bd
       0.040752187 0.07160351 -0.105590016 -0.12272694
000220 b2 42 15 3e 9e 94 8e bd 71 5a c9 bd 35 76 53 bc
       0.14576223 -0.0696194 -0.098317035 -0.012906601
000230 de 14 e2 bd 3b 53 4c bd b3 9c 82 bd 86 bd 08 3d
       -0.11039136 -0.049884062 -0.06377544 0.03338387
000240 22 58 3a be 20 6e 23 3e 0e fa c0 be 31 ec 1b 3d
       -0.18197682 0.15959978 -0.37690777 0.038067047
000250 3f af 1b 3e 41 73 10 be 31 0e de bd 57 3a 5b be
       0.1520357 -0.14106466 -0.108425505 -0.21408974
000260 f3 9c 08 be 86 1e 06 3e fd e5 41 be 19 b8 46 3d
       -0.13341121 0.13097581 -0.1893539 0.048515413
000270 44 03 14 3c cd 42 32 be ea 49 35 3c 76 62 94 3d
       0.009033982 -0.17408295 0.011064986 0.072453424
000280 f8 fd 3f bc 81 c9 a8 bd ff 06 5a bc 24 08 e5 3a
       -0.011718266 -0.08241559 -0.013307332 0.001747374
000290 c5 81 ba 3d 37 a4 c8 3d 05 74 b8 bc 68 54 ee 3c
       0.09106783 0.097969465 -0.02251626 0.029092982
0002a0 4b de 1c 3e d9 7e c1 3d 53 9a 6b 3d 40 27 8d bd
       0.15319173 0.094480224 0.057520222 -0.06892252
0002b0 2c c3 39 be c7 ca df 3d 61 08 f3 3d 2f 98 2f 3e
       -0.18140858 0.109273486 0.118668325 0.17147897
0002c0 9e bd 3f bb e3 45 15 be 97 95 22 be dd dd 38 3d
       -0.0029257308 -0.14577441 -0.15877376 0.04513346
0002d0 9d a2 4a 3d fe 76 8a 3c 83 26 cd bd 25 d9 5d bd
       0.049471486 0.016902443 -0.10017111 -0.054162163
0002e0 08 ba db bc 05 8c e5 bd f6 44 24 3e a7 ff de 3b
       -0.026822105 -0.11208347 0.16041932 0.0068053785
0002f0 8f a4 17 bc 62 35 0e bd 0f 8f f1 3d 90 1e 84 3d
       -0.009255542 -0.03471888 0.117948644 0.06451142
000300 7d 83 8e bd 5f 36 59 3d a3 9a 86 be f5 06 df bd
       -0.06958673 0.053030368 -0.26289853 -0.10889999
000310 16 22 57 bd 4b ac 76 3e 84 20 12 3e 66 d3 98 be
       -0.05252274 0.24089162 0.14270216 -0.29848784
000320 ea 0a 8e be 1e 0b c6 3d a7 c3 62 3d 9d cd ed 3d
       -0.27742702 0.09670089 0.05536237 0.11611483
000330 2b db 09 3e a7 ec 39 3d 23 40 cf bd 2d e0 62 3d
       0.13462512 0.045391705 -0.10119655 0.055389572
000340 12 54 3b 3d 8e 09 00 be 14 49 c0 3d 1c e4 80 bc
       0.045734473 -0.12503645 0.093889385 -0.015733771
000350 fd f4 9b 3d 9e 26 a9 3d 21 c3 bf 3d 35 79 5f 3d
       0.07615087 0.08259319 0.0936339 0.05455895
000360 53 79 ad 3d 0f 37 92 3d 32 8f d1 3c be 9a 21 3d
       0.084704064 0.07139408 0.025580976 0.039454214
000370 ce 14 41 be 7e b1 ed bc 49 42 2b be c5 0c fc bd
       -0.18855593 -0.029015299 -0.16724505 -0.12307123
000380 01 f1 6c 3b f4 34 97 3d 46 77 43 bd 39 bf 56 be
       0.0036154392 0.07383147 -0.04772117 -0.20971383
000390 bd 47 5d 3e 11 6e 03 3e 53 ec 0e 3e b6 f1 82 3d
       0.21609397 0.12834956 0.13957338 0.06393759
0003a0 65 2f 43 bc df 95 43 bd 14 17 74 3c 0f 20 67 3d
       -0.011913155 -0.04775035 0.01489808 0.056427058
0003b0 49 3e 76 3d da 7e f6 3d c7 4e c9 bc 97 bf 97 bd
       0.060117994 0.12035914 -0.024573697 -0.0740959
0003c0 f0 23 91 3d 4c 87 16 3e 62 bb 41 be df 0b fc 3d
       0.07086933 0.14700049 -0.18919137 0.12306952
0003d0 87 57 82 3d 36 48 d5 3c 2f e1 27 be 1d 46 5a 3d
       0.06364351 0.02603541 -0.16394494 0.05328952
0003e0 13 d2 03 3e 80 8c 24 be 25 08 de bd bb be f5 3d
       0.12873106 -0.16069221 -0.10841397 0.119992696
0003f0 2f fd 82 bd cd 44 20 3d d1 31 c7 3c 1e 44 9a 3d
       -0.06395947 0.039128114 0.024315747 0.075325236

net.2.bias f4 [256]
000000 4a 1b f6 3c 60 9f de 3c 67 fd c6 bd d2 8f c1 3c
       0.03004231 0.027175605 -0.097163014 0.02362815
000010 0f a3 c7 3d 39 2f 6b 3c b3 90 a4 3c 0a 43 ae bc
       0.09747898 0.0143545205 0.02008853 -0.021272201
000020 84 5f 48 3d 18 a2 55 bc 7e 98 8b 3d de 3e c9 bc
       0.048919216 -0.013039134 0.06816195 -0.02456611
000030 ab ac 10 3d a8 66 9b 3d 18 e4 87 bd 48 d1 c2 bb
       0.03532092 0.075879395 -0.06635302 -0.0059453584
000040 8c 96 05 3c f2 5d 91 bd 25 dd 0f bd 1e 3b 07 bc
       0.008153569 -0.07097997 -0.03512301 -0.008253841
000050 60 8d 43 bd 23 0f 46 3d d3 b0 aa 3c d6 37 a0 3d
       -0.047742248 0.04835428 0.02083627 0.0782315
000060 13 0e 5c bd 36 30 18 3d 82 28 26 3c 18 4c 3f bd
       -0.05372436 0.037155353 0.010141494 -0.046703428
000070 c5 4d a8 bb e7 41 0e bc d3 bc b0 3c 31 6f 5b bd
       -0.005136224 -0.0086827045 0.021574413 -0.053572837
000080 df ff 96 bc 59 36 1b 3d c1 76 0f 3d 9b fe 93 3c
       -0.018432556 0.037893627 0.035025362 0.018065741
000090 10 52 0a bd dd 76 86 bc 99 05 d0 bb cf 7e 9c bd
       -0.033769667 -0.0164141 -0.0063483235 -0.07641374
0000a0 2d c4 e4 3d 17 0d 3b 3d d2 72 64 bd d0 92 ea 3d
       0.1117023 0.04566678 -0.055773564 0.114537835
0000b0 cd 41 ce 3d 7e 58 0d 3d 5c cd f4 bc fc 11 9c 3d
       0.10071144 0.03450822 -0.02988308 0.07620618
0000c0 e2 a4 58 3d 32 e8 63 bd ac 2f 22 bd 5c 75 28 3d
       0.05289162 -0.05564136 -0.039596245 0.041127548
0000d0 fd 5b 61 bd 29 b6 81 3c ba ea 45 3d c1 a7 53 bd
       -0.055019367 0.015833931 0.048319556 -0.051673654
0000e0 cb 7c 02 bd 72 2b ec 3d 55 9c 05 bc aa 10 60 3c
       -0.031857293 0.11531724 -0.008154948 0.013675848
0000f0 2f 9b 80 bd 2a d9 3f 3d 22 a1 94 bc 57 a2 59 bd
       -0.06279599 0.046837963 -0.01814324 -0.053133335
000100 3d f5 2a bc f5 23 bd bc c2 c2 aa 3c e7 3b 41 bb
       -0.010434446 -0.023088435 0.02084482 -0.0029485167
000110 b8 cc 79 bc 37 70 82 3d a8 bb c6 bc b0 61 35 3d
       -0.015246563 0.063690595 -0.024259403 0.044282615
000120 76 a2 61 3d 93 7c 43 bd d3 d5 a3 bd e1 8c 0e 3d
       0.055086575 -0.047726225 -0.07999768 0.03480232
000130 73 97 40 3d 3a 42 41 bd 8e f6 b6 3d 9e cf 83 3c
       0.047019433 -0.0471823 0.08933745 0.01609021
000140 72 b6 b3 bd ff 66 9a 3d 1b 12 97 bd 41 9d 69 bc
       -0.08775033 0.07539176 -0.073765 -0.014258684
000150 0c f1 de bc 74 e1 b3 3d d2 de c7 3d 50 88 63 bd
       -0.02721455 0.08783236 0.097592965 -0.05554992
000160 c0 1d 1a bc 81 82 8a bd 60 db 26 3d 16 a3 a7 3c
       -0.009406507 -0.06763173 0.040736556 0.020463508
000170 a6 45 1c 3d d0 0f 7e bd be 0d 86 3c b6 42 5e bd
       0.03815236 -0.0620268 0.016363975 -0.05426284
000180 c5 38 23 3d 88 0f 55 3d 4e 8e 15 bd dd 61 d8 3d
       0.03984906 0.052016765 -0.036512665 0.10565541
000190 eb 7c 7a bb 0a 0e 3b bd fc 14 9d 3b ca 71 47 3d
       -0.003822143 -0.045667686 0.0047937613 0.048692502
0001a0 9b 79 09 bd 8d 29 28 bd 8f 51 14 bc 39 e1 6e 3c
       -0.033563238 -0.04105525 -0.009052648 0.014580064
0001b0 bf 1a 86 3d e6 3a 58 bc 37 af ec bb d5 20 2a 3d
       0.0654807 -0.013197636 -0.0072230357 0.041535217
0001c0 f0 b4 d4 3b bc 96 f0 3c 1d f2 84 bd f8 3b 1a bd
       0.006491296 0.02936875 -0.06491492 -0.037654847
0001d0 23 56 5a 3d 1c b0 d4 3b 1a 9f 39 3d ee ec 2d bd
       0.053304803 0.0064907204 0.045317747 -0.042462282
0001e0 a3 46 27 3e 47 4f 93 3d 3e f1 a2 bc 2e cb c2 bc
       0.1633554 0.07192855 -0.019890424 -0.023778524
0001f0 5f 28 67 bd bc 27 1c bc 89 90 3f 3d d3 dc de 3c
       -0.056434985 -0.009530958 0.0467687 0.027204907
000200 31 16 f1 39 fd 43 57 bd b8 b5 07 3c 24 0d 80 3d
       0.00045983636 -0.052555073 0.008283071 0.062525064
000210 f1 f1 89 bd f4 45 cc 3b 03 5c 25 3d bf ad fb 3c
       -0.067356 0.006233925 0.040370952 0.030722497
000220 d2 58 55 bd 0f 5f 5b bc f0 58 6d bd c0 4e c5 3d
       -0.05208666 -0.013389363 -0.057946146 0.09634161
000230 4a 76 1f 3c 5a 3d b2 bd 29 f9 31 bd 8b a1 cd 3c
       0.009732792 -0.08703108 -0.04345051 0.025101444
000240 76 db 8e 3c 78 81 95 bd b6 7f c1 3d e5 3a bf bc
       0.017438632 -0.07300085 0.09448187 -0.023343513
000250 d3 c1 4c bd 43 20 69 3c 0d 93 7c bd fd d2 3c bc
       -0.049989533 0.014228883 -0.061663676 -0.011524913
000260 b1 83 b5 3d c1 7c 41 3d 72 e8 57 3d 7b 5e c7 3d
       0.08863009 0.047238115 0.05271191 0.097348176
000270 ab 1d 5e 3d 7f 85 d1 bc 3f 02 68 bd cd 86 cf 3a
       0.054227512 -0.025576351 -0.056642767 0.001583302
000280 94 83 35 3d 64 98 18 bd a4 57 18 3c 4f 05 c2 bc
       0.044314936 -0.037254706 0.009298239 -0.023684172
000290 ad cf 92 3c 0c f3 ec 3c b5 cb 58 3c 30 21 78 bd
       0.017921293 0.028924488 0.013232161 -0.060578525
0002a0 87 eb 57 bd f3 51 21 3d 6d 97 e7 b9 23 51 1d bc
       -0.05271485 0.039384793 -0.00044172574 -0.009601864
0002b0 61 10 36 3d 79 b5 97 3c ad 4f ea 3d e9 80 bc 3d
       0.044449214 0.01851915 0.11440978 0.09204275
0002c0 6d 47 c1 3c b4 e2 92 bc cb eb e0 3d ee e1 34 bc
       0.023593629 -0.017930366 0.10982474 -0.011040194
0002d0 66 5f 25 bd 4d a9 4c 3d b8 c4 a1 bd b3 f9 4c bb
       -0.040374182 0.049966145 -0.07898849 -0.0031276762
0002e0 bc 37 2d 3d e7 6f 0d bd e1 81 20 3d 0d 18 3a bd
       0.04228948 -0.034530547 0.039186362 -0.045433093
0002f0 41 6e d4 bc 7c 07 57 3d 6d fc 08 3d 2b 43 b3 bd
       -0.02593148 0.052497372 0.033443857 -0.08753046
000300 4e ce 9e 3c 74 5a 10 bd 43 d8 81 bd 7d 78 c6 3c
       0.019385483 -0.035242513 -0.06340077 0.024227375
000310 aa 5f 77 bd 07 95 e9 bd 10 bf 9e bc 16 68 00 bd
       -0.060393967 -0.11405378 -0.019378215 -0.031349264
000320 df 15 e1 bb 03 0d 8d bb 69 0d d2 3b 97 f1 b3 3b
       -0.0068690623 -0.0043045296 0.00641029 0.0054914462
000330 ec c4 0d 3c 0a 7d 91 3d 7d 80 e6 bc 2f f1 a4 3d
       0.008652907 0.071039274 -0.02813744 0.080538146
000340 5b 26 2f 3d 56 58 42 bd 91 2e c6 bc 7c 1e 5f bc
       0.042761188 -0.047447525 -0.024192126 -0.013618108
000350 65 85 3a bd ce 6b 7f 3d 5e e2 d5 3d 06 67 e1 bb
       -0.04553737 0.06235867 0.10443567 -0.0068787364
000360 7f 3c 9a 3d d1 b7 c6 3d 8d 0f e9 3b 3a 63 c7 3d
       0.0753107 0.09703029 0.0071124495 0.09735723
000370 83 49 c8 3d 83 3c ae bc 9f 7a 26 3d 69 ef 35 3d
       0.09779646 -0.021269089 0.040644284 0.044417772
000380 aa 44 de 3d cf 3b 1a 3c f8 2c 17 3d 81 38 35 3d
       0.108529404 0.009413674 0.03690812 0.04424334
000390 45 60 4b bb ee 57 dc 3d fc ca bd bd 80 b4 44 bd
       -0.0031032723 0.10758959 -0.09267232 -0.0480237
0003a0 27 8d ac 3d 02 2c 86 3c 72 4f be bc 27 b9 b5 3d
       0.0842536 0.016378406 -0.023231242 0.08873206
0003b0 99 04 03 bd dc 34 4b bd d9 43 51 bd c7 0f 07 3d
       -0.031986807 -0.049610958 -0.051090095 0.03297403
0003c0 08 ca 07 bd 8f d6 8a bd 4a 90 53 bd 2b 22 07 3e
       -0.033151656 -0.06779205 -0.051651277 0.13196628
0003d0 f9 a8 cd 3c cd bd a3 3d 49 bf 92 3d b4 03 ca bc
       0.025104987 0.07995186 0.07165391 -0.024659969
0003e0 fe 9d 22 bd 3a c8 05 3d ce 86 06 bc 46 9b 02 3d
       -0.039701454 0.032661654 -0.008210851 0.03188636
0003f0 54 fa 15 bd fe 72 f0 3c a1 d8 92 3d 2e 24 78 3d
       -0.036615685 0.029351708 0.07170225 0.06058138

net.4.weight f4 [4, 256]
000000 6c 87 a6 3d 39 ec 91 be 6b a0 d9 bc ea 96 ea bc
       0.081312984 -0.28500536 -0.026565751 -0.028636415
000010 84 50 e3 3d 46 29 eb 3d 15 f4 bb 3d 8d cd 9b bd
       0.110993415 0.11482482 0.09177414 -0.07607565
000020 f4 02 09 bb 65 67 d2 bd b3 e4 a9 bd 2d 70 75 be
       -0.0020906301 -0.10273627 -0.08295574 -0.23968573
000030 49 e1 9b 3d 01 23 3d bd 41 bb b6 3b b4 8e 32 3d
       0.07611329 -0.04617596 0.0055765216 0.043593124
000040 77 a1 fb 3d 95 3c 5b be 46 83 2d bd c4 ce e2 39
       0.12286656 -0.21409829 -0.04236152 0.00043260131
000050 ab 6e 66 3d bb 12 86 3d 35 e9 31 be 13 1a 55 3d
       0.056257885 0.06546541 -0.17374118 0.05202682
000060 d4 48 95 3c b2 99 5f bd 32 26 aa bc 00 12 85 bb
       0.018223204 -0.054589935 -0.020770166 -0.0040609837
000070 16 02 f1 3c 34 94 cc ba b5 62 80 bd 70 d5 8e bb
       0.02941994 -0.0015608133 -0.06268827 -0.00435894
000080 c5 e8 28 3d 76 a0 4f 3c dd 2f 4d 3d da 26 5c bd
       0.04123761 0.012672534 0.050094474 -0.05374799
000090 e4 b4 07 bd 64 5b e2 3c c4 53 ef 3c 68 34 9e bc
       -0.033131495 0.02763147 0.029214747 -0.019312099
0000a0 de 58 23 3e c6 48 99 3d ba bf dd 3c 01 19 f3 3d
       0.15951869 0.074845836 0.027068961 0.118700035
0000b0 d3 1b c1 3d 78 ff 6a be 4d 84 37 3d 01 5a 9b 3d
       0.09429135 -0.22949016 0.044803906 0.07585526
0000c0 52 c4 36 bc 58 25 30 bd 18 ca 0d bc f5 4b 20 bc
       -0.011155205 -0.043004364 -0.00865414 -0.009783735
0000d0 78 36 11 bc 7c 6b 03 3d 3f ff 96 bd 08 ac ac bd
       -0.008863084 0.032084927 -0.07372903 -0.0843125
0000e0 44 6d 79 bd 1b 53 75 3d fc 26 ae 3c 31 72 93 bd
       -0.06089522 0.05989371 0.021258824 -0.07199515
0000f0 ea d9 18 3d 42 de 59 3e 49 c4 fb 3d 63 b5 56 3c
       0.037317194 0.21276191 0.12293298 0.013104769
000100 7b e3 e9 39 3b 02 60 3c 40 ca 41 be 41 cc 29 3d
       0.0004461071 0.013672407 -0.18924809 0.041454557
000110 6a 40 a8 3d 7e 27 eb 3c c0 b6 28 bc f4 b3 e9 be
       0.08215411 0.028705355 -0.010297477 -0.45645106
000120 3e 15 f4 3d 18 ba 3a bd 3d b7 93 bd 82 a1 9e be
       0.11918114 -0.04558763 -0.07212684 -0.30982596
000130 ac 52 58 3d 1a 04 28 3d 0e 4d 2c 3e f8 16 8e 3e
       0.052813217 0.041019537 0.16826269 0.277519
000140 0d 9f c8 3d 5a ef e2 3d d2 ce bf bd 02 43 58 bc
       0.097959615 0.11080809 -0.0936562 -0.01319957
000150 f4 21 72 3b 67 13 0b 3e 38 9c 11 3e 6e 8a 23 bc
       0.0036946507 0.1358162 0.14219749 -0.009981735
000160 df a2 22 be 5f e5 ca 3c ff f6 e4 3c 4e 61 8c bc
       -0.15882443 0.024767576 0.027949808 -0.017136242
000170 ed 30 3b 3d ab e8 b9 bd e6 cd 80 3d 7e dd ce 3b
       0.045700956 -0.09077581 0.06289272 0.006313025
000180 25 d2 b1 3d 74 8c 1d be 07 1c 24 be 1d cb 81 3d
       0.0868266 -0.1538561 -0.16026317 0.06337569
000190 d4 94 71 be fc 20 57 bd 0a 0d 7e bd b3 1c f6 3c
       -0.2359193 -0.05252169 -0.062024154 0.030042982
0001a0 03 ef 43 3d 3f b1 09 be 41 73 5d 3d 4f 09 8e 3d
       0.04783536 -0.1344652 0.054064993 0.06935369
0001b0 f0 7f 44 3d 95 cb 94 3c ad ed 87 bd dd 90 8d be
       0.047973573 0.018163482 -0.0663713 -0.27649584
0001c0 99 7a 43 bd ae 6a 25 be 25 b7 1b bd 42 98 10 bd
       -0.04772434 -0.16153976 -0.038016457 -0.035301454
0001d0 f3 52 2b bc c3 45 c8 3c 69 7f 0d be df ac f0 ba
       -0.010456788 0.024447327 -0.13818134 -0.0018362066
0001e0 3e d8 18 3e 69 64 00 be b0 ef 92 3d 0c 0c 33 3d
       0.1492624 -0.12538303 0.07174623 0.04371266
0001f0 4a 32 59 3d 81 d5 94 bd 9a 8f 1c 3d 73 0a 70 3d
       0.053026475 -0.07267285 0.038222887 0.058603715
000200 9e dd ad 3c ed a0 3c 3d 72 7d 37 bd fc 1e 77 3d
       0.02122384 0.04605191 -0.04479737 0.060332283
000210 96 25 89 bc 48 40 a8 3d 1e f9 22 bd 7d d8 6f 3d
       -0.016741555 0.08215386 -0.039788358 0.05855607
000220 7a c2 aa be ec 02 b7 bd a7 db 12 3d 55 f7 22 3d
       -0.333515 -0.08936104 0.035854008 0.039786655
000230 86 96 58 3d 65 0b 41 be 7b 2d 89 bd 4f 5b b8 3d
       0.052877925 -0.18852003 -0.06698128 0.09001791
000240 45 d5 08 be f5 98 e1 bc c8 0d aa 3d 80 5b 11 bd
       -0.13362606 -0.027538756 0.0830341 -0.03548765
000250 42 6d 00 bd 45 e6 71 be 0a 34 96 3d 3d 93 51 bc
       -0.031354196 -0.23622997 0.073341444 -0.012791452
000260 cd 92 bc 3d 77 db 53 3d f5 55 3f 3e 96 41 21 3d
       0.092076875 0.05172297 0.18685134 0.03936919
000270 11 76 a7 3d 45 cb 46 bd 21 08 0d 3c ee df 8c 3d
       0.08176816 -0.048533697 0.008607895 0.06878649
000280 f2 93 d6 3d 9b 2b 35 3d 1a 37 ff 3c 3e 6c a4 bb
       0.10477437 0.04423104 0.031154204 -0.0050177863
000290 c4 60 d4 3d ba 23 dc 3d 88 11 5c 3d 55 7b 36 bc
       0.10370019 0.10749002 0.053727657 -0.011137803
0002a0 ce 63 31 3d 8c 75 00 bd a2 63 c6 bd 42 03 86 be
       0.04330807 -0.0313621 -0.09686972 -0.2617436
0002b0 66 c5 a8 3c ba 95 4d 3c 39 35 a1 3d a2 a3 ba 3d
       0.02060194 0.012547905 0.078714795 0.09113242
0002c0 a1 43 c1 ba fd 43 3c 3d 43 cd 11 3e 58 cf 49 3d
       -0.0014744886 0.045963276 0.14238457 0.049270004
0002d0 9e 5a d5 3a fc 68 c3 3d 6d a8 88 bd d4 3e 93 3d
       0.0016277616 0.095415086 -0.0667275 0.07189718
0002e0 92 e7 38 bc 6b b6 8d bb 65 e3 16 3e ad 06 63 bd
       -0.011285679 -0.0043247244 0.14735182 -0.05542629
0002f0 16 8a 4d bc 6f 3f 88 3c 28 c6 84 3d d6 90 2c be
       -0.012545129 0.01663181 0.06483108 -0.16852126
000300 00 fb 29 bd cb 30 8a 3d 3c 1b d2 3c fd ae 8c 3d
       -0.041499138 0.06747588 0.025647752 0.06869314
000310 74 9a 5f 3d af ef 97 be 49 75 e2 bd 24 f8 ef bd
       0.054590657 -0.29675052 -0.110575266 -0.11717251
000320 e2 3e 54 3d 3f 15 f3 bd 56 17 82 3b 22 a8 12 be
       0.051817782 -0.11869287 0.003970067 -0.1432195
000330 45 ba 8d 3d a4 13 c3 3d 72 08 fb 3a 0f 55 ec 3d
       0.06920294 0.095252305 0.0019152297 0.11539661
000340 49 c2 df 3d e3 be 1d 3c 97 41 2e bd 5a 8d f4 3c
       0.10925729 0.0096280305 -0.04254302 0.029852558
000350 c8 82 04 3d 7c fd 0b bd 49 e0 fb 3d d4 e8 b3 be
       0.032351285 -0.03417729 0.122986384 -0.3513857
000360 97 f2 8b 3d d9 40 d6 3d ca 85 8c be 79 94 e7 3d
       0.0683338 0.104615875 -0.27445823 0.11307616
000370 09 77 14 3e 78 c5 91 be ce 07 bc be eb 35 26 bc
       0.14498533 -0.2847097 -0.36724705 -0.010144691
000380 dd 7d 22 3e ad aa f5 bc e4 7e 60 3e cf 27 40 be
       0.15868326 -0.029988611 0.21923405 -0.18765186
000390 04 c3 db 3a 3a ae 2c 3e 93 ba c2 3d 25 b2 21 be
       0.0016766493 0.16863337 0.095082425 -0.15790613
0003a0 3b 7d 45 3d 7f 53 c0 bd 94 4b cb bc 16 82 08 3e
       0.048215132 -0.093909256 -0.024816312 0.13330874
0003b0 33 17 8c be d2 86 67 3d 28 62 e3 3b fc 43 a8 3d
       -0.2736145 0.05652506 0.0069391914 0.08216092
0003c0 d4 6c 05 3e ac 97 e8 bc 6f a5 2c be 48 96 14 3e
       0.13029796 -0.028392635 -0.16859983 0.14510453
0003d0 f2 9f 6b be c5 bf 99 3d 72 4d 8c be 62 86 3f bc
       -0.23010233 0.0750728 -0.27402836 -0.011689754
0003e0 25 15 81 be 80 33 d9 bd 4f e9 21 bd 23 13 18 bc
       -0.25211444 -0.10605526 -0.03952914 -0.009281906
0003f0 09 05 ab bd b2 c6 d5 bd cd 4b 36 be 36 6d af 3d
       -0.0835057 -0.10438289 -0.17802353 0.08565752

net.4.bias f4 [4]
000000 d1 df 5f 3d 18 7c b9 bc 84 c4 07 be b5 6e 80 ba
       0.054656807 -0.02264218 -0.13258559 -0.0009798618
