model/PPO/Version1/best_actor.pth (torch, 279270 bytes, 6 tensors)

net.0.weight f4 [256, 8]
0.0714669 -0.38224378 -0.49034926 -0.32401347 0.30563983 0.98201036 0.035575297 0.070914716
-0.03589997 0.17878151 0.5490249 -0.4150023 -0.028921975 0.32304874 0.06586183 0.03609285
0.15680182 -0.5452291 -0.35333744 -0.2497868 0.43882018 0.234979 -0.4063291 -0.22339055
0.5459769 -0.6680481 -0.5841159 -0.1114554 0.07803447 -0.47816357 -0.02150343 0.19253898
0.46396464 0.090338394 0.16871749 -0.63653034 -0.76720136 0.46130046 -0.08126641 -0.034050576
0.071303636 0.09034198 0.22768945 0.084623255 -1.4772084 -1.4864627 -0.10067111 -0.11532358
-0.04590516 -0.12717938 0.064294726 0.6172152 0.9328085 0.62888074 0.07819864 0.10334519
-0.009587711 -0.29241672 -0.9030308 0.64029866 0.24975027 1.0947975 0.071281075 0.032174148
0.06625161 0.17085806 0.7373284 -0.053472705 0.14344528 -0.6652582 0.19753502 -0.044821855
0.82657206 0.057568394 0.68027014 -0.1168457 0.12802386 0.652408 -0.2674462 0.24710113
-0.052110504 0.06554264 0.3338898 0.05719981 0.9547808 1.1463382 -0.44987178 -0.3468769
0.07958035 0.6037227 0.7465894 0.7667267 -0.750198 -0.7967384 0.26447904 -0.081751786
-0.3352784 -0.35642502 -0.22511746 0.15706386 0.1452784 0.5117246 -0.2932333 0.35624963
-0.15208018 -0.28200772 0.32103306 -0.17621544 -0.25048667 0.5330517 0.33894628 -0.37686658
-0.17181835 0.10398734 -0.30975458 1.1103156 0.6773457 -0.037700526 -0.26039383 -0.31894207
-0.037209578 -0.652122 -0.16539718 -0.44898877 -0.78531015 -0.40156952 -0.38635597 -0.48029274
0.060018223 -0.1689295 0.19758527 -0.21780154 1.0705194 1.239534 -0.1567165 -0.005175706
-0.11587526 -0.057109952 0.14091475 0.31215495 0.112482525 -1.165083 -0.18128999 0.111793816
-0.6924466 -0.13748305 0.15821236 0.2796255 -0.5011658 0.69290835 -0.030174619 -0.029439159
0.005728411 0.18662219 0.014492185 -0.73638964 -0.80129915 0.04433255 -0.39470693 0.42553714
0.108002074 0.13146119 -0.71705115 1.3871056 0.37939715 -0.10603779 -0.43012777 0.4149008
-0.13610652 0.42231667 -0.37290332 0.57370305 1.045 0.26953116 -0.17546383 -0.10273806
-0.021304645 0.16896546 -0.016892778 -0.6303799 0.45061913 0.017007016 -0.04625526 0.11070646
0.15914375 -0.53022695 -1.142543 0.27315944 -0.30188036 -0.31727502 0.040815607 0.14547504
0.28494647 0.30580398 0.38974068 0.36813262 -1.3119452 -1.0954034 -0.33741954 0.058255065
-0.21684824 -0.29391316 -0.13176937 0.39745775 -0.032563813 -0.5962403 -0.020234438 0.10572078
0.43386534 0.39232415 -0.18860842 0.06736347 0.36331558 -0.67290974 -0.13900809 0.39525154
0.4545208 0.3229352 -0.71716166 -0.19379465 0.088609 -0.39614803 0.2181132 -0.109863184
-0.30032507 0.38417566 -0.10887454 -0.22429012 0.6655601 0.67605877 0.05982891 -0.063772
-0.17287716 -0.25924382 0.28460586 0.007522579 -0.32036343 -0.16233216 -0.08114226 0.13480806
0.081288785 -0.18169677 0.040521327 -0.37317133 -0.16177416 -0.28818858 0.02470039 -0.028049255
0.39694276 0.28301758 0.10787809 0.8073232 1.2840673 -0.5392975 -0.7580812 0.19950922
00000000: 3d5d 923d 75b5 c3be 0f0f fbbe 18e5 a5be
00000010: d37c 9c3e 0865 7b3f 67b7 113d bc3b 913d
00000020: d90b 13bd 8012 373e e58c 0c3f 2e7b d4be
00000030: c7ed ecbc a566 a53e 91e2 863d 19d6 133d
00000040: a890 203e 2294 0bbf a5e8 b4be 1cc8 7fbe
00000050: 0aad e03e 569e 703e 5e0a d0be 7ec0 64be
00000060: 24c5 0b3f 3305 2bbf 9f88 15bf bb42 e4bd
00000070: 89d0 9f3d dbd1 f4be f627 b0bc f028 453e
00000080: c68c ed3e 5603 b93d 47c4 2c3e a7f3 22bf
00000090: 4f67 44bf 932f ec3e 016f a6bd 9e78 0bbd
000000a0: a407 923d 3705 b93d 6c27 693e f54e ad3d
000000b0: 2a15 bdbf 6944 bebf a82c cebd c52e ecbd
000000c0: 0d07 3cbd 503b 02be f4ac 833d d101 1e3f
000000d0: 8acc 6e3f 54fe 203f 9c26 a03d a5a6 d33d
000000e0: c615 1dbc a5b7 95be 072d 67bf 9dea 233f
000000f0: 89be 7f3e 5322 8c3f d0fb 913d 0ac9 033d
00000100: edae 873d 6af5 2e3e 8ec1 3c3f 3206 5bbd
00000110: 52e3 123e 5d4e 2abf 9f46 4a3e 1f97 37bd
00000120: 3a9a 533f d6cc 6b3d 2f26 2e3f cc4c efbd
00000130: b018 033e 3604 273f b5ee 88be 1408 7d3e
00000140: d371 55bd 383b 863d 9bf3 aa3e 594a 6a3d
00000150: 846c 743f 36bb 923f 9855 e6be d999 b1be
00000160: 06fb a23d 928d 1a3f 7c20 3f3f 3348 443f
00000170: fa0c 40bf 0cf7 4bbf cc69 873e 7b6d a7bd
00000180: 9ca9 abbe 577d b6be 3185 66be 59d5 203e
00000190: dcc3 143e 6200 033f ad22 96be 5a66 b63e
000001a0: e8ba 1bbe 5163 90be 725e a43e d271 34be
000001b0: ca3f 80be 1476 083f 5e8a ad3e a8f4 c0be
000001c0: 26f1 2fbe 51f7 d43d 2798 9ebe d21e 8e3f
000001d0: 8766 2d3f de6b 1abd 5752 85be 604c a3be
000001e0: 1269 18bd 78f1 26bf e15d 29be dbe1 e5be
000001f0: 160a 49bf 859a cdbe 73d0 c5be eee8 f5be
00000200: abd5 753d dbfb 2cbe cb53 4a3e 5e07 5fbe
00000210: c806 893f 0da9 9e3f 4a7a 20be f898 a9bb
00000220: 0250 edbd 20ec 69bd f54b 103e c6d2 9f3e
00000230: 3d5d e63d 7121 95bf 15a4 39be 28f4 e43d
00000240: 2e44 31bf 5bc8 0cbe 6c02 223e 132b 8f3e
00000250: 674c 00bf 7162 313f c330 f7bc 642a f1bc
00000260: 65b5 bb3b e319 3f3e a170 6d3c 0884 3cbf
00000270: f121 4dbf 0c96 353d 0717 cabe 01e0 d93e
00000280: 3130 dd3d c39d 063e aa90 37bf ad8c b13f
00000290: 5840 c23e 572a d9bd b539 dcbe e16d d43e
000002a0: 825f 0bbe e439 d83e 2fed bebe 34de 123f
000002b0: 8fc2 853f fdff 893e caac 33be 5568 d2bd
000002c0: 1487 aebc 4805 2d3e b962 8abc 9460 21bf
000002d0: 8db7 e63e 4c52 8b3c 2876 3dbd 12ba e23d
000002e0: 94f6 223e f4bc 07bf d93e 92bf 8edb 8b3e
000002f0: 1090 9abe df71 a2be 442e 273d 69f7 143e
00000300: 81e4 913e 5792 9c3e 178c c73e e17b bc3e
00000310: d2ed a7bf 2e36 8cbf 41c2 acbe dd9c 6e3d
00000320: 770d 5ebe c97b 96be 8dee 06be 957f cb3e
00000330: a261 05bd 34a3 18bf b1c2 a5bc 2384 d83d
00000340: 9923 de3e b6de c83e 9122 41be dcf5 893d
00000350: 8004 ba3e d043 2cbf 2358 0ebe 695e ca3e
00000360: f3b6 e83e c357 a53e e897 37bf 1b72 46be
00000370: a378 b53d ead3 cabe 1159 5f3e f3ff e0bd
00000380: 35c4 99be acb2 c43e 9df9 debd 4fac 65be
00000390: 2662 2a3f 3012 2d3f 290f 753d e59a 82bd
000003a0: b606 31be 9bbb 84be dcb7 913e f77f f63b
000003b0: ad06 a4be 673a 26be ea2d a6bd 200b 0a3e
000003c0: bc7a a63d b80e 3abe b1f9 253d 5010 bfbe
000003d0: 20a8 25be 748d 93be 7958 ca3c 8dc7 e5bc
000003e0: 153c cb3e aee7 903e 30ef dc3d bcac 4e3f
000003f0: 515c a43f 670f 0abf 9c11 42bf 254c 4c3e

net.0.bias f4 [256]
-0.26745334 -0.1259685 0.14253025 -0.18347505 -0.19232906 0.10483194 0.07465518 -0.10755536
-0.22671306 0.020246089 0.070499934 0.03349878 -0.18503541 -0.25031897 0.30366284 -0.20111203
0.036478087 -0.09205421 0.16469435 -0.2953402 0.2202865 0.29104486 -0.3785981 -0.17534149
0.14474802 -0.11449066 -0.2544529 -0.13122691 -0.3752186 -0.3604602 -0.38362867 -0.114758216
0.08200308 -0.2692038 -0.17531256 -0.35281503 0.09266946 -0.050975677 0.049774706 0.032132696
-0.1990884 -0.1262886 0.3527361 -0.37794656 -0.003534179 0.19874021 -0.29627132 -0.2605589
-0.036758296 -0.07577421 0.00037397395 -0.03814468 -0.008572961 -0.24389929 -0.10632306 0.104121216
-0.07875303 0.16602379 0.0012418946 -0.10140172 -0.120659664 -0.18473206 -0.41827324 0.14676006
0.1610392 -0.3298023 -0.22737849 -0.06469727 -0.41808236 0.14011103 -0.024456298 -0.060290422
0.0957334 0.28299275 0.114683434 -0.1947606 -0.05291881 0.014620787 0.060736623 0.19374962
-0.07030677 -0.31607386 -0.34291404 -0.36048743 0.18596694 -0.25490046 -0.2864235 -0.29525757
-0.29815015 0.078246705 0.025627185 -0.11548649 -0.2916829 -0.17953485 0.10166252 -0.17565474
-0.033263553 0.32308355 -0.11619842 -0.34228516 -0.102887966 -0.2218364 -0.35072055 -0.15155809
0.15313637 -0.292085 -0.2759437 -0.36769533 0.20251441 -0.10763825 -0.011326811 0.14370535
-0.02534506 -0.10929861 -0.27684984 -0.08424671 -0.31716278 0.05441008 0.05943474 0.35208216
0.23660658 0.026366664 0.016632855 -0.024034474 0.07399827 -0.020256799 -0.05840105 0.22542875
0.22711623 -0.13811536 -0.1141152 0.16217983 -0.20399247 0.2779227 -0.28762826 -0.054254845
-0.23558693 -0.15948808 0.18122216 0.18343557 -0.0046477187 -0.3495423 0.0576458 -0.2137352
0.119033195 0.030963346 0.039594803 0.2836247 -0.15743001 -0.03998013 0.012748497 0.11691593
-0.25362337 0.015840633 0.016405128 0.13022655 0.18175504 0.44084117 -0.1400906 -0.100904375
-0.30117673 -0.073199876 -0.25654382 -0.3676081 -0.06415745 0.14492115 -0.34212062 -0.19926225
-0.01672808 -0.102838725 -0.20199353 0.17605743 0.3086706 -0.20963068 0.08299055 -0.0035736428
0.15913899 0.21439154 0.10808802 -0.36528075 0.21000189 -0.063364066 -0.14944495 -0.29740953
0.043302238 -0.23628968 0.07765959 -0.059388854 -0.16683167 -0.18847787 -0.030151803 -0.1823536
-0.088060185 0.0023772556 -0.19208618 -0.2302954 -0.020156492 0.11511884 -0.19081366 0.013634867
-0.2753985 0.07890527 -0.34725112 -0.028244775 -0.13004696 0.13686095 0.20269969 0.07083096
0.12595585 0.118288055 -0.19932623 0.07344432 0.26001465 -0.41425392 0.08122654 -0.20327207
-0.29121134 0.015706332 -0.10900561 -0.005993505 -0.18799682 -0.16107878 -0.3695862 -0.0040642694
-0.20435254 -0.040372133 0.15195036 0.021444412 0.034254294 0.027669126 -0.3572741 -0.37641835
-0.3363931 -0.2903749 -0.38838547 0.09169071 0.01783466 -0.23492703 -0.5402581 0.065818496
-0.2225783 -0.3520759 -0.33686456 0.020304013 -0.43211326 -0.08187468 0.1608296 0.23948471
-0.22329457 -0.049516004 -0.04198081 -0.28373823 -0.13727224 0.032890156 -0.12059037 -0.01526591
00000000: a5ef 88be e3fd 00be 73f3 113e e2e0 3bbe
00000010: e9f1 44be 21b2 d63d d1e4 983d fc45 dcbd
00000020: 7827 68be 20db a53c 4562 903d 0436 093d
00000030: ec79 3dbe cf29 80be b279 9b3e 50f0 4dbe
00000040: 0c6a 153d eb86 bcbd a3a5 283e d536 97be
00000050: c992 613e d503 953e 9cd7 c1be b88c 33be
00000060: d338 143e 147a eabd a747 82be 5960 06be
00000070: a71c c0be 3d8e b8be fa6a c4be 5b06 ebbd
00000080: 3bf1 a73d 15d5 89be 2385 33be 2ca4 b4be
00000090: 7cc9 bd3d dfcb 50bd 90e0 4b3d 939d 033d
000000a0: d4dd 4bbe cc51 01be d399 b43e 3682 c1be
000000b0: af9d 67bb 8e82 4b3e e0b0 97be fa67 85be
000000c0: de8f 16bd 822f 9bbd ef11 c439 993d 1cbd
000000d0: 9b75 0cbc bcc0 79be e8bf d9bd 813d d53d
000000e0: 4549 a1bd 2402 2a3e 11c7 a23a b4ab cfbd
000000f0: 6a1c f7bd 672a 3dbe e927 d6be 4548 163e
00000100: 76e7 243e d9db a8be e8d5 68be 0180 84bd
00000110: e40e d6be 4479 0f3e 9358 c8bc 17f3 76bd
00000120: df0f c43d 6de4 903e 26df ea3d 536f 47be
00000130: 65c1 58bd 078c 6f3c f7c6 783d 4d66 463e
00000140: fffc 8fbd 6fd4 a1be 6e92 afbe cf91 b8be
00000150: 1e6e 3e3e 5082 82be 1aa6 92be 002c 97be
00000160: 23a7 98be cf3f a03d 1af0 d13c 2e84 ecbd
00000170: 7657 95be fcd7 37be 7034 d03d d6de 33be
00000180: 5d3f 08bd 356b a53e 70f9 edbd 0040 afbe
00000190: edb6 d2bd 1529 63be a591 b3be 0b32 1bbe
000001a0: c8cf 1c3e 2a8c 95be 7e48 8dbe 9042 bcbe
000001b0: f05f 4f3e 7171 dcbd 1794 39bc 7f27 133e
000001c0: 71a0 cfbc f3d7 dfbd 43bf 8dbe 8a89 acbd
000001d0: 2963 a2be 1bdd 5e3d d871 733d 1d44 b43e
000001e0: ff48 723e e7fe d73c a041 883c f2e3 c4bc
000001f0: 688c 973d 96f1 a5bc f035 6fbd cbd6 663e
00000200: 2891 683e 1d6e 0dbe 3bb5 e9bd 7812 263e
00000210: 67e3 50be e24b 8e3e 0344 93be 543a 5ebd
00000220: b33d 71be d850 23be 4d92 393e 89d6 3b3e
00000230: e44b 98bb 35f7 b2be 011e 6c3d 66dd 5abe
00000240: adc7 f33d d8a6 fd3c 292e 223d 4237 913e
00000250: 5535 21be 34c2 23bd 12df 503c 9e71 ef3d
00000260: ecda 81be 37c4 813c 0c64 863c 1c5a 053e
00000270: fe1d 3a3e efb5 e13e e973 0fbe f4a6 cebd
00000280: d633 9abe d1e9 95bd b659 83be 2137 bcbe
00000290: fb64 83bd 3666 143e 6f2a afbe 670b 4cbe
000002a0: 5409 89bc 1c9d d2bd 64d7 4ebe 6648 343e
000002b0: 130a 9e3e 6da9 56be f3f6 a93d c733 6abb
000002c0: 55f5 223e 7589 5b3e 405d dd3d 1406 bbbe
000002d0: bc0a 573e 05c5 81bd 1908 19be 1046 98be
000002e0: b05d 313d ecf5 71be fe0b 9f3d ba41 73bd
000002f0: ecd5 2abe 5800 41be ea00 f7bc e7ba 3abe
00000300: e658 b4bd bbcb 1b3b 3db2 44be 8fd2 6bbe
00000310: 3a1f a5bc 6dc3 eb3d a864 43be c764 5f3c
00000320: 0801 8dbe 1699 a13d e6ca b1be 9661 e7bc
00000330: 082b 05be 4725 0c3e 8290 4f3e d30f 913d
00000340: 92fa 003e 0241 f23d 2d1c 4cbe fa69 963d
00000350: a420 853e 1719 d4be 1a5a a63d 8e26 50be
00000360: a719 95be 91aa 803c 553e dfbd 2a65 c4bb
00000370: 3d82 40be d6f1 24be 673a bdbe 902d 85bb
00000380: cb41 51be 405d 25bd e098 1b3e 31ac af3c
00000390: 3b4e 0c3d 5daa e23c a1ec b6be e8b9 c0be
000003a0: b73b acbe 05ac 94be 76da c6be 57c8 bb3d
000003b0: fe19 923c b690 70be 5b4e 0abf d9cb 863d
000003c0: 91eb 63be 4b43 b4be 8379 acbe 9a54 a63c
000003d0: f33d ddbe eaad a7bd 84b0 243e 7b3b 753e
000003e0: 55a7 64be 4bd1 4abd 12f4 2bbd 2346 91be
000003f0: 1891 0cbe d4b7 063d 15f8 f6bd de1d 7abc

net.2.weight f4 [256, 256]
0.18924108 0.20542334 0.2927634 0.11084256 -0.16651565 -0.40170753 0.15867151 0.09771412
0.06542063 -0.14522634 0.2763681 -0.50387377 0.22442368 -0.31511277 0.11924584 0.066067025
0.33966637 -0.16276503 0.18838511 0.29994804 0.040683527 -0.13288894 0.42086843 0.060929902
-0.7559444 -0.12076652 -0.30719566 -0.22671513 0.07557457 -0.12087824 0.041277442 -0.060417257
-0.10390305 0.17729616 0.017339906 0.20380321 0.05804543 -0.0126885995 -0.29693937 -0.10327261
-0.13858539 0.19131659 -0.13765885 0.3053317 0.32064572 -0.11408902 -0.027779771 0.14886925
-0.08838487 -0.34987882 0.06428848 -0.10005511 0.18833071 0.24403967 0.2672864 -0.022298904
0.08881195 -0.116823584 -0.080872156 -0.4207095 0.07451916 0.28579763 -0.21884157 0.21314296
0.1357732 0.28284824 -0.09724601 -0.031802367 0.21147202 0.08490153 -0.08757389 -0.17364815
0.0005071911 0.04159819 -0.80009776 -0.060401488 -0.3224892 0.13975148 0.28938478 0.27604026
0.17451663 0.23925236 0.17909487 0.3943273 0.38648462 0.30427313 0.08662135 0.3156568
-0.23530029 0.18852183 0.20293672 -0.312502 0.40021262 0.15921804 0.19024995 0.34605348
0.29319936 -0.026574213 0.041317068 0.007941806 0.2192541 0.06188544 0.024678301 0.3008166
0.21544571 0.26694465 0.28933445 0.1834234 0.20705552 -0.08207009 -0.11485723 -0.16606693
-0.12850617 0.09667379 -0.17718491 0.15226683 0.14292954 -0.016463617 -0.027664222 0.037261333
0.018021787 0.01036555 -0.44072917 -0.116535306 0.0967294 -0.70864064 0.06537579 0.1719733
0.008062224 0.039595604 -0.16064022 -0.56104803 0.23288955 -0.013460784 -0.08471226 -0.10155031
0.13042918 -0.11087839 -0.10738517 0.18541841 -0.08232286 0.15013523 -0.16573669 0.10010622
0.32754543 -0.030615905 0.012376206 0.07017745 -0.11699767 -0.11208856 0.1287191 0.20660137
0.08813957 0.057701297 0.2994201 0.01763783 0.39483386 0.16879214 -0.27686128 -0.030078541
-0.07092532 0.10448682 -0.02461312 0.0063854815 -0.09582073 0.05039843 0.17488973 0.057292633
-0.68376774 -0.119149975 0.007986141 -0.1816258 0.055852514 -0.06714055 -0.08280102 0.2297255
0.28952265 0.3066513 0.24570544 0.16213712 -0.09501516 -0.15620573 0.14636213 0.2660447
-0.047491238 0.19309898 0.2692855 -0.13279492 -0.0481355 0.015693722 -0.16798712 0.106689595
-0.10280019 0.19139974 0.37082404 0.19608516 -0.17404717 0.076039076 0.06355387 -0.25790206
0.23356034 0.012686084 0.34274602 -0.53358775 0.11373841 0.34970674 -0.006913168 -0.078995116
0.17671783 0.01053912 -0.042361923 -0.09565352 0.27470717 0.30091545 -0.1538304 0.14575717
0.27268004 0.23759912 0.24117163 0.06933787 -0.17035596 -0.36084735 -0.10772425 -0.07863618
0.14416121 0.20636226 -0.1344406 -0.46577308 -0.31192204 0.15021022 0.32953474 0.14318003
-0.21047331 0.11690383 0.05012441 0.095545046 -0.34088796 -0.1874099 0.27885917 0.16704108
0.018091887 0.06793784 -0.0030211122 -0.032835007 0.20792116 -0.15297873 0.0688481 -0.17781213
0.023335233 -0.10340992 0.42044917 0.03392297 0.1232423 0.09427963 0.20239007 0.2765056
00000000: 6ac8 413e 7f5a 523e 16e5 953e 6d01 e33d
00000010: 1483 2abe 9cac cdbe c97a 223e 571e c83d
00000020: 40fb 853d 37b6 14be 1f80 8d3e dffd 00bf
00000030: 52cf 653e 7656 a1be 2a37 f43d 264e 873d
00000040: c0e8 ad3e e0ab 26be 07e8 403e ca92 993e
00000050: c5a3 263d 0a14 08be 117c d73e a291 793d
00000060: 9285 41bf 7054 f7bd c048 9dbe 0328 68be
00000070: d7c6 9a3d 038f f7bd 8912 293d 1678 77bd
00000080: 1fcb d4bd 208d 353e 6b0c 8e3c cab1 503e
00000090: 0bc1 6d3d d8e3 4fbc 7008 98be 9780 d3bd
000000a0: 54e9 0dbe 7fe8 433e 71f6 0cbe 7054 9c3e
000000b0: ad2b a43e 81a7 e9bd 6792 e3bc 2e71 183e
000000c0: 2003 b5bd 5123 b3be aea9 833d b2e9 ccbd
000000d0: c4d9 403e 89e5 793e c3d9 883e 31ac b6bc
000000e0: 0ae3 b53d 3441 efbd 4da0 a5bd 3c67 d7be
000000f0: 809d 983d 1154 923e 0118 60be 2642 5a3e
00000100: 2108 0b3e 7cd1 903e eb28 c7bd 3343 02bd
00000110: 1f8c 583e dae0 ad3d f159 b3bd d2d0 31be
00000120: 05f5 043a dd62 2a3d 35d3 4cbf 8d67 77bd
00000130: 4e1d a5be 031b 0f3e 3e2a 943e 2655 8d3e
00000140: 7db4 323e 92fe 743e a564 373e 45e5 c93e
00000150: 50e1 c53e b0c9 9b3e 8966 b13d c59d a13e
00000160: 8ff2 70be de0b 413e a5ce 4f3e 4300 a0be
00000170: abe8 cc3e 0e0a 233e e2d0 423e ec2d b13e
00000180: 3a1e 963e 2ab2 d9bc 163c 293d 591e 023c
00000190: 2684 603e 967b 7d3d 262a ca3c a204 9a3e
000001a0: cd9d 5c3e f8ac 883e a523 943e 58d3 3b3e
000001b0: 5d06 543e 5d14 a8bd 443a ebbd 730d 2abe
000001c0: 1f97 03be e8fc c53d f66f 35be d6eb 1b3e
000001d0: 1f5c 123e b5de 86bc 14a0 e2bc 579f 183d
000001e0: 6da2 933c 45d4 293c 41a7 e1be 10aa eebd
000001f0: 101a c63d 7969 35bf bee3 853d c519 303e
00000200: 6b17 043c 002f 223d df7e 24be d8a0 0fbf
00000210: 997a 6e3e 9f8a 5cbc 9f7d adbd 9cf9 cfbd
00000220: 3a8f 053e 3614 e3bd c2ec dbbd 53de 3d3e
00000230: e398 a8bd 0dbd 193e e1b6 29be 7d04 cd3d
00000240: 09b4 a73e 35ce fabc 92c5 4a3c 32b9 8f3d
00000250: 799c efbd b08e e5bd f1ce 033e 4f8f 533e
00000260: 8582 b43d 3258 6c3d 974d 993e 367d 903c
00000270: aa27 ca3e d9d7 2c3e c3c0 8dbe 4667 f6bc
00000280: 4b41 91bd 30fd d53d 74a1 c9bc 4d3d d13b
00000290: a93d c4bd 966e 4e3d 4b16 333e aeab 6a3d
000002a0: 670b 2fbf e704 f4bd 4ed8 023c 1dfc 39be
000002b0: 9bc5 643d fc80 89bd 9593 a9bd 293d 6b3e
000002c0: 503c 943e 6601 9d3e 359a 7b3e 4607 263e
000002d0: 4f97 c2bd 65f4 1fbe f4df 153e 0337 883e
000002e0: 2c86 42bd bdbb 453e cadf 893e 64fb 07be
000002f0: bb29 45bd 1f90 803c d104 2cbe 1380 da3d
00000300: e888 d2bd 4bfe 433e a6dc bd3e 8cca 483e
00000310: 6c39 32be 60ba 9b3d 8828 823d bd0b 84be
00000320: 712a 6f3e 4bd9 4f3c 687c af3e 3599 08bf
00000330: afef e83d c30c b33e db87 e2bb 31c8 a1bd
00000340: 85f5 343e 46ac 2c3c b283 2dbd fee5 c3bd
00000350: 6ba6 8c3e 9711 9a3e b785 1dbe 5e41 153e
00000360: b89c 8b3e 2f4d 733e b2f5 763e 0301 8e3d
00000370: cb71 2ebe fcc0 b8be 889e dcbd 010c a1bd
00000380: ff9e 133e a150 533e ccaa 09be cf79 eebe
00000390: 3fb4 9fbe b5d0 193e c7b8 a83e c99d 123e
000003a0: 5186 57be 466b ef3d 414f 4d3d 1fad c33d
000003b0: de88 aebe 61e8 3fbe a1c6 8e3e d10c 2b3e
000003c0: 7035 943c ff22 8b3d dafd 45bb 007e 06bd
000003d0: 49e9 543e 75a6 1cbe 3c00 8d3d 6214 36be
000003e0: 8829 bf3c 95c8 d3bd 1d45 d73e d0f2 0a3d
000003f0: 7566 fc3d ae15 c13d 583f 4f3e 2492 8d3e

net.2.bias f4 [256]
0.072889455 -0.08946617 -0.051902175 0.021942476 -0.12585905 0.032772332 0.04315205 -0.0008729767
0.2469287 0.09482944 -0.07841618 -0.037163734 0.112334654 0.045160342 -0.057388134 0.053186506
-0.130491 -0.07134584 0.12714298 -0.07628248 0.15477425 -0.094202906 -0.0014889874 -0.034325745
0.028102623 -0.023675503 -0.09823201 0.07847557 -0.15416731 -0.033439804 -0.07556324 -0.07776847
-0.02214693 0.012320028 0.009370429 0.04478342 -0.06407613 0.034128517 0.11275968 -0.030663403
0.15748148 -0.1523331 -0.014908129 -0.083503634 -0.13228267 -0.11899386 0.14182678 -0.061017614
-0.06346186 0.016275063 -0.018320702 -0.17861004 -0.03584571 -0.2198911 0.027435282 -0.06033957
0.112761 0.13111545 -0.027800512 -0.048526354 0.13708077 -0.06409965 -0.22036481 -0.16908112
-0.23606126 0.033883885 -0.13764654 0.00034110024 0.26440817 -0.108118005 0.19743976 -0.089080036
0.03416439 -0.07109601 -0.0909102 0.16348787 0.15630426 0.086606294 -0.028371103 -0.048972245
0.022276955 -0.03763249 0.12175684 -0.067614265 -0.1693073 0.09339048 0.12063798 -0.01825884
-0.08261061 0.02387927 -0.05279343 -0.04134249 -0.116260566 0.005445777 0.0031610543 -0.006793428
0.075780995 -0.04022621 -0.14450584 0.059228674 -0.023158355 0.009470986 -0.14480437 0.07338319
-0.008484264 0.07796494 0.0070499354 0.1688095 -0.042802695 -0.11683147 -0.27160147 -0.06780077
-0.05320272 -0.1556687 -0.030903574 0.036431585 0.19601856 0.103925556 -0.0058992296 -0.05050073
-0.04166475 0.044469416 0.061020967 -0.05368146 -0.022648346 0.022091473 0.24251825 0.119364455
0.19927429 -0.1003865 -0.16863586 0.032646094 0.26759967 -0.109721154 0.07150486 0.078878835
0.14812583 -0.041535467 0.1139248 -0.07703105 -0.09212186 0.062954426 0.124182805 -0.14329588
-0.102194145 0.003177295 -0.049404193 0.05754288 -0.035186715 -0.036309544 0.021517938 -0.113886535
-0.12987569 -0.0691968 -0.09571468 -0.07663225 -0.06793808 -0.08610859 -0.044828136 -0.05751238
-0.075311065 0.24941559 -0.07822958 -0.055201035 -0.07028181 0.0052801836 0.04759681 0.23619418
-0.06341684 -0.15326731 -0.013275434 0.09194193 0.12844728 0.029620847 -0.025864564 -0.10833987
0.050070163 -0.20583025 -0.18935347 -0.03787538 -0.10045269 0.0418832 -0.10186893 0.041946664
-0.008427329 0.035850946 0.030444577 -0.17305993 -0.012868057 0.11276536 0.035066158 -0.017704822
-0.056998238 0.18861288 0.16481714 0.08022567 -0.07399546 -0.21166094 0.14450245 0.13838568
-0.066045284 -0.011916706 0.15084742 -0.047464143 -0.06418735 -0.1588235 -0.08635517 0.048094664
-0.09279087 -0.011322741 -0.00090622465 0.08848509 -0.00839016 0.030581841 0.03982504 -0.12378014
0.003147636 -0.035089612 -0.03757731 0.1664615 0.021051528 0.04767783 -0.055755276 0.028084518
-0.011615529 0.017663486 -0.030167364 -0.047833774 -0.18809648 0.12991051 -0.09992509 0.009501205
0.0079128165 0.01500246 0.10545806 0.007531304 0.052734565 0.11797779 -0.07038527 0.13016763
-0.13544048 -0.038538966 -0.11452381 0.092998594 0.0032501367 0.042219974 0.06894798 -0.16312207
0.035467383 -0.022388885 -0.057605427 -0.0085352585 0.037034526 0.04699677 0.004133327 -0.03667718
00000000: 1147 953d 0a3a b7bd 6097 54bd b5c0 b33c
00000010: 32e1 00be 483c 063d 34c0 303d 7ad8 64ba
00000020: e1da 7c3e f035 c23d aa98 a0bd 0039 18bd
00000030: b60f e63d 0dfa 383d d20f 6bbd 18da 593d
00000040: 6f9f 05be c51d 92bd c531 023e fd39 9cbd
00000050: 247d 1e3e 74ed c0bd 202a c3ba 2799 0cbd
00000060: 7937 e63c 21f3 c1bc dd2d c9bd cdb7 a03d
00000070: 09de 1dbe 2df8 08bd e6c0 9abd 1345 9fbd
00000080: 7b6d b5bc f1d9 493c 6e86 193c d26e 373d
00000090: 593a 83bd 58ca 0b3d 8cee e63d d131 fbbc
000000a0: d342 213e 35fd 1bbe 3a41 74bc f403 abbd
000000b0: 1c75 07be 0eb3 f3bd 0a3b 113e 9bed 79bd
000000c0: 4bf8 81bd 4853 853c 4c15 96bc 8de5 36be
000000d0: f4d2 12bd 222b 61be f5bf e03c a026 77bd
000000e0: 3def e63d 2143 063e e6bd e3bc 92c3 46bd
000000f0: e75e 0c3e ad46 83bd 50a7 61be 9a23 2dbe
00000100: 0bba 71be d4c9 0a3d 37f3 0cbe b3d5 b239
00000110: 8260 873e f96c ddbd a62d 4a3e 986f b6bd
00000120: f6ef 0b3d c99a 91bd 202f babd 5d69 273e
00000130: 390e 203e a45e b13d 846a e8bc 1f97 48bd
00000140: 297e b63c 8724 1abd a65b f93d 5979 8abd
00000150: e55e 2dbe 8243 bf3d 0c11 f73d 9093 95bc
00000160: c02f a9bd 759e c33c ec3d 58bd be56 29bd
00000170: 051a eebd 7d72 b23b b129 4f3b 689b debb
00000180: 1133 9b3d 3dc4 24bd 57f9 13be c499 723d
00000190: 97b6 bdbc 322c 1b3c 9947 14be ed49 963d
000001a0: 9501 0bbc 15ac 9f3d 2503 e73b 66dc 2c3e
000001b0: e151 2fbd 5645 efbd 590f 8bbe 21db 8abd
000001c0: 18eb 59bd 9e67 1fbe 7e29 fdbc 4939 153d
000001d0: 17b9 483e ecd6 d43d 534e c1bb dad9 4ebd
000001e0: a8a8 2abd 9025 363d 1ff1 793d 17e1 5bbd
000001f0: 0689 b9bc 2df9 b43c b456 783e 5a75 f43d
00000200: 8f0e 4c3e 7097 cdbd e1ae 2cbe e9b7 053d
00000210: d302 893e 7cb5 e0bd 2471 923d 3a8b a13d
00000220: 4cae 173e 1821 2abd 6851 e93d 75c2 9dbd
00000230: 63aa bcbd 40ee 803d 8e53 fe3d 28bc 12be
00000240: 2a4b d1bd 2a3a 503b 0d5c 4abd 15b2 6b3d
00000250: f21f 10bd 51b9 14bd 6346 b03c 583d e9bd
00000260: 22fe 04be 0db7 8dbd 0f06 c4bd 5ef1 9cbd
00000270: 1f23 8bbd b359 b0bd b59d 37bd 1a92 6bbd
00000280: b03c 9abd cd66 7f3e d436 a0bd 7b1a 62bd
00000290: e9ef 8fbd 6405 ad3b dff4 423d e3dc 713e
000002a0: b0e0 81bd 1bf2 1cbe 3581 59bc 0d4c bc3d
000002b0: af87 033e 6ba7 f23c ece1 d3bc 4be1 ddbd
000002c0: 5f16 4d3d 2ac5 52be e0e5 41be 3723 1bbd
000002d0: 24ba cdbd b88d 2b3d a8a0 d0bd 44d0 2b3d
000002e0: c812 0abc 71d8 123d e866 f93c 9f36 31be
000002f0: 8bd4 52bc 86f1 e63d 88a1 0f3d b409 91bc
00000300: fc76 69bd bc23 413e d3c5 283e 5b4d a43d
00000310: ef8a 97bd a5bd 58be 73f8 133e fab4 0d3e
00000320: c042 87bd 4a3e 43bc bf77 1a3e c369 42bd
00000330: a874 83bd a1a2 22be fbda b0bd e9fe 443d
00000340: 2409 bebd 0583 39bc b58f 6dba ac37 b53d
00000350: e276 09bc c586 fa3c 951f 233d 7180 fdbd
00000360: 9248 4e3b 20ba 0fbd aaea 19bd e274 2a3e
00000370: 4174 ac3c d449 433d a55f 64bd 8111 e63c
00000380: 0f4f 3ebc 04b3 903c 8c21 f7bc 59ed 43bd
00000390: 5d9c 40be 4307 053e 87a5 ccbd f1aa 1b3c
000003a0: c2a4 013c e1cc 753c 65fa d73d 28c9 f63b
000003b0: 3300 583d 579e f13d 2726 90bd aa4a 053e
000003c0: e9b0 0abe 09db 1dbd 768b eabd 0c76 be3d
000003d0: 3f00 553b daee 2c3d 9934 8d3d 7909 27be
000003e0: 3f46 113d e568 b7bc abf3 6bbd 78d7 0bbc
000003f0: 84b1 173d af7f 403d dc70 873b d03a 16bd

net.4.weight f4 [4, 256]
-0.66554564 0.05165212 -0.082248375 0.024044456 0.13097627 0.0057795723 -0.13439153 -0.03664423
-0.05786395 0.16659658 -0.07588111 0.03902085 0.20547119 0.17112787 -0.04326493 0.10381057
0.18290721 -0.031613905 -0.39742205 0.08212908 -0.37288594 -0.041949514 0.13589938 0.034412224
0.12768681 0.2888443 0.028286096 0.25334558 -0.3130492 -0.001299605 -0.375846 -0.037615515
0.019644113 -0.20569885 -0.491084 -0.77019614 0.06795361 0.05629752 0.26422063 -0.6017779
0.33108655 -0.0392966 -0.042127427 0.3669135 -0.08908959 -0.7516536 0.32327372 0.044961356
0.040133514 -0.040413085 -0.18009797 0.3137269 -0.022539558 0.17269473 0.048891347 -0.03173269
0.005841518 0.17277329 -0.2318346 -0.04593856 0.14004728 0.10487888 0.283691 -0.39717016
-0.39602163 -0.033909123 0.34070307 -0.010360319 0.043193445 -0.4284504 0.35570973 -1.0264571
0.33317348 0.01585493 0.07414714 0.3480001 -0.033051115 0.14111926 0.11975614 -0.83819675
-0.08332155 0.01637456 -0.7006233 -0.036956612 0.22586218 0.1582581 -0.41080934 0.006699149
0.016821578 0.039029825 -0.0380186 -0.34077168 0.12009569 0.044020154 -0.03734522 0.15971921
-0.05099484 -0.02398954 -1.3224089 0.34157977 0.01887429 0.41378713 -0.38505617 -0.4292806
0.0064886403 0.38446015 -0.010646982 -0.3593867 0.00757893 0.043906946 -0.015329482 0.11938184
0.029369237 -0.028068265 0.0346411 -1.2209151 0.321601 -0.03482574 -0.74832463 -0.005092335
0.00051444804 0.0956222 0.37073895 -0.0030399088 -0.16599226 0.02872813 0.060371857 -0.512608
0.21561879 0.17060407 -0.17492737 0.08902657 0.3212013 -0.96945184 -0.16054782 -0.60741806
-0.18931599 0.17804408 0.38552672 0.0047977245 -0.6792122 0.11601482 0.33026907 0.26502943
-1.2206361 -0.6913611 -0.026727807 -0.7357028 0.047893506 -0.20133276 -0.024507685 0.08463487
0.039937533 -0.33947435 0.06787771 -0.036995064 -0.054652963 0.22954093 0.10365072 0.065380886
0.05283035 0.47628725 -0.038791142 0.12025054 0.21260624 0.0769033 -1.0382272 -0.036267597
0.11262164 -0.21196939 -0.039961476 -0.34969383 -0.16185334 -0.03051032 -0.027682813 0.2786857
0.39138666 -0.25665957 -0.64222014 -0.030388959 -0.20318556 0.14990065 0.045486473 0.095796354
0.02268206 -0.083830215 -0.17897566 0.12237886 0.065822825 -0.54009813 -0.2010856 0.21615943
0.27392662 -0.5220017 0.02420631 0.21900073 0.086043246 0.29085174 -0.38786808 -0.63918805
0.04295571 0.004824487 -0.032627404 -0.009319405 -0.53515184 -0.070807904 0.09059938 -0.2210532
-0.7300334 0.13537785 0.039184045 -0.4036251 0.05963793 0.3145532 -0.39158523 -0.27135238
0.036954828 -0.7007567 -0.06465611 -0.22494474 0.05278261 0.10795747 0.17814656 0.13009968
0.31982946 0.06917121 0.17725529 -0.034495458 -1.2602897 -0.0022188937 0.0059931627 -0.010418937
0.09813116 0.012894872 0.20702499 -0.39199963 0.2724648 -0.27949947 -0.142874 0.12879473
0.1771993 -0.61775833 -0.10373829 -0.5103568 0.020372083 -0.41164228 -0.21524316 -0.5183124
-0.0571882 -0.38134804 -0.004619009 0.018075965 0.22404847 0.14471787 0.18110238 -0.2523536
00000000: 3361 2abf 2c91 533d d671 a8bd e1f8 c43c
00000010: a51e 063e 9162 bd3b ef9d 09be 4318 16bd
00000020: c002 6dbd 4b98 2a3e 8e67 9bbd 54d4 1f3d
00000030: 0a67 523e 253c 2f3e 9136 31bd a39a d43d
00000040: 074c 3b3e 957d 01bd e77a cbbe 4b33 a83d
00000050: e8ea bebe 41d3 2bbd 3529 0b3e d5f3 0c3d
00000060: 55c0 023e 66e3 933e 3eb8 e73c 83b6 813e
00000070: fc47 a0be 8257 aaba e36e c0be ba12 1abd
00000080: b1ec a03c b8a2 52be 5d6f fbbe 932b 45bf
00000090: 432b 8b3d 3a98 663d ed47 873e 1e0e 1abf
000000a0: 2d84 a93e 79f5 20bd cf8d 2cbd 16dc bb3e
000000b0: 9a74 b6bd 5f6c 40bf 2284 a53e 6629 383d
000000c0: 0a63 243d 3188 25bd 9a6b 38be d0a0 a03e
000000d0: e1a4 b8bc e3d6 303e 4b42 483d 23fa 01bd
000000e0: 346a bf3b 7beb 303e 0d66 6dbe 122a 3cbd
000000f0: 8e68 0f3e bdca d63d f23f 913e e359 cbbe
00000100: 59c3 cabe 4be4 0abd a270 ae3e 54be 29bc
00000110: 9ceb 303d da5d dbbe 961f b63e f262 83bf
00000120: b795 aa3e 33e2 813c 75da 973d 122d b23e
00000130: 9b60 07bd 9181 103e b542 f53d 1094 56bf
00000140: 7da4 aabd f123 863c 0c5c 33bf d15f 17bd
00000150: 6a48 673e 690e 223e 9a55 d2be 8984 db3b
00000160: 68cd 893c bddd 1f3d 64b9 1bbd a079 aebe
00000170: bbf4 f53d 7a4e 343d 4df7 18bd 6f8d 233e
00000180: f7df 50bd b685 c4bc b244 a9bf 8be3 ae3e
00000190: 419e 9a3c e8db d33e 1526 c5be abca dbbe
000001a0: a99e d43b f6d7 c43e ae70 2ebc 8901 b8be
000001b0: ac58 f83b c5d7 333d 8228 7bbc 777e f43d
000001c0: c197 f03c 6bef e5bc d3e3 0d3d f246 9cbf
000001d0: e3a8 a43e 6fa5 0ebd 3492 3fbf 9add a6bb
000001e0: 06dc 063a 92d5 c33d 7fd1 bd3e 3539 47bb
000001f0: e0f9 29be 4157 eb3c 7b48 773d 473a 03bf
00000200: 2ccb 5c3e d5b2 2e3e 2920 33be 9053 b63d
00000210: 7f74 a43e ff2d 78bf a666 24be c07f 1bbf
00000220: 0ddc 41be 3051 363e c263 c53e 3b36 9d3b
00000230: dae0 2dbf 2e99 ed3d 0719 a93e f0b1 873e
00000240: ce3d 9cbf 0bfd 30bf 46f4 dabc 0557 3cbf
00000250: fb2b 443d 2d2a 4ebe 57c4 c8bc 0c55 ad3d
00000260: 8a95 233d 95cf adbe 7803 8b3d 2388 17bd
00000270: c9db 5fbd c70c 6b3e d446 d43d 6ae6 853d
00000280: a364 583d ecdb f33e 76e3 1ebd ea45 f63d
00000290: 73b5 593e 7a7f 9d3d a1e4 84bf 558d 14bd
000002a0: 2da6 e63d 810e 59be a5ae 23bd 120b b3be
000002b0: e2bc 25be c7f0 f9bc 11c7 e2bc e4af 8e3e
000002c0: d563 c83e e268 83be 8a68 24bf 44f2 f8bc
000002d0: e00f 50be 8e7f 193e 0650 3a3d e130 c43d
000002e0: bacf b93c 2daf abbd 6545 37be c5a1 fa3d
000002f0: 1ece 863d df43 0abf 62e9 4dbe e658 5d3e
00000300: 1c40 8c3e e7a1 05bf 504c c63c ba41 603e
00000310: 7137 b03d 85ea 943e a596 c6be d4a1 23bf
00000320: 54f2 2f3d bb16 9e3b 50a4 05bd 6bb0 18bc
00000330: b6ff 08bf bc03 91bd 2b8c b93d c55b 62be
00000340: 78e3 3abf 7ea0 0a3e 737f 203d f3a7 cebe
00000350: e746 743d 1e0d a13e dc7d c8be b3ee 8abe
00000360: f25d 173d cb64 33bf 6c6a 84bd ea57 66be
00000370: 9432 583d ce18 dd3d 0d6c 363e da38 053e
00000380: b0c0 a33e a3a9 8d3d 6982 353e 1c4b 0dbd
00000390: 2c51 a1bf dc6a 11bb 4b62 c43b 30b4 2abc
000003a0: fdf8 c83d 0345 533c 5cfe 533e 2db4 c8be
000003b0: 8280 8b3e 8e1a 8fbe 904d 12be c4e2 033e
000003c0: bc73 353e 6925 1ebf be74 d4bd bea6 02bf
000003d0: 5be3 a63c c7c2 d2be b468 5cbe 1fb0 04bf
000003e0: 2d3e 6abd 0d40 c3be 0e5b 97bb 0c14 943c
000003f0: f66c 653e ec30 143e e772 393e 7e34 81be

net.4.bias f4 [4]
0.08210705 0.10883019 -0.081888944 -0.03306585
00000000: be27 a83d 5de2 de3d 64b5 a7bd 0f70 07bd
